Supervised/Classifcation/Hand Writing/handwriting_98_04.tflite (tflite, 848460 bytes, 8 tensors)

sequential_2/conv2d_3/Conv2D/ReadVariableOp f4 [1, 3, 3, 32]
00000000: 13f9 9d3d ff76 22bc 9da0 05bc 0205 5bbd
00000010: f2f7 25be 2b87 9cbd 0563 083c b9ca f03d
00000020: 781b cc3d 6d7a 14be 361c 28be 1931 84bd
00000030: cecc 1b3e 0df3 14be 27f8 e13d 52ab 82bd
00000040: 37c1 b23c cdd1 9bbd 99b7 e4bd 457a e9bb
00000050: c066 08bd 7fc4 a0bd 36f7 dd3d 726e 503e
00000060: 50fd 79ba 6d1b b53c 19e4 a13d 020b 383d
00000070: ed7b 0f3e 2392 313e 7ce2 6ebd bc41 c3bd
00000080: 7fb2 023e 5aed 023e 0c67 b03d b6be 1c3c
00000090: d2d6 eebd 987f c4bc ef51 b4bb b911 bd3d
000000a0: 4f35 243e a4f0 b0bd 9a34 9fbc e27f 953c
000000b0: cfb1 9a3d 75ac 82bd 6034 c63d c35e 4b3d
000000c0: cf7d 00bd cba4 50bd 70d8 253c 2281 233e
000000d0: 09d7 193d be34 04be 1920 dc3d 5340 8dbb
000000e0: 3cb6 de3d 9dc6 1dbe a0b7 d33d 0150 173e
000000f0: f69d f93b fde6 b63d 54ed a4bd 4ae5 94bc
00000100: 2e16 2e3c c244 b93d e61d 143d b1bc 1e3e
00000110: 112c 9abd 2f5e a6bc 0969 87be 454e 063e
00000120: f6b7 ae3d 79bd 43be 9f13 3dbe 610c 513e
00000130: 6c8a 7abd 8c1d 56be a77f 5bbe cddf 41be
00000140: 379b 253e cecf 783a 1cf6 3d3e 2d99 2f3d
00000150: 636e db3a cb3c 5abc 2756 2abd 789f 6e3d
00000160: 51ee 193e 6c1f 20be db4b 32be 247c 6ebd
00000170: 3803 2ebe ceb4 333c c8f2 18be 2e5b b93d
00000180: e837 ab3d 3d4d 04bd c762 23be eed5 263c
00000190: 4a47 bd3d 3b4f a8bd 427c 343e be46 bc3d
000001a0: 999f 5dbd 48ee 0d3e 9376 ff39 0452 8bbd
000001b0: 2b30 8b3d 84d2 8e3b e858 c03d 07be 2f3e
000001c0: a99f 143e a4a6 edbc 9661 42be 776e 89bd
000001d0: 3656 993d 81dc 1ebe 3dfc 26be 7f8f a03d
000001e0: 68fc f73d e447 32be 258c a2bd 649e bcbd
000001f0: 6813 2cbd 3242 82bc c73b c13d 6c75 af3d
00000200: 507a 93bd a7f2 b93c bdbe 04be d052 de3d
00000210: b536 e4bd ca58 e7bd 1c1d f6bb 8199 4e3c
00000220: cf6b cc3c 86c9 1f3d d072 1abd 2866 27bc
00000230: 6731 9d3d 5aa4 c4bd 6b45 de3c fa9d 173e
00000240: 84b3 263e 4d7f 443e 4e96 09be 07e4 2b3e
00000250: e8e0 3abd 14cb bfbd 85b7 1abd 2d1e cd3d
00000260: bee0 63bd dfa2 cdbd d13b 203e b75b 21be
00000270: 64d9 95bc 774d 5c3a 3d87 d5bd cb4f 2c3d
00000280: b5c4 733d 2968 14bd 3a23 4fbe 28d7 c73d
00000290: fd29 c03d ae40 d63d a6c4 22be 4523 47bd
000002a0: d254 0c3e 711b fd3d 101d ff3d 3b53 2c3e
000002b0: 0fd7 303d 945e b0bc 9720 0dbe f88c 21be
000002c0: b41b c33d d98d dc3d 39c2 323e 2cd6 c73c
000002d0: 7aee f13d 2aa9 093e aa87 2b3d 0b69 21be
000002e0: f3c3 0cbe 0dd7 203d 68b5 9abd ab77 2c3e
000002f0: b21d 073e 3e41 00bd 2912 3fbd 22e1 1b3e
00000300: 7c2e 94bd 7a99 09be 45d4 073e 2467 0dbd
00000310: 0f10 c83d d489 2dbe d4ef f33d f034 38be
00000320: bb8c e6bc 9023 f53b f0de 333e 8e19 1abd
00000330: c068 5a3d 6537 c73d 1414 0b3e 6ac9 103e
00000340: 93c6 f83d 8b07 423e c62f ad3d 0cb2 d33d
00000350: 87bd ad3c b422 13be 4fdb 8cbd 2114 703c
00000360: 935a 203e 5437 dbbd ab5b c8bb 7c0c 3ebd
00000370: 46c6 bebd 23e8 50be 11f0 7c3c 3670 153c
00000380: 1b40 86bd 1542 fc3d 7895 b53c 0352 59be
00000390: 6115 403e ab37 d1bc a3a6 433e 2e92 22be
000003a0: 300b 023e 473f 033d ff18 e13c b883 bdbc
000003b0: e2da be3c 772c 2f3e 0e0c 303e dc93 093e
000003c0: 08aa f0bd 057d 193e 4f09 f3bd fc76 3abc
000003d0: 1621 713d c2ca 4fbd f33d 223e dd21 8dbd
000003e0: bcd8 ad3c 2b31 96bc d3cf 2b3d d4b2 34be
000003f0: f35b fd3a 5805 bc3d 7f34 303e a4e8 07be
0.07713523 -0.009916066 -0.008155969 -0.053471573 -0.16207865 -0.07642969 0.008324389 0.11757416
0.09966177 -0.14499827 -0.16417012 -0.06454677 0.15214846 -0.14545842 0.110336594 -0.06380333
0.021820648 -0.07608376 -0.11167831 -0.0071251714 -0.033301115 -0.07849979 0.10838167 0.20354632
-0.00095363427 0.022107804 0.07904834 0.044932373 0.14012118 0.17340903 -0.05832146 -0.09534022
0.12763403 0.12785855 0.08613405 0.009566953 -0.116620675 -0.023986623 -0.0055029313 0.09231896
0.1603596 -0.086396486 -0.019434262 0.018249456 0.075534455 -0.0638055 0.096779585 0.04965092
-0.03136998 -0.05093841 0.0101224035 0.15967229 0.03755859 -0.12910745 0.1074831 -0.0043106466
0.10874602 -0.15407796 0.10337758 0.14776613 0.0076177074 0.08930776 -0.08053079 -0.01817574
0.010625405 0.09046318 0.036161326 0.15501668 -0.07527936 -0.020308582 -0.26447323 0.13115795
0.085311815 -0.19115247 -0.18464516 0.20414878 -0.061167166 -0.20909709 -0.21435414 -0.1893303
0.16172491 0.00094914145 0.18550915 0.04287069 0.0016741272 -0.013320158 -0.041586068 0.05825755
0.15032317 -0.15636986 -0.17411749 -0.05822386 -0.16993415 0.0109684 -0.14936364 0.09050594
0.08360273 -0.032300223 -0.1595565 0.010182841 0.09242113 -0.08218237 0.17625526 0.091931805
-0.054107282 0.13860428 0.00048725735 -0.068027526 0.06796297 0.0043585915 0.093919575 0.17162333
0.1451403 -0.029010125 -0.18982539 -0.067105226 0.074871466 -0.15513803 -0.16307159 0.0783987
0.121086895 -0.17410237 -0.07936887 -0.09209898 -0.042010695 -0.015900705 0.0943523 0.08567318
-0.07201064 0.022698713 -0.12963386 0.10855639 -0.11143247 -0.11296232 -0.0075107943 0.01260984
0.02495375 0.039010547 -0.03770715 -0.010217227 0.076754384 -0.0960166 0.02713271 0.14806357
0.16279417 0.19189186 -0.13436243 0.16786204 -0.045624644 -0.09364906 -0.037772674 0.10015521
-0.055634253 -0.10040831 0.15647818 -0.15757643 -0.018292136 0.0008403877 -0.10426185 0.042068284
0.059513766 -0.036232147 -0.20228282 0.09757835 0.09383009 0.104615554 -0.15895328 -0.04861762
0.13704231 0.1235875 0.12456715 0.16828625 0.043173846 -0.021529473 -0.13781963 -0.15776432
0.09526768 0.10769243 0.17456903 0.024394117 0.11813064 0.13443437 0.041877426 -0.15762727
-0.13746624 0.03926759 -0.07554132 0.16842525 0.13194922 -0.03131222 -0.04664818 0.152226
-0.07235429 -0.13437453 0.13264568 -0.03452219 0.09768688 -0.16947109 0.11910978 -0.17988944
-0.028143277 0.007481046 0.17565513 -0.037622027 0.053322554 0.097273625 0.13581878 0.14139333
0.1214725 0.1894819 0.08456378 0.10336694 0.021208538 -0.14368707 -0.06877767 0.014653237
0.15659551 -0.107039124 -0.0061144433 -0.046398625 -0.093151614 -0.20401053 0.015438096 0.009120991
-0.06555196 0.12317292 0.022165999 -0.21222691 0.18758155 -0.02553924 0.19106536 -0.15876076
0.1269958 0.032042768 0.02747774 -0.023134097 0.02329773 0.17106806 0.17192098 0.1343531
-0.11751181 0.14989097 -0.1186701 -0.011380907 0.058869444 -0.050730474 0.15843944 -0.068912245
0.021221511 -0.018333992 0.041946243 -0.17646343 0.0019329771 0.09180707 0.17207526 -0.13272339

sequential_2/conv2d_3/Conv2D_bias f4 [32]
00000000: 8d03 a63c d1d9 81bc 9c2f c43c 226a 983c
00000010: ee04 e23b 5761 973c dc19 25ba 24cf ed3b
00000020: 6b50 05bc 9d2e 963b a81b 38ba 5d5d 96bb
00000030: 10e3 c0bb cda4 f53c ebf6 b23b ae35 983c
00000040: 1f13 87bc 98d1 e7bb d7e1 5ebb a9cf 1fbc
00000050: 636e 02bc 49b4 ac3c 1fdb 12bc 4ff7 043b
00000060: 58c0 37bc 6534 033d b8e7 9bbb 4316 8dbb
00000070: 461e a8bb d22a b2ba bcde 3bbb f3ce 3e3a
0.020265365 -0.015850933 0.023948483 0.018605296 0.0068975603 0.018479032 -0.0006298104 0.007257359
-0.008136849 0.0045831935 -0.0007023164 -0.0045887665 -0.005886443 0.02998581 0.005461564 0.018580284
-0.01648861 -0.007074546 -0.0034009123 -0.0097541 -0.007960889 0.02108206 -0.008963375 0.002028901
-0.011215292 0.03203239 -0.0047578476 -0.0043056323 -0.005130562 -0.0013593084 -0.0028666696 0.00072787626

sequential_2/conv2d_4/Conv2D/ReadVariableOp f4 [64, 3, 3, 32]
00000000: 9933 d43d b265 9cbd ec7e eebd b42e 9d3d
00000010: 1775 10be 0f5b 193c 1558 06be d3df e83d
00000020: 0306 9a3d 6c6d d0bd 433c 0cbe f01d 95bc
00000030: 4edc a93c 3b2b b1bc b108 44bc a0df cc3c
00000040: 3809 803d dd60 ee3c 027c 0dbe 698a 47bd
00000050: a231 6bbd 990c a1bd c59f 81bd e9ff d43d
00000060: 5656 963d eae2 adbd b8e2 7abd 8090 a0bb
00000070: 692e 20bd f184 99bd 5ff8 9cbc 20f1 bc3d
00000080: ff69 06bd 363f f7bb b70d 1dbe 011e 263d
00000090: adc9 44bd cbad 143c 9b55 a3bd bf36 823c
000000a0: 4be7 70bd 90da 1e3d b8b8 43bc 5aa7 8cbd
000000b0: 9808 a2bc ebba 03be 9085 c4bc 3c32 c1bd
000000c0: 3656 3abd 55ab 97bd 8da3 c13d fca4 17bd
000000d0: 9abe 2c3d f5fc b23d ede8 8a3c a387 48bc
000000e0: e062 fb3c 8b4a babd cf31 0fbd 0071 d13d
000000f0: 1ccb a7bd 51e8 313d 61b0 5e3c 7fa8 9b3d
00000100: 93f5 88bd be07 9a3c d6f6 e3bd 0e49 b93d
00000110: af09 dcbd 7db0 0b3e 1f37 92bc 22b8 633b
00000120: 401a b03d c8ab 6abc 8650 d03c 0d1d e33d
00000130: 14de b43d b80f 65bd a45c db3d 04c1 6ebd
00000140: 5dd1 da3d 7034 81bd 696a d93d e892 a03d
00000150: 9d74 af3d ba6c d03d 9ed7 06bc 4198 c0bc
00000160: e01e 70bd 8abf d83c 3d7c e63d e0a9 163e
00000170: fb05 ecbc 135c 0b3c 71bf 8ebd c972 d53c
00000180: 71ce a53d 7853 77bb 7bf1 153d e7ac 77bd
00000190: 10d1 093d 1e58 67bd 4be5 af3d 656d 5cbc
000001a0: 4c26 513d 1dca b5bd 1233 043d fa83 a53b
000001b0: 05c2 88bc f16e 8a3c 72c9 5d3d c4eb 00bd
000001c0: 56f5 abbd ade8 f8bd e2bb febb bba9 89bd
000001d0: 9377 ebbd 2fa1 96bd e449 fe3b dd49 a9bc
000001e0: 64c0 d93d e783 ffbd 5ff0 6b3d 631a e0bc
000001f0: 3998 0abd 6d32 a93d 7691 dd3b 4f98 adbd
00000200: 2294 593c 4888 443d da6e a33d e96b cc3c
00000210: cd88 96bc 3d5e 953d 9c65 693d 11f8 0a3e
00000220: 93be 45bc 9667 1f3d 4784 4e3d 4fb6 7e3d
00000230: 2889 e3bc 0248 9fbd 100c 4abd 8267 5cbd
00000240: b452 a2bd ffa1 a5bd dbd0 ef3d 94d8 25bd
00000250: 2229 60bd b8b2 b6bc 8ab6 ab3d af09 f3bc
00000260: 6dae f73c 2ca5 923d adaa a9bc 4f82 0c3e
00000270: 1bbb 8dbd 713b 443d 703a 863d 00bd 8c3b
00000280: 7efd f7bc 5f2a bdbc 486d 103d 6e02 1abd
00000290: 6c1f 923d 6e87 bb3d 9d2c 6cba ee1b 663d
000002a0: 955e 38bd 5801 a73d 645e 003e 09b0 a93d
000002b0: 2bd7 883c 1b85 00bd b2f6 903d 39ab 203d
000002c0: 143c 5b3d 7dc8 bdbc 3f0f d83d 3b38 2ebd
000002d0: ee41 46bb df64 453a 6518 e53d 9fce adbd
000002e0: 7f74 47bd 5994 0fbd 4d05 0f3e 53f5 b73c
000002f0: 76e2 923d bdef 953b a685 60bd 58ea aa3c
00000300: 7a4f b8bd 65e8 a3bd ae64 f6bc d332 5cbc
00000310: f73d af3d fdfa bfbd 509c dbba 3a5f 10be
00000320: b745 183c f897 9b3d 1f8a d2bc 531f 543c
00000330: 84dc d23c 8eff bb3d d909 813d 3e95 21bd
00000340: 9fa1 2fbd 2f29 87bd f57f 833c 9d48 cfbc
00000350: a427 9c3d 7706 92bd ebc7 90bd f8ec 6bbc
00000360: 9cc9 28bd 3b71 a3bd 05d7 7cbd 9154 56bd
00000370: 7cca 37bd 0ea4 21bb 029b c23d bc21 343d
00000380: ce9a 38bd 79a3 5abd ecdf a9bd 307c 803d
00000390: e225 c13d 8b67 30bd 2229 f3bd 3097 c3bd
000003a0: ed4a cbbb 03ab aa3d e984 643d c4ab f03b
000003b0: 421f 313c 27fa cabd ab4c 8bbd 2a88 76bd
000003c0: d149 bb3d 0ec9 d33d 1f7e 903c 3243 92bd
000003d0: 2b39 8a3c a435 16bc 631a 45bd 930b 54bd
000003e0: 6226 ffbb dcf7 8e3a 9908 10be 4b29 113d
000003f0: 7c91 8d3d ea73 bbbd 5222 89bc 6bf5 55bc
0.10361404 -0.07636584 -0.11645302 0.076749235 -0.14107166 0.009360089 -0.13119538 0.11370816
0.07520678 -0.101771206 -0.13694863 -0.018202752 0.020734932 -0.02162706 -0.011964963 0.025008976
0.06251758 0.029098922 -0.13816836 -0.048715983 -0.05742038 -0.07863731 -0.06329302 0.104003735
0.07340686 -0.08490546 -0.061251372 -0.0049000382 -0.03910676 -0.0749606 -0.019161401 0.092256784
-0.03281593 -0.007545377 -0.15337263 0.040555958 -0.048043896 0.009074639 -0.07975312 0.015895246
-0.05881433 0.038782656 -0.011945896 -0.06867857 -0.019779488 -0.12864272 -0.023989469 -0.094334096
-0.045492373 -0.07405726 0.09455023 -0.037022576 0.04217396 0.08739654 0.01695677 -0.01223937
0.030686796 -0.09096249 -0.03495961 0.10226631 -0.08193037 0.043434445 0.013591857 0.076004975
-0.066874646 0.01880252 -0.111310646 0.09047137 -0.107440345 0.13641544 -0.01784855 0.0034747203
0.08598757 -0.014323182 0.025429022 0.11089525 0.088314205 -0.055923194 0.10711029 -0.058289543
0.10684464 -0.0630883 0.10615999 0.0784052 0.08567164 0.10176988 -0.008230118 -0.0235101
-0.058623195 0.02645852 0.11254165 0.1471324 -0.028811445 0.008505839 -0.06970108 0.02605571
0.08096016 -0.003773896 0.036607247 -0.060467627 0.033646643 -0.05648052 0.08588656 -0.013453816
0.051061913 -0.08876441 0.032275267 0.005051133 -0.016694078 0.016898604 0.05414719 -0.031474844
-0.083964035 -0.121537544 -0.007773862 -0.06721827 -0.11497416 -0.07354962 0.0077602733 -0.020665104
0.10632399 -0.1247633 0.057602283 -0.027356332 -0.033836577 0.08261571 0.006761725 -0.08476316
0.0132799465 0.04798153 0.07980128 0.0249538 -0.018375779 0.07293365 0.056981668 0.13571192
-0.012069362 0.038917147 0.05041912 0.06218558 -0.027775362 -0.07777406 -0.04932791 -0.05380965
-0.079259306 -0.08087539 0.11709758 -0.040489748 -0.054726727 -0.022302017 0.08384426 -0.029667703
0.03023454 0.0716041 -0.020711267 0.13721584 -0.06920453 0.04790825 0.06554115 0.0042949915
-0.030272242 -0.023091493 0.03526047 -0.037599973 0.071348995 0.091566905 -0.00090093334 0.05617898
-0.045012075 0.08154553 0.12536007 0.08285529 0.016704163 -0.03137694 0.070783034 0.03922579
0.05352409 -0.02316689 0.10549783 -0.042534094 -0.00302517 0.00075299846 0.111862935 -0.084866755
-0.048695084 -0.035053585 0.13966866 0.022455847 0.071721 0.004575698 -0.054814957 0.020863697
-0.08999534 -0.0800331 -0.030077305 -0.013439852 0.08556741 -0.09374044 -0.0016754959 -0.14098826
0.009293965 0.07597345 -0.025700627 0.012946921 0.025739916 0.091796026 0.063007064 -0.03944897
-0.042878743 -0.06599652 0.016052226 -0.02530318 0.07624748 -0.07130139 -0.07069381 -0.0143997595
-0.041207895 -0.079805814 -0.061728496 -0.052326743 -0.04487084 -0.0024664435 0.09502222 0.043977484
-0.04506951 -0.053378556 -0.08294663 0.06273687 0.09431054 -0.043067496 -0.1187308 -0.09550321
-0.006204 0.08333399 0.055790816 0.007344695 0.010810675 -0.09910994 -0.06801733 -0.06018845
0.09144939 0.103410825 0.017638264 -0.07141723 0.016872963 -0.009168062 -0.048120867 -0.05176885
-0.007786558 0.0010907608 -0.1406578 0.03543977 0.069125146 -0.09152968 -0.016739998 -0.0130590005

sequential_2/conv2d_4/Conv2D_bias f4 [64]
00000000: 2fb8 a9bc d086 cfbb 227b 0b3c 63b6 aaba
00000010: 50aa 323c 381a edbb cfcf 6cbb 73bc 0ebc
00000020: b6f3 76bc 18d4 23bc 0c88 e5bc 416c 06bd
00000030: 4b88 99bc 747f 9ebb f16c 13b9 2036 693c
00000040: 9fc1 5c3c 2558 56bc 0d6f 30bb 0832 afbc
00000050: a64a 873b 8cc9 993c dff8 02bc 2267 18bc
00000060: 520a 283c 8ea4 5ebb 1c05 86bc eeb7 113d
00000070: fc96 593a 392d a3bc a5c0 febc 9da1 f23c
00000080: 6028 dabb 29c1 fcbb f0ec 8fba a1dc 6b3c
00000090: 8e18 7cbc a842 f0bb 9be5 01bd b5d2 8bbc
000000a0: dc8c 3dba aace 07bc 79c1 8cbc 5fb4 27bc
000000b0: fe0e 6a3b e9cd 4a3c 2ee2 18bc e549 1cbc
000000c0: b61e 753c c8a3 a03b b0ad 76bc 52e3 67bc
000000d0: 2cff dcbb 4adc 68bc c1a6 b9bc 4e32 5fbc
000000e0: 2c03 bdbb 09f9 a6bc bc4c 92bc b2e3 873c
000000f0: f17c 443c b2be 3a3c 89ee abbb ce5f 4cbb
-0.020717708 -0.0063332096 0.008513244 -0.0013024326 0.0109048635 -0.0072357915 -0.0036134606 -0.008711922
-0.015072754 -0.009999298 -0.028018974 -0.032818083 -0.018741747 -0.004836971 -0.00014059596 0.014234096
0.013473897 -0.013082539 -0.002692166 -0.021386161 0.004128772 0.018772863 -0.007993906 -0.0093019325
0.010256367 -0.0033972594 -0.016359858 0.0355758 0.00083003915 -0.019919025 -0.03109772 0.029618079
-0.006657645 -0.007713456 -0.0010980647 0.014395864 -0.015386714 -0.007332165 -0.03171311 -0.017068246
-0.00072307675 -0.008289019 -0.017182099 -0.010235875 0.0035714502 0.012378194 -0.009331269 -0.009539102
0.014960935 0.0049023367 -0.015056059 -0.0141533185 -0.006744286 -0.014212677 -0.022662522 -0.013622833
-0.0057682004 -0.020382421 -0.017858855 0.016588066 0.011992679 0.011398004 -0.0052469415 -0.0031185034

sequential_2/dense_4/Tensordot/MatMul_bias f4 [128]
00000000: bdcc babc d49e 8fbc cab3 92bc 771c 82bc
00000010: db23 e4bb 4d15 38bc 2932 cdbc 6646 2bbb
00000020: 87c1 11bc 8a85 90bb ad2f f33c bc05 bcbb
00000030: 96b8 bbbc 1893 87bc dda8 5cba 9afc 24bc
00000040: 224e 91bb abaa 9ebc 501a ccbc 664e a8bc
00000050: 8e3b 5fbc 741d a6bb 8f8b 7d3b c64c b1bb
00000060: f902 d3b9 e85a 4abc 74c5 413d 8038 91bc
00000070: 3baa c4ba 7d0e b83c a545 0ebd 7913 3d3c
00000080: 2687 5a3c 4db6 ea3d fc52 f9bc f25e 00bc
00000090: 93f3 daba 0528 9ebc 62c2 babc 60b2 85bc
000000a0: 4200 9abc adc5 d7bb f217 dfbb 049b aeba
000000b0: b8a4 a1bc 3a73 dcbc 16d4 c2bb 8687 7ebb
000000c0: f2bd f3bc 5b69 b83b b3ab 7abc d334 e1bc
000000d0: 8e47 743b ecf8 94bc 6052 d0bc 6196 1fbc
000000e0: a9dd b5bc 2c9d adbc 4e46 babc 13fb 10bc
000000f0: 6b1c fcbc 9021 27bb ff48 2ebc 9c68 04ba
00000100: 6fcc d6bb d1b9 cabc 8be4 573a 6097 0abd
00000110: e0b6 c6bb 8d9a 9ebc d847 a1bc f040 43bc
00000120: ce61 91bc b4c2 6f3a 047c 543c 5f1f 78bc
00000130: 0d2b d83b 4b81 83bc 9794 39ba 2ccb 21bc
00000140: ccc6 31bc 0a82 f8bb f3c4 b4ba 4723 80bc
00000150: a77c bcbc 7899 cfbc a64c 903c 611b 093c
00000160: 8ce5 9a3b 1dc1 72bc 9d27 f2bc c9e3 a53c
00000170: 0f9d fdbc ed53 363c 600d 7fbc 509b 1bbd
00000180: 4794 2a3d 289f 963c 6e14 54bc bbca 18bc
00000190: 0028 043d 2903 ff3c b897 80bc 9c3b 9dbc
000001a0: 06fc 9f3d fb9d 22bc 8bfb 25bc 8919 04bc
000001b0: c399 a63b 033a 273c 83e7 3ebc 8bbb e03a
000001c0: 06e8 043c 353c b3bc 2129 8bbc 4ccb 833b
000001d0: de81 3ebb c9c8 5fbc b8ce a73c 1fa9 1cbc
000001e0: b385 0abc b213 29bc 2798 e5bc 445a 81bc
000001f0: 14a1 adbc f227 c6bc 550b 84bc b85f 213d
-0.022802705 -0.01753179 -0.017907996 -0.015882714 -0.006962282 -0.011235547 -0.025048332 -0.002613449
-0.008896238 -0.0044104503 0.02968582 -0.0057379883 -0.022915166 -0.016549632 -0.00084174966 -0.0100699905
-0.004434363 -0.01936849 -0.02491489 -0.020545196 -0.013625039 -0.005069429 0.003868792 -0.0054107634
-0.0004024727 -0.012350775 0.047307447 -0.017727137 -0.0015004346 0.022467846 -0.034734387 0.011540287
0.013337886 0.11460552 -0.030435078 -0.007835137 -0.0016704671 -0.019306192 -0.022797767 -0.016320407
-0.018798951 -0.006584844 -0.0068082744 -0.0013321345 -0.019731864 -0.026910413 -0.005945693 -0.0038838102
-0.029753659 0.0056277937 -0.015299725 -0.027491009 0.0037274095 -0.018185101 -0.025429904 -0.009740443
-0.022200422 -0.02119311 -0.022738602 -0.008848923 -0.03077527 -0.0025502183 -0.010637521 -0.00050509884
-0.006555132 -0.024746807 0.00082356547 -0.03383577 -0.006064281 -0.019360805 -0.019687578 -0.011917338
-0.017746832 0.00091461395 0.012969021 -0.015144198 0.006596929 -0.016052863 -0.00070793316 -0.0098751
-0.0108506195 -0.0075838612 -0.0013791606 -0.015641822 -0.023008658 -0.025341734 0.017614674 0.008368344
0.004727071 -0.01481655 -0.029559905 0.020250218 -0.03095868 0.011128408 -0.015567154 -0.037989914
0.041645315 0.018386438 -0.012944324 -0.009325678 0.03226471 0.031129437 -0.015697345 -0.019193463
0.078117415 -0.009925361 -0.010130773 -0.008062729 0.005084248 0.010206702 -0.011651876 0.0017145736
0.008111959 -0.021879295 -0.016987385 0.0040220376 -0.0029069106 -0.013658711 0.020484313 -0.009561806
-0.008454728 -0.010319637 -0.028026653 -0.015790112 -0.021194972 -0.02418897 -0.016118685 0.039397925

sequential_2/dense_4/Tensordot/Reshape_1/transpose f4 [128, 64]
00000000: bd44 a5bd 1b91 203e 83db b8bc e698 7ebb
00000010: 42be a7bb 6e6b 1dbe 5f82 2d3e ca43 053e
00000020: 7ffc 393d c7d5 013e d29f 0fbd e685 09be
00000030: 949f 92bd e786 03be 50e8 af3c f6c6 b1bd
00000040: 9808 a3bd 187b 07bc 1888 04be fcce 01be
00000050: e580 1ebc 2b37 833d 0ef6 593d 8d67 16be
00000060: 643c 0cbd 4091 bebc 1494 9ebd 40a7 abbc
00000070: bd88 00be c0bc e93d bf7b cbbd 4174 20be
00000080: fe4c 2b3d cbac 8b3c f4eb 1f3e ef18 0abe
00000090: 3395 303e 1356 b23d 1a02 2fbe d698 603d
000000a0: c075 babd a728 323e 95f6 0c3e 44bc 243d
000000b0: 79e7 29bd 8427 e53d 4ad8 fdbc 7763 8abd
000000c0: 4dd2 df3d b777 efbd 2d10 b9bd 2c79 21be
000000d0: f546 bf3d 7518 48bd 3928 fc3d 51a1 ca3d
000000e0: 3d5a 53bd 52d3 bd3d 64e5 143e 269c 543d
000000f0: bc41 34be 2c5f 49be e1e1 9f3d c83c 1cbe
00000100: c3ea 96bd e2a6 19bd 62b9 14be 303f 80bd
00000110: 1cce acbd 1834 05be d396 033d 0495 e53d
00000120: b420 493e 4c9a 9d3d df48 bd3d 882c 1f3c
00000130: 6088 223e daa6 013e 99cb 143e b0a6 33be
00000140: e543 0fbe f1dc dbbd dd31 93bd 5088 21be
00000150: a213 e63d 4184 c3bd 17c5 773d 5886 2d3c
00000160: 7495 1cbe df81 5ebe b969 f2bd 6e6b 0cbe
00000170: 2e8c e6bc 0560 31be 063e dcbd 73a3 50bd
00000180: 16d0 dc3d 4ac8 c1bd da89 113e 5cfb 24be
00000190: 2a9f 45be bf22 e4bb a797 d93d 0b0e 3b3e
000001a0: 0b11 fcbd b80b fbba 9de6 f93c 70f1 193d
000001b0: f139 73be a685 e23d b4e5 09bc 3a09 b53d
000001c0: f0d0 a13d 2051 423d d507 8dbc 26c0 3abe
000001d0: ccaa 0cbe 31a0 0a3d a2e2 93bd 47a2 fcbd
000001e0: 0b4a 003e cd5b 52bb 69ec 01be b584 233e
000001f0: d101 1f3d fbba 8b3c 5749 1abe 4037 eebd
00000200: e30f 08be d40d fabd 2c6e 28be 50f2 9abd
00000210: 5365 9e3d afa1 1f3d 09b3 27be dbbe 8dbd
00000220: 53d5 d8bd e217 303e be5c 063d 90e8 fd3d
00000230: 1a67 47bd e5d3 a93c 8d8f cbbc 8d75 45be
00000240: 3c05 333e 1523 133e aa81 2cbe d74d b83d
00000250: 74ab 1c3e c8ce 083e ad21 303e ed74 f4bd
00000260: 684b 3e3b 7b10 7d3c 5435 9bbd 1ab5 603a
00000270: 74c1 47be aa42 debd 6c06 4a3d 0cad a83b
00000280: 98a7 cf3d 81fc 03bd acb6 ed3d 4cdd 113e
00000290: 41ec 023e ec4e 11bd 860b 1bbe c12e 8cbc
000002a0: dce8 ea3d 07a4 21be e2c0 473d f272 b63d
000002b0: 0f19 193e f612 b7bd 9faa adbd 0f5a 84bd
000002c0: 5a07 5bbe d392 d3bd dd34 c23d abc8 e63d
000002d0: 7410 823d d500 8dbd b139 983d 435d fcbd
000002e0: 0aa4 aebd a172 93bd 5a5c f83d 2240 813d
000002f0: 2ef7 be3d 0a92 113d c613 4c3d 5652 13be
00000300: c651 cb3c a731 4c3b bceb bebd d5b9 863d
00000310: a816 a7bd 99e4 a83c 3265 493d 9d67 bcbd
00000320: 7c2c 173d 7195 0c3d 259f f63d e84a 49bd
00000330: 2a1d 86bc 7f4e 103e 51c1 3f3d 9f9f 88bc
00000340: 2eed 293d e7d2 1d3e 8493 cc3d d529 a53d
00000350: 2378 243e c6ed 15bd 046b a6bd d553 94bd
00000360: f687 2a3d 02e1 b93d 2331 1f3d 0da1 773c
00000370: a528 34be 4923 933d d3d2 03be 021c 03be
00000380: 4d2b 84bd 0613 1a3e 85da d0bd 1764 7bbe
00000390: d180 05be 91b7 1dbd 51d4 e53d 4316 083e
000003a0: 7f83 3f3d b289 0dbe a994 d3bd 7f5a 1c3e
000003b0: e1cb 933d becc 96bd 3367 09bd 00a8 6c3c
000003c0: 22a7 56be 597b c6bd 551c 1e3e 4fe2 363d
000003d0: c3e6 1bbc ba79 89bd 69df 103d 6c35 9ebd
000003e0: bce8 723d a49a b3bc 273d b8bd a72c 083d
000003f0: 36bd c73c 456b 14bd e175 2bbe 49df a83d
-0.080697514 0.15680353 -0.022565609 -0.0038848459 -0.005119116 -0.15373012 0.16944264 0.1301414
0.045406815 0.12679206 -0.035064526 -0.13429984 -0.07159343 -0.1284443 0.02147308 -0.08680527
-0.079606235 -0.008269094 -0.1294254 -0.12676615 -0.009674286 0.06407007 0.05321317 -0.14687939
-0.03423728 -0.02326262 -0.077430874 -0.020953774 -0.12552162 0.11412954 -0.09935712 -0.15669347
0.041821472 0.017050168 0.15617353 -0.13486074 0.17244415 0.087078236 -0.17090645 0.054833256
-0.0910449 0.1739832 0.13765939 0.040218607 -0.041480515 0.11189178 -0.030986924 -0.06757253
0.109287836 -0.11692756 -0.090362884 -0.1576888 0.09339706 -0.04885145 0.12312359 0.0989405
-0.05159973 0.09268822 0.1454063 0.051906727 -0.176032 -0.19665211 0.07806755 -0.15257561
-0.07368996 -0.037512667 -0.14523843 -0.06262052 -0.0843775 -0.13008153 0.03212626 0.11210063
0.19641382 0.076954454 0.09242415 0.009715207 0.15872335 0.12661305 0.14530791 -0.17544055
-0.13990743 -0.107355006 -0.07187245 -0.15774655 0.112342134 -0.0954671 0.060490694 0.010591112
-0.15291387 -0.2172923 -0.11836571 -0.13712856 -0.028143015 -0.17321785 -0.107540175 -0.050937127
0.10781877 -0.0946203 0.14212742 -0.16111511 -0.19298998 -0.00696215 0.106246285 0.18267076
-0.12307938 -0.0019153273 0.030505473 0.03758377 -0.23752572 0.11060648 -0.008416582 0.088396505
0.0790118 0.047440648 -0.017215649 -0.18237361 -0.13737029 0.033844177 -0.07220961 -0.123356394
0.12528245 -0.0032098175 -0.1268784 0.15968592 0.03882009 0.017056933 -0.1506704 -0.11631632
-0.1328731 -0.12209669 -0.16448277 -0.07565749 0.0773417 0.038972553 -0.1637689 -0.069211684
-0.10587563 0.1719661 0.03280329 0.123978734 -0.04868231 0.020730922 -0.024848724 -0.19283123
0.17482466 0.14368851 -0.16846338 0.08999222 0.15299779 0.13360131 0.17200346 -0.11936364
0.0029036645 0.015445824 -0.07578531 0.0008571908 -0.1950739 -0.10852559 0.04932253 0.005147582
0.10139388 -0.03222323 0.116071075 0.14244574 0.12785436 -0.035475656 -0.15141115 -0.017112138
0.11470196 -0.15785228 0.04876793 0.08908643 0.14950965 -0.089391634 -0.08479809 -0.0646249
-0.21389523 -0.10330739 0.09482739 0.11268743 0.063507944 -0.06884924 0.07432879 -0.12322476
-0.08527382 -0.07199598 0.1212699 0.063110605 0.093244895 0.035539664 0.049823545 -0.14386877
0.024819266 0.0031157525 -0.093223065 0.065784134 -0.08158618 0.020616816 0.049168773 -0.0919945
0.036907658 0.034322206 0.12042073 -0.0491437 -0.016371328 0.14092444 0.04681522 -0.016677676
0.041485958 0.15412484 0.09989074 0.080646195 0.16061454 -0.03660371 -0.0812588 -0.07242552
0.04163357 0.0907612 0.03886522 0.015114081 -0.1759363 0.071844645 -0.12873392 -0.12803653
-0.064535715 0.1504632 -0.10197929 -0.245499 -0.13037421 -0.03850514 0.11222137 0.13289742
0.046756264 -0.13822058 -0.10331089 0.15268897 0.07216621 -0.0736327 -0.033545684 0.014444351
-0.20962194 -0.096914954 0.15440495 0.04464942 -0.009515467 -0.067126706 0.03536931 -0.07725033
0.059303984 -0.021924324 -0.08996039 0.03324571 0.024382215 -0.036235113 -0.16744186 0.08245713

sequential_2/dense_5/MatMul/ReadVariableOp/transpose f4 [10, 18432]
00000000: 469e 613c 4274 a9bc adae 1ebc 5e50 0ebc
00000010: 47f8 c7bc eb8e 29b8 1428 d2bc 11ef 6bbd
00000020: a6df fcb9 8ab0 21bc 10cf b0bc 7e72 2d3b
00000030: 1200 37bc 34ee 05bb f010 2a39 7f35 ba3c
00000040: 28d9 aabc f6de 82bb b3b2 61bc ddf7 e1bc
00000050: 28c5 1dbc 3267 323c 5239 c1bc 38fd 073c
00000060: a500 253d 2a98 aebb 0d43 9fbc a802 f8bc
00000070: 3b20 83bc 5e0b 883c 48cf c3bb 3c49 8fbc
00000080: 7339 0fbd 21ed 133c efd7 f93b 2f60 43bc
00000090: ef33 5cbc 8e04 82bb cfaf 6ebc 7da9 d33b
000000a0: 47df 21ba d455 57bc a71f 8fba 9924 b63c
000000b0: f489 883b ed07 0abd 003d e5bb 183c 1a3a
000000c0: 2fe9 123c e818 babc c76d 2abc d382 5fbc
000000d0: 9a5f a33c a283 f53c 8ef6 b3bc 90e5 833b
000000e0: c633 1e3c b683 033b 8da6 9ebc 1ec4 4bbc
000000f0: 3717 27ba b582 c1bc a852 6a3c d224 aa3b
00000100: 52de a8bc 17b6 cdba b463 94bc 09a4 3ebc
00000110: cfcc cf3b 3636 81bc 6c26 13bc b8c4 56b8
00000120: 982e e8bc b669 853b 75f4 28bc 536a c33c
00000130: 4b5f 3dbc 59c7 5bbc 717c 87bb 69e5 8abb
00000140: 77a9 7e3b fc2d f8bb 7c5e 23bd c669 debb
00000150: 2922 2b3c 5873 cbbb 867d 453c b2aa c4bb
00000160: 0ffc 06bd 0bca 263c 20f3 8cb9 4f82 2bbc
00000170: 3e16 e8bb 0fdf ac39 f907 ecbc d67f dfbc
00000180: e86b 84bc 9045 e7bc d49f 76bc 7983 613b
00000190: df33 bdbc f98c b0bc 63dc 55bd ca7c d3bc
000001a0: a08a feb9 c81b 09bd a1c6 c6bc 4077 95bc
000001b0: 4fa2 bfbc 198f 5dbd 79e9 c7bc b3be 06bc
000001c0: 5016 aebc 9ee4 a4bc 1c55 6c3b 5f1c 94bc
000001d0: 1036 1f3c 961d f8bb d3d9 b6bd b92a c3bc
000001e0: fa8c d4bb 7913 833b b2d6 0dbc 7b25 71ba
000001f0: 94ca 0dbc 5d90 e9ba c66a 9ebb e45f bdbc
00000200: 416e dcbc 1e31 20bd e792 98bc 4dc4 bdbc
00000210: 99fc 0cbd 03ae 06ba b5e9 08bd e0c7 6cbd
00000220: e33b 52bc 3637 b0bc 573e 0cbc 35c9 5ebb
00000230: d983 e7bb 0a95 b4bc e568 41bc 2434 cfbb
00000240: ca92 56bd 3ad5 60bc e189 06bd 6f98 0bbd
00000250: 1fb2 92bc 9f95 cfbc dfef 0abc 0149 79bb
00000260: 2e07 fa3c 6d8a 4bbc 40f1 c6bb 8192 bbbc
00000270: 284e c7bc cbfb 09bd 096e 87bc a3a6 88bc
00000280: c617 13bd 3519 7d3c 4070 803c fd82 b9bc
00000290: cccf 2a3c 7f9a 46bc ffa1 05bd 85ad 93bb
000002a0: 3cb9 d13c b0a1 2cbc bdf5 cf3c 7502 f13a
000002b0: e44e 83bc 1ddc 3dbd 7788 46bb 0a2d 13bc
000002c0: bc4d d83a 7e82 963a 0426 8bbc 535b a0ba
000002d0: 99ee eebb e2fd 71bc a040 33bc 4ffe 1dba
000002e0: 189d 0abd 8903 0ebd 4cf8 9bbb 4f49 06bd
000002f0: e513 2bbd 834d e2bc bf54 0abc aea5 a2bc
00000300: a2a4 bebb df17 44bc 4ee8 b03b 32f7 65bc
00000310: 01ce 2ebd 06ef b0bc b7e2 c5bc 96ee 2dbc
00000320: eec9 09bd e1ce 0b3a 1be6 5f3a 5c3c 8ebc
00000330: 600e d0bc d87a 7dbc dc81 a1bc 60d9 53bc
00000340: 93bc 77bc a003 363b bd59 e9bc 1d3b 02bc
00000350: eff0 81ba afb1 03bb 6024 143c 6c80 d7b9
00000360: 68f5 2abd 928e 98bb 93b1 aebc e9ca b73b
00000370: 1984 a8bc f3dc adbc 2252 17bd 6e62 d1bc
00000380: be39 4c3c bf52 c7bc a968 83bc b83d a1bc
00000390: 987d 06bb 8e41 83bb e8d9 35bd 3938 e3bc
000003a0: 0d56 9d3b 9c68 02bd 71aa cebc ed69 b0bc
000003b0: 0675 f939 d8e9 5fbd 288f 14bd fde0 bdbc
000003c0: 8ffa 0cbd d7a0 c4bc 057a c53c 6318 893b
000003d0: 55fe 493a b20d 31bc f071 c3bd 01bf 9bbb
000003e0: f1ee 4ebb 04ea 4abd 2dc6 a4ba ee32 78bc
000003f0: a5a5 99bb fd28 abbc af1e b0ba f851 1a3c
0.0137706455 -0.020685319 -0.009685201 -0.008686153 -0.02441038 -4.0425843e-05 -0.025653876 -0.05760104
-0.00048231817 -0.00986875 -0.02158311 0.0026465948 -0.01116945 -0.002043617 0.00016218773 0.022730587
-0.020855501 -0.003993864 -0.013775515 -0.02758401 -0.009629525 0.0108888615 -0.023586903 0.008300118
0.040283818 -0.005328198 -0.019441152 -0.030274704 -0.01600658 0.016606983 -0.0059756376 -0.017490976
-0.034966897 0.009028704 0.0076246182 -0.011924787 -0.013440116 -0.003967828 -0.014568283 0.0064594136
-0.00061749335 -0.013143022 -0.0010919467 0.022234248 0.004166836 -0.033698965 -0.006995797 0.00058835885
0.008966728 -0.022716954 -0.0104021495 -0.013642031 0.019943047 0.029969994 -0.021968152 0.0040251687
0.009655898 0.002006752 -0.019366527 -0.012436895 -0.0006374004 -0.023621896 0.014301933 0.0051923776
-0.020613823 -0.0015694526 -0.018113948 -0.011635789 0.0063415538 -0.01577292 -0.008981328 -5.1204785e-05
-0.02834253 0.0040714396 -0.010312189 0.02385441 -0.011558364 -0.013414227 -0.0041347076 -0.0042387736
0.0038858333 -0.007573841 -0.03988503 -0.0067875115 0.010445156 -0.0062088184 0.012053853 -0.006001794
-0.032955226 0.010180007 -0.00026884023 -0.01046808 -0.0070827296 0.00032972588 -0.028812395 -0.027282637
-0.016164735 -0.028231412 -0.015052754 0.003441064 -0.023096023 -0.021551596 -0.05221213 -0.02581634
-0.0004854994 -0.03347376 -0.024264636 -0.01824534 -0.023392824 -0.054091547 -0.02440332 -0.008224177
-0.021250874 -0.020128544 0.0036061471 -0.018079935 0.009717479 -0.0075718863 -0.089282654 -0.023824083
-0.0064865323 0.004000124 -0.008657144 -0.00091990054 -0.008654255 -0.0017819513 -0.0048345057 -0.023117013
-0.026908042 -0.03910934 -0.018624736 -0.023164893 -0.034420583 -0.0005137624 -0.033426005 -0.057807803
-0.012831661 -0.021510702 -0.008559785 -0.003399444 -0.007065278 -0.022043724 -0.011804794 -0.0063233543
-0.052386083 -0.013722712 -0.032846335 -0.03408092 -0.0179072 -0.0253399 -0.008480041 -0.0038037898
0.030521002 -0.01242314 -0.0060712397 -0.022897007 -0.02432926 -0.033687394 -0.016531961 -0.016681021
-0.035911344 0.015447904 0.015678525 -0.022645468 0.010425519 -0.012121796 -0.032625195 -0.004506769
0.025601022 -0.010536596 0.025385732 0.0018387573 -0.016028829 -0.046352495 -0.0030293742 -0.008982906
0.0016502659 0.0011482981 -0.0169859 -0.0012234248 -0.0072916267 -0.014770003 -0.010940701 -0.00060269696
-0.033841223 -0.03467134 -0.004759824 -0.032784756 -0.04176702 -0.027624851 -0.008443057 -0.019854393
-0.0058179656 -0.011968582 0.0053987866 -0.014035987 -0.04267693 -0.02159835 -0.024155958 -0.010615965
-0.03363984 0.00053332566 0.0008541063 -0.017362766 -0.02539748 -0.015471183 -0.019715242 -0.012930244
-0.015120643 0.0027773157 -0.028485173 -0.007948664 -0.0009913723 -0.0020094921 0.009041876 -0.00041103677
-0.041737944 -0.0046556676 -0.021324908 0.0056089056 -0.020570802 -0.02122352 -0.036943562 -0.02555963
0.012464939 -0.024331449 -0.016041117 -0.01968275 -0.0020521637 -0.0040056175 -0.044397265 -0.02773677
0.004801518 -0.031838045 -0.025227757 -0.021534884 0.0004758017 -0.05466637 -0.036269337 -0.023178572
-0.03441864 -0.024002476 0.024106035 0.0041838153 0.000770544 -0.010806488 -0.09543216 -0.004752994
-0.0031575526 -0.04953958 -0.0012571268 -0.015148861 -0.004688936 -0.020893568 -0.0013436879 0.009418957

sequential_2/dense_5/MatMul_bias f4 [10]
00000000: 75c0 02bc b0cd 883c 3745 723b 55b7 db3a
00000010: d22a 173b ec9f 973b 77ce 2cbc bdbb 2a3c
00000020: 021f 54bc b80e 0fbc
-0.007980456 0.016699642 0.0036967525 0.0016763011 0.0023066294 0.0046272185 -0.010547272 0.010420737
-0.012946846 -0.008731537
