Supervised/Classifcation/Hand Writing/handwriting_98_03.tflite (tflite, 848404 bytes, 8 tensors)

sequential/conv2d/Conv2D/ReadVariableOp f4 [1, 3, 3, 32]
0	0x3df8ddec	0.12151703
1	0x3d858c8d	0.065209486
2	0x3c7f2928	0.015573777
3	0x3db18289	0.08667476
4	0x3e0d33d5	0.13789304
5	0x3e248905	0.16067894
6	0x3c97d44a	0.018533845
7	0xbdf83d0b	-0.12121018
8	0x3c47989c	0.012182381
9	0xbd175759	-0.036948536
10	0x3e285245	0.16437633
11	0xbe5411c9	-0.2070991
12	0xbc0154e4	-0.007893775
13	0x3e1f5e4c	0.15563315
14	0x3e6510a3	0.22369628
15	0x3e23cc37	0.1599587
16	0xbd001b4f	-0.031276044
17	0xbeb9545c	-0.36197174
18	0x3df8335d	0.12119172
19	0xbddbcdf6	-0.10732643
20	0x3d94598e	0.07243644
21	0x3e22ffd9	0.1591791
22	0x3d1ff5c7	0.03905275
23	0xbd37b216	-0.04484757
24	0x3da9a9c7	0.082843356
25	0x3dc7e66a	0.09760745
26	0x3e0d4532	0.13795927
27	0x3e18778f	0.14889358
28	0xbe0b19e5	-0.13584097
29	0xbe0aac00	-0.13542175
30	0xbe0e811b	-0.13916437
31	0x3df1b68f	0.118023984
32	0x3dbacbeb	0.091209255
33	0x3e057e97	0.13036571
34	0x3e4cfd79	0.20018567
35	0xbc839873	-0.016063904
36	0x3e12de6b	0.14342658
37	0x3e101253	0.1406949
38	0x3d77a419	0.06045923
39	0x3d75a91f	0.05997574
40	0x3c5a8042	0.013336243
41	0xbe1bbd73	-0.15208988
42	0xbdc482b4	-0.09595242
43	0xbe6561b4	-0.22400552
44	0xbdc9641a	-0.09833546
45	0xbc0480d9	-0.00808736
46	0xbd0486b4	-0.032355025
47	0xbd05b181	-0.032639984
48	0xbe57d690	-0.21077943
49	0xbe7a2204	-0.24427038
50	0x3df23b96	0.11827771
51	0x3dabeecf	0.083951585
52	0x3e2ad788	0.16683781
53	0x3d0e40d8	0.03472981
54	0x3de4cb45	0.11171583
55	0x3da168a4	0.07881287
56	0x3e284076	0.1643084
57	0x3dff4af0	0.12465465
58	0x3d8b2d1e	0.06795715
59	0x3d6e27e5	0.058143515
60	0xbde22d26	-0.11043768
61	0x3de8ad19	0.11361141
62	0xbdde6977	-0.108599596
63	0x3e005b90	0.12534928
64	0xbd1b699a	-0.037942506
65	0xbd2a9e01	-0.04165459
66	0x3e733389	0.23750128
67	0x3d86176a	0.06547435
68	0x3ce715b7	0.028208597
69	0x3dba1f00	0.09087944
70	0xbe276939	-0.16348733
71	0xbdc881d9	-0.097903915
72	0x3decacc8	0.11556393
73	0xbdbe5d10	-0.09295094
74	0xbddb6af9	-0.10713763
75	0xbcaf6296	-0.021409314
76	0xbd0271f5	-0.03184696
77	0x3df15b37	0.11784976
78	0xbe68401b	-0.22680704
79	0xbdb56f49	-0.088591166
80	0xbe4a0d15	-0.19731553
81	0xbe621bb2	-0.22080877
82	0x3c152b00	0.00910449
83	0x3e1e4a86	0.15458116
84	0x3e2f054e	0.17091867
85	0x3d9db54c	0.07700595
86	0x3dd4c495	0.103890575
87	0x3e2d750c	0.16939181
88	0x3e4afc6b	0.19822852
89	0x3e112a1f	0.14176224
90	0xbc8d3ee1	-0.017241897
91	0x38ed0654	0.00011302219
92	0xbe19d7ad	-0.1502368
93	0x3c13e30c	0.0090263
94	0xbe07e26e	-0.1326997
95	0x3d9c49f4	0.07631293
96	0x3e5b12d6	0.21393904
97	0x3e004d93	0.12529592
98	0xbe1a4a68	-0.15067446
99	0x3de16104	0.110048324
100	0x3ddc0209	0.10742576
101	0xbdace8f7	-0.08442872
102	0x3e53e366	0.20692214
103	0x3d9aef48	0.075651705
104	0xbd9a4a07	-0.07533651
105	0xbd167208	-0.036729842
106	0x3e12a40d	0.14320393
107	0x3deb785e	0.114975676
108	0xbcab16fe	-0.020884987
109	0xbcec793b	-0.028866401
110	0x3e1b5be5	0.15171774
111	0x3e343bbe	0.17600915
112	0x3e0eff36	0.13964543
113	0xbb377430	-0.0027992837
114	0xbe1d0b02	-0.1533623
115	0xbe37b81f	-0.1794133
116	0xbe23b934	-0.15988618
117	0x3da8388a	0.08213909
118	0xbe065ac7	-0.13120566
119	0xbe813437	-0.2523515
120	0xbd99f5bf	-0.075175755
121	0x3d31a070	0.043365896
122	0x3d3a2f25	0.045455117
123	0x3da5eee7	0.08102208
124	0x3dcc1545	0.09964994
125	0x3e8cac15	0.27475038
126	0xbdaaec75	-0.08345882
127	0x3e272986	0.16324434
128	0x3c99337b	0.018701306
129	0x3dd4ed97	0.10396879
130	0xbd1b21c6	-0.037874006
131	0x3db13ba8	0.08653957
132	0xbc9f0b08	-0.01941444
133	0xbda52ed1	-0.0806557
134	0x3bf9e26d	0.007625869
135	0x3e0b60f2	0.136112
136	0x3e304ff1	0.17217995
137	0x3e25b566	0.1618248
138	0xbd8d42a7	-0.068974786
139	0x3dd04d4b	0.101709925
140	0x3e26facb	0.16306607
141	0xbd7ead99	-0.062177274
142	0x3df3da8d	0.1190692
143	0x3e399d6c	0.18126458
144	0x3dd00ade	0.10158323
145	0xbd6b072c	-0.057379887
146	0xbc901247	-0.01758684
147	0x3ded62f7	0.11591142
148	0x3dba3194	0.090914875
149	0x3de9cf68	0.11416513
150	0xbc93fd58	-0.01806514
151	0xbe1ae656	-0.15126929
152	0xbdaa4eba	-0.08315797
153	0xbe188bc4	-0.14897066
154	0xbe4f7a17	-0.20261417
155	0x3e0ec6bc	0.13942999
156	0xbe062cf8	-0.13103092
157	0x3e5b75cb	0.21431653
158	0x3e05131f	0.12995575
159	0x3de0d7f5	0.109786905
160	0xbdfdcd1d	-0.12392638
161	0x3de786be	0.11304997
162	0xbdb4bd03	-0.088251136
163	0xbc05b984	-0.008161906
164	0xbdf825a9	-0.12116558
165	0x3d7ad74c	0.06124048
166	0xbdace62c	-0.08442339
167	0x3ddca2f0	0.10773265
168	0xbda9f0f0	-0.08297908
169	0x3e1ec066	0.15503082
170	0xbe4b0da0	-0.19829416
171	0x3de213d2	0.11038937
172	0x3e3b4e23	0.18291526
173	0x3e20e051	0.1571057
174	0xbe1a3fe2	-0.15063432
175	0x3dd8ac76	0.10579769
176	0x3caa2ed8	0.02077429
177	0x3dd70e3f	0.10500764
178	0xbd2273b2	-0.039661117
179	0xbcad7ad3	-0.021176731
180	0xbdb69105	-0.08914379
181	0xbd88b635	-0.06675378
182	0x3e025186	0.12726411
183	0x3cfbcdca	0.030737776
184	0x3b6a0405	0.0035707962
185	0x3e11467a	0.14187041
186	0xbe460c32	-0.1934059
187	0xbd0f7836	-0.03502675
188	0xbd938cb6	-0.07204573
189	0xbdbba115	-0.09161583
190	0x3e27f3a6	0.16401538
191	0xbe4bd179	-0.19904126
192	0xbc32502e	-0.010883374
193	0xbdad07b9	-0.084487386
194	0xbc132e87	-0.008983261
195	0xbe35214e	-0.17688486
196	0xbce12f62	-0.027488414
197	0xbe6d073b	-0.2314729
198	0x3e19ac8d	0.15007229
199	0x3e2c4433	0.16822891
200	0xbd848119	-0.06469936
201	0x3cd1c55d	0.025606805
202	0x3e2e1f8e	0.17004225
203	0x3e14f024	0.14544731
204	0xbe18505a	-0.14874402
205	0xbda2a88e	-0.079423055
206	0xbd9b8944	-0.07594541
207	0xbd009fde	-0.03140246
208	0x3e55d6de	0.20882747
209	0x3d1e4bd6	0.03864654
210	0x3df5964a	0.11991556
211	0xbe99569c	-0.2994889
212	0xbe326932	-0.17422941
213	0x3c95ddc4	0.018294223
214	0xbdf977a8	-0.12181026
215	0x3de40545	0.111338176
216	0xbe4c54a0	-0.19954157
217	0xbdc1a699	-0.09455604
218	0xbdc1d523	-0.09464481
219	0xbd2712fd	-0.040789593
220	0x3e14ae2d	0.14519568
221	0xbd5b5ca5	-0.05355515
222	0x3e11c43a	0.1423501
223	0xbc68ffaf	-0.014221116
224	0x3d15544f	0.036457356
225	0xbdc57ff2	-0.09643544
226	0x3cde7399	0.02715473
227	0xbdcc087c	-0.09962556
228	0xbe09a040	-0.13440037
229	0xbded9af6	-0.11601822
230	0x3d2dbdcc	0.042417333
231	0xbde23613	-0.1104547
232	0x3e04bed7	0.12963425
233	0xbd220398	-0.03955421
234	0xbca442c8	-0.020051375
235	0xbca790f1	-0.020454856
236	0x3e3f521c	0.18683666
237	0xbe21a484	-0.15785414
238	0x3defdd86	0.11712174
239	0xbce8daa7	-0.028424574
240	0x3e421307	0.18952571
241	0x3dcdca2e	0.10048328
242	0xbe40556f	-0.1878259
243	0xbeb03086	-0.3441202
244	0x3e17917b	0.1480159
245	0x3dee5be2	0.11638619
246	0x3ddf01b0	0.10888994
247	0xbe2e7884	-0.1703816
248	0xbe001570	-0.12508178
249	0x3bd06ea9	0.006360848
250	0x3d1d02c8	0.03833273
251	0xbe6a5336	-0.22883305
252	0x3e2a6386	0.16639528
253	0xbe6a56c0	-0.22884655
254	0x3de30065	0.110840596
255	0x3c2ff20e	0.010738863

sequential/conv2d/Conv2D_bias f4 [32]
0	0xbc513de2	-0.012771102
1	0xbc1a3880	-0.009412885
2	0xbb3e74dc	-0.0029061353
3	0xbae72642	-0.0017635303
4	0x3cf18b03	0.029485231
5	0xbc014053	-0.007888871
6	0xbcd0b478	-0.02547668
7	0xbcbdfa2f	-0.023190586
8	0xbcc3497e	-0.023838755
9	0xbb1f5703	-0.0024313338
10	0x3c74bae1	0.0149371335
11	0x3c4c18f7	0.012457124
12	0xbb1f3ff2	-0.002429959
13	0x3be60b09	0.0070203585
14	0xbb50ff59	-0.003189048
15	0xbbd0e141	-0.0063745086
16	0x3c98c4ab	0.018648466
17	0x3d88c376	0.06677906
18	0xbb767a93	-0.003760968
19	0x3db1c48c	0.086800665
20	0xbb11fd90	-0.002227638
21	0xbcc58db7	-0.024115426
22	0xbc04fe2b	-0.008117239
23	0x3d2f557d	0.042806137
24	0xbb2bc225	-0.0026208248
25	0xbc0a232b	-0.008431236
26	0xbbdc87e2	-0.0067300657
27	0x3cf4db37	0.029889686
28	0x3cb0c15e	0.02157658
29	0x3a3c1f92	0.0007176335
30	0x3c1f476c	0.009721618
31	0xbb684e7d	-0.0035447173

sequential/conv2d_1/Conv2D/ReadVariableOp f4 [64, 3, 3, 32]
0	0x3da4dbaa	0.0804971
1	0x3bec309b	0.0072079427
2	0xbcc92d72	-0.024557803
3	0x3dd6e95f	0.10493731
4	0x3b553e9a	0.0032538534
5	0xbbc36fb6	-0.0059642447
6	0x3d9bca1a	0.07606907
7	0x3cafc19a	0.021454621
8	0xbc29d7cc	-0.010366391
9	0x3d2650bd	0.04060434
10	0x3e03b2eb	0.1286122
11	0xbd90656a	-0.07050593
12	0x3d7083a9	0.05871931
13	0x3c756e71	0.014979945
14	0x3e4fe681	0.20302774
15	0x3db2dd53	0.087336205
16	0xbd4c9dfe	-0.04995536
17	0xbe0b9f30	-0.13634944
18	0x3c29804f	0.010345533
19	0x3c91b71c	0.017787509
20	0x3c3ca150	0.011513069
21	0x3dd731de	0.10507558
22	0x3d9e966c	0.077435344
23	0xbd76ff5c	-0.060302123
24	0x3d19c02a	0.037536778
25	0xbbfa0ff3	-0.007631296
26	0x3d984214	0.074344784
27	0x3dc29613	0.09501281
28	0x3d53fa1a	0.051752187
29	0x3d95abe3	0.073081754
30	0xbcbdd996	-0.023175042
31	0x3d8cd895	0.06877247
32	0xbd2c3461	-0.04204214
33	0x3d8d924b	0.06912669
34	0xbdcc4542	-0.099741474
35	0x3db6aa95	0.08919255
36	0x3d044270	0.032289922
37	0x3b493d55	0.0030706723
38	0x3de5eb01	0.11226464
39	0x3c4317ac	0.011907499
40	0xbda687ea	-0.08131392
41	0x3e126769	0.1429726
42	0x3e4f1567	0.20223008
43	0xbd287a3b	-0.041132193
44	0x3db93719	0.09043712
45	0x3d6c1021	0.05763257
46	0x3d98e40c	0.074653715
47	0x3ca2e2ac	0.019883476
48	0xbb7c6c8e	-0.0038516852
49	0x3c96d335	0.018411258
50	0x3dfcf894	0.123521
51	0x3c90c85f	0.01767367
52	0xbe07146f	-0.13191389
53	0x3d9cb4b9	0.076516576
54	0xbdc349f7	-0.09535592
55	0xbd4b41b6	-0.049623214
56	0xbd051127	-0.03248706
57	0x3d5b0fe0	0.053481936
58	0x3d54705b	0.051864963
59	0x3d067a4d	0.03283148
60	0x3ca2f608	0.019892707
61	0x3d9ea566	0.07746391
62	0xbd424435	-0.04742833
63	0x3d7676d6	0.060171925
64	0xbdae6e61	-0.08517147
65	0xbd723ec1	-0.059141878
66	0xbcd898b5	-0.026440004
67	0xbd498d83	-0.04920722
68	0xbe00ce35	-0.12578662
69	0xbd922fc8	-0.0713802
70	0x3da27c82	0.07933904
71	0xbd1ecf99	-0.0387722
72	0xbd329f54	-0.04360898
73	0x3dec49b3	0.115374945
74	0xbd57a63d	-0.05264877
75	0x3d6bc803	0.057563793
76	0x3df44bd7	0.11928528
77	0x3c22ba09	0.00993205
78	0xbbf2725b	-0.007398886
79	0x3d6eca23	0.05829824
80	0x3e1034f2	0.14082697
81	0x3e199582	0.14998439
82	0xbc5e1352	-0.013554411
83	0xbd44bd6d	-0.048032213
84	0xbb2297eb	-0.0024809788
85	0xbd9238f3	-0.071397685
86	0x3c05cc7a	0.008166427
87	0x3d74576c	0.059653684
88	0xbd86aa49	-0.06575448
89	0xbdd9c7a9	-0.10633785
90	0x3dd02051	0.10162414
91	0xbe38ea59	-0.18058147
92	0x3d2817c7	0.0410383
93	0xbe11b6c1	-0.14229871
94	0x3cf255a0	0.029581845
95	0xbe30daad	-0.17270918
96	0x3de15513	0.11002555
97	0x3d9ec1ff	0.077518456
98	0xbc4f2ebc	-0.01264542
99	0x3cc0cf46	0.023536336
100	0x3df8c635	0.1214718
101	0xbcfa40ad	-0.030548418
102	0x3d3793cf	0.044818696
103	0xbd92711f	-0.071504824
104	0xbda07052	-0.078339234
105	0x3da4f48b	0.08054455
106	0x3e1fe51c	0.15614742
107	0xbd91912b	-0.07107767
108	0xbc1a9c1e	-0.009436635
109	0x3d91be02	0.07116319
110	0x3e184480	0.1486988
111	0xbc97ff85	-0.018554458
112	0x3be30418	0.0069279782
113	0xbddb549c	-0.10709497
114	0x3e064da7	0.1311556
115	0x3d019093	0.031632017
116	0x3dc4c07d	0.09607027
117	0x3db26524	0.08710697
118	0x3db4b5cf	0.0882374
119	0x3dae8cb5	0.085229315
120	0x3da60c3e	0.08107804
121	0x3daa916f	0.083285205
122	0x3de9453e	0.1139016
123	0x3cbbf052	0.022941742
124	0xbdc82af1	-0.097738154
125	0x3db93792	0.09043802
126	0x3c040983	0.008058908
127	0x3d939488	0.072060645
128	0x3d02499e	0.031808488
129	0xbc7bb3b1	-0.015362666
130	0xbda4a985	-0.08040146
131	0x3dab12ef	0.08353221
132	0xbda01fcb	-0.07818564
133	0xbce78d10	-0.028265506
134	0xbd89be49	-0.06725747
135	0x3d90e242	0.07074405
136	0xbdaf08e7	-0.0854662
137	0x3e1c638c	0.15272349
138	0x3dce7759	0.100813575
139	0xbb176ae8	-0.0023104493
140	0xbda21f70	-0.079161525
141	0x3e1af3de	0.1513209
142	0x3d867560	0.06565356
143	0xbd1e358b	-0.03862528
144	0x3da8e3a0	0.08246541
145	0xbd5225b3	-0.051305484
146	0x3e079ca6	0.1324335
147	0xbc6517b9	-0.013982707
148	0xbdeeb4bc	-0.11655566
149	0x3d205107	0.039139774
150	0x3d6e22c9	0.058138642
151	0x3dcfac11	0.10140241
152	0x3d4d51b3	0.050126743
153	0x3dd30fde	0.10305761
154	0x3d272757	0.040809
155	0xbda34b10	-0.079733014
156	0xbdb826f4	-0.08991805
157	0x3cb6876b	0.02228137
158	0xbd7bfa8f	-0.06151825
159	0x3b9b7e05	0.0047452473
160	0xbce4bae4	-0.027921148
161	0x3a512fb5	0.0007979826
162	0xbda90f5b	-0.08254882
163	0x3c95fa04	0.018307693
164	0xbd6299d4	-0.055322483
165	0x3df3a4d7	0.11896675
166	0xbd05fa17	-0.032709207
167	0x3d451677	0.048117127
168	0x3d44c08d	0.048035193
169	0x3d159495	0.036518652
170	0xbdac0a29	-0.084003754
171	0xba2087da	-0.0006123759
172	0x3d82dc08	0.06389624
173	0xbd1487a1	-0.03626216
174	0xbcb1a791	-0.021686347
175	0xbcbbc83a	-0.022922624
176	0xbdd97952	-0.10618843
177	0xbcd3c313	-0.025849855
178	0xbc94dfc9	-0.018173115
179	0xbdce457f	-0.10071849
180	0xbd845692	-0.064618245
181	0x3c854f36	0.016273122
182	0x3d792ca4	0.06083359
183	0xbdeda899	-0.11604423
184	0xbdd5e937	-0.10444873
185	0x3dc4c4b8	0.096078336
186	0xbdd83b5b	-0.10558196
187	0xbd31f1c0	-0.04344344
188	0xbd207577	-0.039174523
189	0xbde824f7	-0.113351755
190	0x3c17efe7	0.009273506
191	0xbde4d048	-0.11172539
192	0xbd95c3e3	-0.07312753
193	0x3cc6533b	0.02420961
194	0xbcff20f0	-0.031143636
195	0x3cf33d02	0.029692177
196	0x3d903909	0.070421286
197	0xbd9c245c	-0.076241225
198	0xbda20c09	-0.07912452
199	0xbdb7c955	-0.08973948
200	0x3cb6497e	0.02225184
201	0xbde9eac6	-0.114217326
202	0x3da9a60b	0.08283623
203	0xbe6df304	-0.23237234
204	0xbdc4d796	-0.09611432
205	0x39a5573a	0.0003153624
206	0x3d6a563b	0.057211142
207	0x3c282aaa	0.010264078
208	0x3ce84ea2	0.028357808
209	0xbbdf35f0	-0.00681185
210	0xbc0c3d6e	-0.008559568
211	0xbc30a6f2	-0.01078199
212	0x3dab3069	0.08358843
213	0x3d6c1831	0.05764026
214	0x3b67ea60	0.00353875
215	0x3dcb90cc	0.09939727
216	0x3ca55494	0.020181932
217	0xbd202674	-0.03909917
218	0xbb93aeee	-0.004506937
219	0x3b1c586b	0.0023856412
220	0x3d48dad3	0.049036812
221	0x3d868755	0.06568781
222	0xbe13cabe	-0.14432809
223	0x3d0aca88	0.033884555
224	0xbda730ca	-0.08163603
225	0x3d8e7d5f	0.069575064
226	0x3d616e9d	0.05503713
227	0x3dbcea58	0.09224385
228	0x3cb55ce0	0.022139013
229	0xbd64c51a	-0.055852033
230	0xbdf2f0d9	-0.11862344
231	0x3c0c3678	0.008557908
232	0xbd55fa88	-0.05224088
233	0xbdc60feb	-0.09671005
234	0x3daa8180	0.083254814
235	0xbd9950ec	-0.07486138
236	0xbd9630e9	-0.073335476
237	0x3da30eff	0.07961845
238	0x3ce238a8	0.027614906
239	0xbc983ada	-0.01858275
240	0xbda59d02	-0.080865875
241	0xbe165261	-0.14679863
242	0xbb5f6120	-0.003408499
243	0x3dbd57b2	0.09245242
244	0x3d097d18	0.033566564
245	0xbd7bce3a	-0.06147597
246	0x3da66d1a	0.08126278
247	0x3d7af5e5	0.06126966
248	0x3d91d4c3	0.07120659
249	0x3c1a1f5f	0.0094068935
250	0xbd3f39ff	-0.04668617
251	0x3c8157cd	0.015788937
252	0x3c831004	0.015998848
253	0x3d5483f2	0.051883645
254	0xbdee1b98	-0.11626357
255	0xbca8a53e	-0.020586606

sequential/conv2d_1/Conv2D_bias f4 [64]
0	0x3a93c782	0.0011274668
1	0xbaf64cc6	-0.0018791191
2	0xbc7ff0f5	-0.0156214135
3	0xbcbe8bfd	-0.023260111
4	0x3cdce0c9	0.026962655
5	0xbcaea75f	-0.021320043
6	0xbca79483	-0.020456558
7	0x3bb8d782	0.005640925
8	0x3c3bed50	0.011470154
9	0x3bcf8b34	0.006333733
10	0xbc704352	-0.014664488
11	0xbc8459fa	-0.016156185
12	0x3d0052a3	0.03132881
13	0xbc5fec00	-0.013667107
14	0x3b87ed11	0.0041481336
15	0xbb9cf140	-0.0047895014
16	0x3c867746	0.016414296
17	0x3d132055	0.035919506
18	0x3c134cb5	0.008990456
19	0x3d1ca311	0.03824145
20	0x3b3131fc	0.002703785
21	0x3c00180c	0.007818233
22	0xbbb1ddac	-0.0054280367
23	0x3c933a06	0.017972004
24	0x3d06f881	0.032951836
25	0x3cbc4eb9	0.022986757
26	0x3c71ff5c	0.014770355
27	0x3b747c52	0.0037305546
28	0xbb947244	-0.004530223
29	0xbd1c02cd	-0.03808861
30	0xbbad43f2	-0.0052876407
31	0xbbc5de7b	-0.0060384846
32	0xbb53adea	-0.0032299706
33	0x3b6b719a	0.0035925866
34	0xbbb591d9	-0.005541068
35	0xbc91e279	-0.017808186
36	0x3bce3e05	0.0062940144
37	0xbc22abd9	-0.009928667
38	0xbd73db1d	-0.059535135
39	0xbc1fbd4c	-0.009749722
40	0xbbbd5948	-0.0057784654
41	0x3aa7e144	0.0012808223
42	0x3c0ce483	0.008599403
43	0x3c1b5a09	0.009481915
44	0xba8c5d67	-0.0010708988
45	0xbc7e3f10	-0.015517965
46	0x3a30ae42	0.00067398336
47	0x3c9f6675	0.019458035
48	0xbbf4d7a8	-0.0074719973
49	0xba459fcb	-0.00075387646
50	0xbcf2f3ae	-0.029657211
51	0x3b65920f	0.0035029685
52	0xbce37660	-0.027766407
53	0xbbcdded7	-0.006282668
54	0xbb9c3faf	-0.004768334
55	0xbb9465e4	-0.004528748
56	0x3ca36eec	0.019950353
57	0x3d07a976	0.033120595
58	0x3ca62919	0.020283269
59	0xbcef95b9	-0.029246198
60	0xba14417d	-0.00056555105
61	0x3a56d310	0.0008194903
62	0xbca9f8d4	-0.020748533
63	0xbb6e1183	-0.0036326356

sequential/dense/Tensordot/MatMul_bias f4 [128]
0	0xbbd7ca26	-0.0065853773
1	0xbb9f6e37	-0.0048654336
2	0xbd6cd75b	-0.057822566
3	0xbc66c39f	-0.014084726
4	0xbc941d96	-0.018080514
5	0xbcd7f393	-0.026361262
6	0xbcc31a33	-0.023816204
7	0xbcc95730	-0.024577707
8	0xbcd73f99	-0.026275443
9	0xbd101cd4	-0.035183743
10	0xbcc7d1b8	-0.024391994
11	0xbb8a4c6d	-0.0042205364
12	0xbca33e32	-0.019927118
13	0x3cc03e42	0.023467187
14	0xbd4cc491	-0.049992148
15	0xbd02ac11	-0.031902377
16	0xbca3ecf2	-0.020010445
17	0x3c117488	0.008877881
18	0xbcea89fa	-0.028630245
19	0xbba68c5a	-0.005082649
20	0xbc3d9d23	-0.011573109
21	0xbcb81bc9	-0.022474186
22	0xbc1b21c7	-0.009468502
23	0x3c248336	0.010041049
24	0x3c812180	0.015763044
25	0xbcc3ed27	-0.023916794
26	0xbba59f06	-0.0050543575
27	0xbd08cc32	-0.03339786
28	0xbad898f0	-0.0016525071
29	0xbd065ba1	-0.032802228
30	0xbcbc72e5	-0.023004005
31	0xbc58da4b	-0.013235639
32	0xbc943e70	-0.018096179
33	0xbb08bec5	-0.002086566
34	0xbc0eda1e	-0.008718995
35	0xbcd5d2b7	-0.026101453
36	0xbce3812c	-0.027771555
37	0xbc8b7bd9	-0.017026829
38	0xbc30a4b2	-0.010781454
39	0xbd5dd863	-0.05416144
40	0xbc344b55	-0.011004289
41	0xbd1f9575	-0.038960893
42	0xbcdd06ac	-0.02698072
43	0x3ce771ac	0.028252445
44	0xbc359557	-0.011082969
45	0xbb69b54a	-0.0035661035
46	0xbcec34b0	-0.028833717
47	0xbbb3900e	-0.005479819
48	0xbca06695	-0.019580165
49	0xbca29e16	-0.019850772
50	0xbd37c352	-0.044864006
51	0xbd1a0eeb	-0.037611883
52	0xbce0cf58	-0.02744262
53	0xbc61e80e	-0.013788236
54	0xbaf1be15	-0.001844349
55	0x3d4f9a9b	0.050684553
56	0xbc5d3b5f	-0.013502925
57	0xbb1792ea	-0.002312834
58	0xbcb9be65	-0.022673795
59	0xbcb99afe	-0.022656914
60	0xbcbc3b3a	-0.02297746
61	0xbc9884ea	-0.018618066
62	0x3c1054a7	0.008809245
63	0x3d2c2ef1	0.042036954
64	0xbc784464	-0.015153024
65	0xbc2553a6	-0.010090744
66	0xbcd83029	-0.026390152
67	0xbc4da534	-0.0125515945
68	0x3d64f93d	0.055901755
69	0xbbf78271	-0.0075533916
70	0x3b98bbab	0.0046610436
71	0x3b559da6	0.0032595186
72	0xbd3b8a3b	-0.045786124
73	0xbc50935e	-0.012730448
74	0xbd2b2711	-0.041785304
75	0xbc7be996	-0.015375515
76	0xbbf72125	-0.007541793
77	0xbb27fdfb	-0.0025633562
78	0xbc8826cf	-0.016620068
79	0x3b0be1f9	0.0021344407
80	0x3c0ea7ed	0.008707029
81	0xbc82857e	-0.015932795
82	0xbc9ef2db	-0.019402912
83	0xbc610029	-0.013732948
84	0xbd2625f0	-0.040563524
85	0xbcc56d33	-0.024099922
86	0xbcef1dd7	-0.029189033
87	0xbc80daa2	-0.015729252
88	0x3b99d72e	0.004694841
89	0xbb8933f8	-0.0041871034
90	0xbc31e90f	-0.010858788
91	0xbcb9b883	-0.02267099
92	0x3c03a827	0.008035696
93	0xbc9e9e48	-0.019362584
94	0xbc3c3ced	-0.011489135
95	0xbb7d369f	-0.0038637293
96	0xbb175b82	-0.0023095314
97	0xbc1b91d7	-0.00949522
98	0xbc0b07e4	-0.008485768
99	0xbc00d103	-0.007862332
100	0xbb8cc023	-0.0042953654
101	0xbca22ff0	-0.019798249
102	0xbcfeaf1f	-0.031089364
103	0x3ac7e22c	0.00152499
104	0xbccac1da	-0.024750639
105	0xba41775f	-0.00073801534
106	0xbbdf18d5	-0.00680838
107	0xbcb8f4a8	-0.022577599
108	0xbcbdf8cd	-0.023189927
109	0xbd0ea6d1	-0.034827057
110	0xbc95c69f	-0.018283186
111	0x3d976524	0.07392338
112	0xbb771524	-0.003770181
113	0xbc8a4850	-0.016880184
114	0xbcd5407b	-0.026031723
115	0xbc2f9010	-0.0107154995
116	0xbc8f50d3	-0.017494595
117	0xbcb3eee9	-0.021964507
118	0xbc98ba87	-0.01864363
119	0x3b666deb	0.003516073
120	0xbd07296e	-0.032998495
121	0xbc990d99	-0.018683242
122	0xbc8b29d1	-0.016987713
123	0xbd086bc7	-0.03330591
124	0xbca71c3e	-0.02039921
125	0xbd201bac	-0.03908889
126	0xbceaca6f	-0.028660981
127	0xbbf6fd39	-0.0075375107

sequential/dense/Tensordot/Reshape_1/transpose f4 [128, 64]
0	0xbe2548bd	-0.16141029
1	0xbdbd3a5a	-0.09239645
2	0x3e7d77f5	0.24752791
3	0x3de43c45	0.11144308
4	0xbd6ca1c9	-0.057771478
5	0x3e6e0cc3	0.23247056
6	0x3e3d66d2	0.18496254
7	0x3d4662a6	0.048433922
8	0x3dc1d77a	0.09464927
9	0xbe51a0a5	-0.20471437
10	0x3d8a7d4f	0.06762182
11	0xbe2399d4	-0.1597665
12	0x3cc8e2a8	0.02452214
13	0xbb67efcb	-0.003539073
14	0x3d726afe	0.059184067
15	0xbe8010d8	-0.2501285
16	0x3e293361	0.16523506
17	0x3e21583b	0.15756314
18	0xbe192ea3	-0.14959197
19	0x3c93d453	0.01804558
20	0x3d9d6424	0.07685116
21	0x3e154fed	0.1458127
22	0xbeab3eda	-0.3344639
23	0x3d9b92dc	0.075963706
24	0xbe67fbfa	-0.22654715
25	0xbe3003a2	-0.17188886
26	0x3d8bc08c	0.06823835
27	0x3d8a3869	0.06749041
28	0x3da9f4a2	0.08298613
29	0x3e5c1039	0.21490563
30	0x3d6ba3f4	0.057529405
31	0xbc004afb	-0.007830377
32	0x3d76b895	0.060234625
33	0xbe5a6445	-0.21327312
34	0x3d5a03f1	0.053226415
35	0xbe0248be	-0.12723061
36	0xbda66be0	-0.08126044
37	0x3da8e83e	0.08247422
38	0xbde765a6	-0.11298685
39	0x3d4992f8	0.049212426
40	0xbd0b1507	-0.0339556
41	0x3e05a09d	0.1304955
42	0x3c998d68	0.018744186
43	0xbe5a32b1	-0.213084
44	0xbe171d83	-0.14757352
45	0xbd8e98ee	-0.06962763
46	0x3de99c0e	0.11406718
47	0x3cac3cfa	0.02102517
48	0xbe04b1f9	-0.12958516
49	0x3cbafe5e	0.02282637
50	0x3e2d80e1	0.16943695
51	0xbdfd0e45	-0.12356237
52	0x3cf33bcc	0.0296916
53	0xbe0548b0	-0.1301601
54	0xbe0da005	-0.13830574
55	0x3dd8bdcb	0.10583075
56	0xbe2fd30b	-0.1717035
57	0xbdc4a462	-0.09601666
58	0xbe6efaed	-0.23337908
59	0xbe4889ea	-0.1958386
60	0x3cbc96ae	0.023021068
61	0xbe93428f	-0.28761718
62	0xbd81bf7d	-0.063353516
63	0x3b37adf0	0.0028027259
64	0xbd6da77e	-0.05802106
65	0xbd9ba0c2	-0.075990215
66	0xbe63015b	-0.22168486
67	0xbe08ac6b	-0.13347022
68	0x3dad98ca	0.08476408
69	0xbe6244c8	-0.2209655
70	0xbdcae9e3	-0.099078916
71	0x3c90d261	0.017678441
72	0x3e451e58	0.19249856
73	0xbdb1833b	-0.08667608
74	0xbe6f340f	-0.23359703
75	0x3b90fdb7	0.0044247764
76	0xbdf458e1	-0.11931015
77	0x3e30047a	0.17189208
78	0xbd83311d	-0.06405852
79	0x3e1e7407	0.15473948
80	0x3d860352	0.06543602
81	0xbc6d3b83	-0.014479521
82	0xbdddeaa0	-0.10835767
83	0xbdb982bf	-0.09058141
84	0x3e55af3a	0.20867625
85	0x3e977932	0.29584652
86	0xbd3cfb68	-0.046138197
87	0x3e28051e	0.16408202
88	0x3dc35828	0.09538299
89	0x3e130a34	0.14359361
90	0x3d5f04d4	0.054447964
91	0xbe15e3c1	-0.14637662
92	0x3d71ad07	0.059002902
93	0x3bcb8ef1	0.0062121083
94	0x3d4cb8a9	0.049980793
95	0x3cc966d4	0.024585165
96	0x3db975f8	0.09055704
97	0x3e3ca24c	0.18421286
98	0xbdde639d	-0.108588435
99	0xbda72bdd	-0.08162663
100	0x3e772e86	0.24138841
101	0xbe84de26	-0.25950736
102	0xbe010d6e	-0.1260278
103	0x3dd5967d	0.10429094
104	0xbe3eb537	-0.18623815
105	0xbe161c39	-0.14659204
106	0x3d0d1983	0.034448158
107	0x3e6a1f14	0.22863418
108	0x3e740c7a	0.23832884
109	0xbe2c2657	-0.168115
110	0x3df6a957	0.12044018
111	0xbe0091ff	-0.12555693
112	0xbe429e6c	-0.19005746
113	0xbb8e710e	-0.0043469733
114	0xbdcc7714	-0.0998365
115	0x3e0614af	0.13093828
116	0x3d601df0	0.05471605
117	0x3d7ad441	0.061237577
118	0x3c49b4c5	0.012311165
119	0x3dfee2de	0.12445615
120	0x3e151b88	0.14561284
121	0xbe60ac4b	-0.21940725
122	0x3cefa0c4	0.029251464
123	0xbe2f6539	-0.17128457
124	0xbe8b0c2f	-0.27157733
125	0x3e45f5fa	0.19332114
126	0x3e3a8a4d	0.1821682
127	0x3dc2b792	0.095076695
128	0x3defc17a	0.117068246
129	0xbe10d81a	-0.14144936
130	0x3d400bad	0.046886135
131	0xbcf64a04	-0.03006459
132	0xbdeb43b1	-0.114875205
133	0xbdbb307a	-0.091401055
134	0xbe2bd669	-0.1678101
135	0xbe26527d	-0.16242404
136	0xbda2d332	-0.079504386
137	0x3cce48f3	0.02518127
138	0x3bc3fe8c	0.005981272
139	0xbe0347fb	-0.12820427
140	0xbdda06cc	-0.10645828
141	0xbe18727d	-0.14887424
142	0xbd13ae50	-0.03605491
143	0xbc249912	-0.01004626
144	0xbcf4da97	-0.029889388
145	0xbde10155	-0.10986582
146	0xbd0b2deb	-0.033979338
147	0xbe3a2434	-0.18177873
148	0xbadccc5a	-0.001684557
149	0x3ab2a1b5	0.0013628515
150	0xbd47b1d3	-0.04875357
151	0xbdb095ca	-0.0862232
152	0xbc336fdb	-0.010951961
153	0x3d7ef501	0.062245373
154	0xbb8ac922	-0.0042354027
155	0x3cbf1baa	0.023328621
156	0xbe2d2149	-0.16907229
157	0xbd778996	-0.060433947
158	0x3d97f77d	0.074202515
159	0x3d33f723	0.04393686
160	0xbda40f94	-0.08010784
161	0xbd18d451	-0.037311856
162	0xbe1e5fb7	-0.154662
163	0xbe267426	-0.16255245
164	0x3e0a0549	0.13478579
165	0xbda327b2	-0.07966556
166	0xbe23dc55	-0.16002019
167	0x3d659284	0.05604793
168	0x3de54a22	0.1119578
169	0xbd8351d3	-0.06412091
170	0x3dfa3d6c	0.122187465
171	0x3d73e9a7	0.059549
172	0xbe1908ab	-0.14944713
173	0xbe6990a0	-0.22809076
174	0xbdcc43e3	-0.09973886
175	0xbda85124	-0.08218601
176	0xbd53e5df	-0.051732894
177	0xbd8ea9e0	-0.06965995
178	0x3e012472	0.12611559
179	0xbcb8b8c1	-0.022549035
180	0xbe4af84b	-0.19821279
181	0xbddc886b	-0.10768207
182	0x3dfe3619	0.12412662
183	0xbd8b3dbc	-0.06798884
184	0xbd20d7b8	-0.039268225
185	0x3dd188da	0.102311805
186	0xbe042438	-0.12904441
187	0x3e2caada	0.1686205
188	0xbe301d2d	-0.1719863
189	0x3c890ed4	0.016730703
190	0x3e2629a6	0.16226825
191	0xbdf0faf3	-0.11766615
192	0xbdf71fa1	-0.120665796
193	0xbe5e6330	-0.21717525
194	0xbe7e08fd	-0.24808116
195	0x3d6e650b	0.05820183
196	0xbdec796b	-0.11546596
197	0xbe86ca8e	-0.26326412
198	0xbe567097	-0.20941387
199	0x3e580cd0	0.21098638
200	0xbdaef8bb	-0.08543535
201	0xbdcdb5e8	-0.100444615
202	0x3d2a89ca	0.041635312
203	0x3cc26276	0.02372859
204	0xbde1a816	-0.11018388
205	0xbd6df434	-0.05809422
206	0xbd098fb8	-0.033584327
207	0x3e66444f	0.22486995
208	0xbdbad22f	-0.091221206
209	0xbdd5a897	-0.104325466
210	0x3a6f49ab	0.0009128104
211	0x3d661d3e	0.05618023
212	0xbccba1a3	-0.024857348
213	0x3e1131f4	0.14179212
214	0xbd25d494	-0.040485933
215	0x3e4bbac0	0.19895458
216	0x3db3619b	0.08758851
217	0x3e35e2a1	0.17762233
218	0xbc8cf7ba	-0.017207969
219	0xbcff5a7a	-0.031171072
220	0xbe04eedb	-0.12981741
221	0xbdc47685	-0.09592918
222	0x3dbcc553	0.09217324
223	0xba6417cc	-0.0008701056
224	0x3e05b804	0.13058478
225	0xbcc44882	-0.023960356
226	0xbd9c071f	-0.07618546
227	0x3d517763	0.051139247
228	0xbd9ee0b6	-0.07757704
229	0xbdff02f7	-0.124517374
230	0xbe206dea	-0.15666929
231	0x3d177766	0.0369791
232	0x3d508345	0.05090644
233	0x3e36b125	0.17841013
234	0x3b317e3f	0.0027083305
235	0x3ddfb326	0.10922842
236	0xbe15c837	-0.14627157
237	0x3e2b9fb5	0.16760142
238	0xbe0688c7	-0.13138114
239	0xbe5eecc4	-0.21770006
240	0x3d1e3cce	0.038632207
241	0x3df0b65a	0.11753531
242	0xbb203e84	-0.0024451325
243	0xbe5e271b	-0.21694605
244	0x3de9cdaa	0.114161804
245	0x3d8e4f94	0.06948772
246	0xbd639717	-0.055564012
247	0x3de0947c	0.10965821
248	0xbd966488	-0.073433936
249	0x3e45c6d1	0.19314124
250	0xbd1a66dd	-0.037695754
251	0x3d5e9483	0.05434085
252	0x3d9a4e00	0.075344086
253	0xbe168b38	-0.14701545
254	0x3ea4ad8d	0.3216366
255	0xbcd4ffbb	-0.026000848

sequential/dense_1/MatMul/ReadVariableOp/transpose f4 [10, 18432]
0	0xbcf05b55	-0.029340426
1	0x3cadbde6	0.021208715
2	0x3d122d63	0.035687815
3	0x3c3a069c	0.011354115
4	0xbce0bb5a	-0.027433086
5	0xbcf3569b	-0.029704383
6	0x3c518d40	0.012790024
7	0xbc8666e3	-0.016406482
8	0x3c962106	0.018326294
9	0xbcf932b9	-0.030419694
10	0x3c51690b	0.012781392
11	0x3d27b689	0.040945563
12	0xbd13f34c	-0.036120698
13	0xbb514767	-0.0031933428
14	0x3a9c5270	0.0011926424
15	0xbb81484d	-0.0039453865
16	0xbc9047dc	-0.01761239
17	0x3c72ccf5	0.014819373
18	0x3c6a0411	0.014283196
19	0x3d1fe1c7	0.039033677
20	0x3a1617bd	0.0005725583
21	0xbcb07c76	-0.021543723
22	0xbba68bfd	-0.005082606
23	0xbb913c5b	-0.0044322438
24	0xbd6cf325	-0.05784907
25	0xbba3d478	-0.0049996935
26	0x3bcf631f	0.006328955
27	0x3af4a5e3	0.0018665161
28	0x3af5e0c7	0.0018759005
29	0x3c14e6f5	0.009088268
30	0xbcd31d8c	-0.025770925
31	0xbc92dfd6	-0.017928999
32	0x3d0adf4a	0.03390435
33	0xbc8a260e	-0.016863849
34	0x3ca9c626	0.020724367
35	0x3d054493	0.0325361
36	0xbba0a156	-0.0049020452
37	0xbc834cac	-0.016027771
38	0xbbf6e153	-0.007534185
39	0x3b10c4b0	0.002208989
40	0x3c3726a2	0.011178644
41	0xbc46eb89	-0.012141117
42	0xbd728f53	-0.059218716
43	0x3c5e325f	0.013561814
44	0xbc5555eb	-0.013020973
45	0xbcf3fb53	-0.029782927
46	0xbb232e73	-0.0024899512
47	0xbc2ffa9a	-0.0107409
48	0x3ab0ed31	0.0013498423
49	0xbb121ffb	-0.0022296894
50	0xbc46b1e9	-0.012127378
51	0xbcbf8d25	-0.023382733
52	0x3d09dade	0.033655994
53	0xbd745fa0	-0.059661508
54	0xbd3e6902	-0.046486862
55	0xbd00e522	-0.031468518
56	0xbd7d32e6	-0.06181612
57	0xbcfd5350	-0.030923516
58	0xbd29e60b	-0.04147915
59	0xbb8fc69d	-0.00438769
60	0xbc205db7	-0.009787968
61	0x3cf0c0c5	0.029388795
62	0xbd05ceb0	-0.032667816
63	0xbc98547d	-0.018594975
64	0xbc2879cf	-0.010282948
65	0x3cd0c929	0.025486546
66	0xbc5c4e08	-0.0134463385
67	0xbcfc7892	-0.030819211
68	0x3c065e91	0.008201257
69	0x3cb87e16	0.02252106
70	0xbcd364cb	-0.025804898
71	0xbd08c4cd	-0.03339081
72	0xbce85cde	-0.028364595
73	0xbcc9d179	-0.024636017
74	0xbd05f13c	-0.032700762
75	0xbc44405f	-0.011978238
76	0x3c20b5f6	0.009809008
77	0xbc6acf40	-0.014331639
78	0xbc91ae15	-0.017783204
79	0xbb46b49f	-0.003032006
80	0xbd44b352	-0.048022576
81	0xbc9e905c	-0.019355945
82	0xbcecbc6e	-0.028898444
83	0xbab087e1	-0.001346823
84	0x3c83080c	0.015995048
85	0xbc5fb898	-0.01365485
86	0xbcc2b6f3	-0.023768878
87	0x3bf13288	0.00736076
88	0xbb9e9659	-0.0048397
89	0x3bf25cd4	0.00739632
90	0x3c3b31f8	0.011425488
91	0xbc51b7ef	-0.012800201
92	0x3cc2fd15	0.02380232
93	0xbd1b97ba	-0.037986495
94	0x3bdae971	0.0066806604
95	0xbced348a	-0.028955717
96	0xbcdaeccd	-0.026724244
97	0xbcc26365	-0.023729036
98	0xbce1397c	-0.027493231
99	0x3c7efdeb	0.015563468
100	0xbcfb8b22	-0.030705992
101	0x3a8d504e	0.0010781379
102	0x3b0025c0	0.001955375
103	0xbd0ee4ed	-0.03488629
104	0x3c667252	0.014065342
105	0xbd1acc28	-0.037792355
106	0xbc044851	-0.008073882
107	0x3c19615f	0.009361594
108	0xbac4a49b	-0.001500267
109	0xbb83dd2e	-0.0040241694
110	0xbc4ac548	-0.012376137
111	0x3c102fde	0.008800475
112	0xbc9da825	-0.019245217
113	0xbd14cc6c	-0.036327764
114	0x3cd185e2	0.025576536
115	0xbc0cfe00	-0.00860548
116	0xbd221ac5	-0.03957631
117	0xbb22b5ed	-0.0024827674
118	0xbb361b32	-0.0027787206
119	0xbcb6122c	-0.022225462
120	0x3c833964	0.016018577
121	0xbca0ecf4	-0.019644238
122	0xbbc99265	-0.006151485
123	0xbad70378	-0.0016404232
124	0xbbe8ca4a	-0.007104193
125	0xbc4e183f	-0.012579023
126	0xbd13f80f	-0.03612524
127	0x3c74b517	0.014935753
128	0xbcbb9345	-0.022897372
129	0x3a06a006	0.00051355397
130	0x3bbc2591	0.005741783
131	0x3c83dec4	0.016097434
132	0xbba48f94	-0.0050219987
133	0xbd4b3467	-0.04961052
134	0xbc8579f1	-0.016293498
135	0xbc1f2a71	-0.009714709
136	0xbcf6a426	-0.030107569
137	0xbca01cc2	-0.019544963
138	0xbb83017b	-0.003997979
139	0xbc267b93	-0.010161298
140	0xbba53091	-0.00504119
141	0xbc63f672	-0.013913738
142	0xbc6ded8e	-0.0145219695
143	0xbd180e9f	-0.03712332
144	0xbc286964	-0.010279033
145	0xbcc18c43	-0.023626452
146	0xbbf54c5e	-0.0074859103
147	0xbce70d58	-0.028204605
148	0xbbc01b52	-0.005862632
149	0xbd49e20d	-0.049287844
150	0xbbb231f7	-0.005438085
151	0x3b055650	0.0020345636
152	0xbcd01de9	-0.025404887
153	0xbc6cbfc9	-0.014450022
154	0x3b8e1077	0.004335459
155	0xbd3a3df5	-0.045469243
156	0x3c0dc168	0.008652069
157	0xbb83c8d9	-0.0040217456
158	0xbd46537a	-0.048419453
159	0x3b9130a1	0.004430846
160	0xbc8ddcb5	-0.017317155
161	0xbca0d94e	-0.019634869
162	0x3b2f8b7a	0.0026786015
163	0x3c95004f	0.018188624
164	0x3c8491fe	0.016182896
165	0xbcc0d5d6	-0.023539465
166	0xbce5d697	-0.028056426
167	0xbc0e6462	-0.008690925
168	0xbc8110c9	-0.015755074
169	0xbcdf8a9c	-0.027287774
170	0xbc099651	-0.008397655
171	0xbb402120	-0.002931662
172	0x3c8f5ed4	0.017501272
173	0xbd21be57	-0.039488163
174	0x3bfb5333	0.00766983
175	0xbc7a228d	-0.015267027
176	0xbca7c0e1	-0.020477714
177	0xbc2a00ff	-0.010376214
178	0xbcd4ebf3	-0.025991416
179	0xbccdbb0e	-0.025113609
180	0x3cff7969	0.031185823
181	0xbd46b457	-0.04851183
182	0xbd26e472	-0.040745206
183	0x3b80e565	0.003933596
184	0xbd254c99	-0.040356252
185	0xbca1b3b4	-0.01973901
186	0xbd4d5c8e	-0.050137095
187	0xbbdce644	-0.006741317
188	0xbbb1dc5a	-0.0054278793
189	0x3ccaea63	0.024769967
190	0xbb36b8be	-0.002788111
191	0xbbbe360a	-0.005804782
192	0x39f70c89	0.0004712085
193	0x3d05c000	0.03265381
194	0xbcd9fc6e	-0.026609626
195	0xbc9f5eaf	-0.019454328
196	0x3c36c177	0.011154524
197	0xbcb38501	-0.021914007
198	0xbcbd3fcf	-0.023101715
199	0xbcf68a3d	-0.030095214
200	0xbd6809f7	-0.05665013
201	0xbd3218bf	-0.04348063
202	0xbc9bd751	-0.01902357
203	0x3b530890	0.0032201149
204	0xbbb81c3f	-0.0056186016
205	0xbcb3b9e4	-0.021939225
206	0xbca423ca	-0.020036597
207	0x3c2fdc37	0.010733656
208	0xbd7f1e7d	-0.062284935
209	0xbc5d66c6	-0.013513273
210	0xbca5a969	-0.020222383
211	0xbb71e557	-0.003691038
212	0xbd25c16a	-0.040467657
213	0x3b8ab0ba	0.004232493
214	0xbcd4dacc	-0.025983237
215	0xbd2e541b	-0.042560678
216	0xbc6af281	-0.014340044
217	0xbacdcd99	-0.0015701532
218	0xbc422b3d	-0.011851129
219	0xbc3de4ac	-0.011590164
220	0x3bde9831	0.006793045
221	0xbd16e18d	-0.036836196
222	0xbbfd3b50	-0.007728018
223	0xbc7b7bc2	-0.01534933
224	0xbc5b8340	-0.013397992
225	0xbccbddb5	-0.024885992
226	0xbcfb479d	-0.030673796
227	0xbca7b9cd	-0.020474339
228	0xbd07a330	-0.033114612
229	0xbd3b4fcb	-0.045730393
230	0xbc3ffc51	-0.011717872
231	0x3b01c9c9	0.0019804111
232	0xbd55e783	-0.05222274
233	0xbd891355	-0.066931404
234	0x3a80548a	0.000979082
235	0xba4f7343	-0.00079135987
236	0xbd4a126f	-0.049333986
237	0xbd225e47	-0.03964069
238	0xbcfe2435	-0.031023124
239	0xbc081be2	-0.008307429
240	0xbd090fad	-0.033462215
241	0xbd266509	-0.0406237
242	0xbd222c5f	-0.039593097
243	0xbba08b0d	-0.0048993886
244	0xbcd8bae6	-0.026456308
245	0x3b066add	0.0020510473
246	0xbc6f4c24	-0.014605556
247	0xbcc5bad8	-0.024136946
248	0xbc6a2b03	-0.014292481
249	0xbc139cf0	-0.009009585
250	0xbcda10a6	-0.026619267
251	0xbc8b7028	-0.017021254
252	0x3ca6982a	0.02033623
253	0xbca05413	-0.01957134
254	0xbd33c409	-0.043888126
255	0xbbdfa5fe	-0.0068252077

sequential/dense_1/MatMul_bias f4 [10]
0	0xbb98b6cd	-0.0046604634
1	0x3ce6061b	0.028079083
2	0x3b5db918	0.0033832248
3	0xbbb04ecf	-0.0053804885
4	0xba975793	-0.0011546485
5	0x3a26d886	0.0006364662
6	0xbc1945a7	-0.009354985
7	0x3cb3329b	0.021874717
8	0xbc6f4797	-0.014604471
9	0xbc9a14e8	-0.018808797
