ReInforcement/snake/model/model_g97_s47.pth (torch, 17027 bytes, 4 tensors)

linear1.weight f4 [256, 11]
000000 4d c3 b1 be ef ec e1 be 23 1f aa 3e 69 1f c4 3d
       -0.34719315 -0.44126078 0.3322688 0.095763035
000010 0e d6 9d be 50 1e 9c 3d 89 2b 0f 3e 85 2e 7a bd
       -0.30827373 0.07622969 0.13981451 -0.06107952
000020 3b 35 b8 3e 34 17 a5 3e e0 12 be bd f7 15 a4 3d
       0.35978112 0.32244265 -0.09280944 0.08012002
000030 a9 4c 0b 3e a6 11 89 3d 7e 01 a3 be 5e db ce bd
       0.13603462 0.06692819 -0.31837076 -0.10100435
000040 97 bd 71 be fc 5f 72 3e 3d 29 8d be b1 53 88 3e
       -0.23607479 0.23669428 -0.27570525 0.2662635
000050 3f e1 54 3e 19 cc 97 bd 94 06 b3 bd a2 f8 88 3d
       0.2078905 -0.074119754 -0.08741489 0.06688048
000060 24 4e 16 3f e2 41 45 be a9 22 82 3d 4e b5 81 3e
       0.58712983 -0.19263414 0.06354267 0.25333637
000070 53 d2 77 be 2a 3c a8 3e 79 da 80 bb 66 4f 45 be
       -0.24201326 0.32858402 -0.003932294 -0.1926857
000080 85 4f b3 3e c7 e8 cf 3e 7a 48 11 bf 6d 3e 15 3f
       0.35021606 0.40607283 -0.56751215 0.5829838
000090 db b7 c8 bd ad a8 0a 3e df 35 2f 3e b4 4b 6b be
       -0.09800693 0.13540907 0.17110394 -0.22978097
0000a0 7f 5c 87 3c c7 22 10 bd 7a 92 fe bd b3 b4 a1 3e
       0.016523598 -0.035189416 -0.12430282 0.31583175
0000b0 fd 09 04 bf b3 f9 ef 3e 73 e2 6d 3d c7 00 8d 3e
       -0.5157774 0.46870193 0.058077287 0.27539656
0000c0 8e 5b 6a 3e 32 42 e7 be 35 3a 00 be 6c d8 0e be
       0.22886488 -0.4516769 -0.12522204 -0.13949746
0000d0 a2 fd 95 3e cb 17 af be b8 97 d5 be 89 9a a2 3d
       0.2929507 -0.3419784 -0.41717315 0.079396315
0000e0 db 4f 46 bd be 22 b1 3d 51 69 65 be 99 0f 35 bc
       -0.048416 0.08649205 -0.22403456 -0.011051082
0000f0 2e 45 a6 3d 12 07 9e bd f1 62 f0 bc 60 e1 a6 bb
       0.08118664 -0.07716192 -0.029344054 -0.0050927848
000100 9b 10 94 3d 63 c0 86 be 0a 2d 5c be 82 39 c7 bd
       0.0722973 -0.26318654 -0.21501556 -0.097277656
000110 40 48 d9 bc 0c ba 58 bd 6d 23 19 3e 38 17 2f 3d
       -0.02652371 -0.052911803 0.1495492 0.042746753
000120 18 98 1f bd 2f 0f 16 3e 6a 0a 74 be bf 25 ae bb
       -0.038963407 0.1465423 -0.23832098 -0.0053145583
000130 a6 1a 99 be 8c f2 63 3d 6e e5 92 be c2 f9 94 3e
       -0.29903144 0.055651233 -0.28690666 0.290968
000140 92 8e 45 3e 53 dd 30 be 77 ce cc bc 4b c6 40 bc
       0.19292668 -0.17271928 -0.025000794 -0.011766027
000150 4d 35 72 3e b9 0b 2b 3e 96 12 d7 3d a9 86 bd 3d
       0.23653145 0.1670369 0.10501592 0.092542
000160 b4 b0 ee bd e3 ed df bd 49 f3 b2 be de 8c 83 3e
       -0.11654797 -0.10934045 -0.34951237 0.2569341
000170 24 05 d8 be b3 1a c1 3d e0 db 04 be 7e b6 03 be
       -0.42191422 0.094289206 -0.129745 -0.12862584
000180 cf 44 c0 bd 43 d6 46 be 1d 5e e2 3e 41 aa 7c 3e
       -0.09388124 -0.19417672 0.44212428 0.24674322
000190 b7 86 b7 3e 99 93 fb be fb 2b 25 bd 27 01 96 be
       0.35844967 -0.49136046 -0.040325146 -0.29297754
0001a0 89 fd bc be 50 40 07 3d 29 b4 e2 3c 31 f9 80 3e
       -0.36912182 0.033020318 0.027673798 0.25190118
0001b0 f5 02 b2 3e 51 0d 95 3e ca 80 62 3e cd 54 fd be
       0.3476788 0.29111722 0.22119442 -0.4947876
0001c0 d0 2b 8e be cc 70 0c be 35 5d 75 3e b0 05 f1 3d
       -0.277678 -0.13714904 0.23961337 0.11768663
0001d0 6c 6e a1 be ee 96 8f be 20 3c 37 3e 99 17 03 3e
       -0.31529558 -0.28044838 0.1789403 0.1280197
0001e0 2f a4 6b bd bf 90 80 be b0 5e c2 3e a9 2b 08 3f
       -0.057529625 -0.25110433 0.37962866 0.5319162
0001f0 a1 ff 5f 3c 6c 85 5c 3e bd b8 87 3e 8c ef cf 3d
       0.0136717865 0.21535271 0.26508132 0.10153112
000200 44 ce 76 3e 5e e0 ff 3d 7d d2 7c 3d 7e c8 19 3e
       0.24102122 0.124939665 0.061724175 0.15017888
000210 c8 87 de be 0f 57 b4 3e b8 8c 04 3f a0 f9 b0 be
       -0.43462968 0.3522267 0.5177722 -0.3456545
000220 c5 e8 4e 3e 3f 2f 1f 3d 8f f1 04 3e 02 32 bd be
       0.20205982 0.038863417 0.12982772 -0.36952215
000230 1f 6d 67 3d 52 04 aa 3e 36 88 0b 3e b4 eb ab be
       0.05650055 0.3320642 0.13626179 -0.33578265
000240 c5 6d 63 3e ed f5 69 3e 79 1a b7 3e cc 98 6e be
       0.22209843 0.2284772 0.35762385 -0.23300475
000250 33 ab 45 be 70 1a 24 be 43 e2 e9 3d ab 92 e5 bd
       -0.19303589 -0.1602571 0.11420109 -0.11209615
000260 ff ce 15 bd 84 ee 9e be 31 18 87 be 5c 3e 1f 3e
       -0.03657436 -0.31041348 -0.26385644 0.15551132
000270 7e 56 8d be 62 31 3e 3e 01 02 30 be 6b 93 bd be
       -0.2760505 0.18573526 -0.17188264 -0.37026533
000280 4b 3f cd be e2 68 ee bd e0 13 29 36 f0 de 94 3e
       -0.4008735 -0.116410986 2.5194531e-06 0.29076338
000290 12 1c 73 3e 29 08 5f be ed 41 7b bc 89 e8 00 3e
       0.23741177 -0.21780457 -0.015335542 0.12588705
0002a0 00 57 93 3e 02 65 d6 be e7 81 d6 be f1 9b 04 3f
       0.28777313 -0.41873938 -0.41895983 0.5180045
0002b0 19 42 80 3e 6f 84 1b bf 7d 42 1f bf ef 21 68 be
       0.25050429 -0.6074895 -0.6221083 -0.22669195
0002c0 2b 52 97 be f3 d3 1d 3f 58 de ed be 07 0e aa 3d
       -0.29554877 0.61651534 -0.46458697 0.08303457
0002d0 4b 4b 17 3e 10 03 86 3e d5 a6 05 be 0c f8 f1 3c
       0.14774816 0.26174212 -0.13051923 0.029537223
0002e0 f8 ad 0c be b8 ae 86 3d e9 f9 88 bd d1 eb 8c be
       -0.13738239 0.06576294 -0.066882916 -0.27523664
0002f0 2c b4 2e bc 04 3d d0 3e 50 17 2d be cd 28 95 3e
       -0.0106630735 0.4067155 -0.16903424 0.2913269
000300 d1 6d df 3a 76 63 c1 bd bd 37 5b be ca aa 80 3d
       0.0017046278 -0.09442799 -0.21407981 0.062825754
000310 eb 04 09 be 41 50 8f 3e 71 78 25 bd 85 85 bc 3b
       -0.13380782 0.27990916 -0.040398065 0.0057532215
000320 f1 fd bb 3e 29 d1 36 bd c1 81 5f bc 35 b5 a0 bd
       0.3671718 -0.044633064 -0.013641776 -0.078470625
000330 70 b2 e7 bb d7 3a 83 be fe 67 0e bd 1e cd bf bc
       -0.007070832 -0.2563083 -0.034767143 -0.023413237
000340 75 90 5a be 3c d8 a9 3e 09 90 e7 3e fe 0f 0c bf
       -0.21344168 0.33172786 0.45227078 -0.547119
000350 a4 67 31 be 4d 77 89 bd 39 91 f9 3c c0 0e 30 3e
       -0.17324692 -0.06712208 0.030464755 0.17193127
000360 3d 8f a7 3e 64 4c 16 3e b3 81 85 3e 72 59 42 3e
       0.3272647 0.14677578 0.26075515 0.18979433
000370 be 85 22 bd 49 da 9b be 20 74 75 3e 48 c9 8b 3e
       -0.039678328 -0.30439976 0.2397008 0.27302003
000380 1b 8e 65 3e 62 22 80 be c6 07 83 be 55 0e 7c be
       0.2241749 -0.25026232 -0.25591868 -0.24614842
000390 1a d8 de be 61 6e b2 3e 95 c1 f4 bd a0 73 09 3f
       -0.43524247 0.34849837 -0.11950985 0.53692055
0003a0 1a eb 2b 3e 31 d5 97 bd ea c6 da 3d 52 f3 c9 3e
       0.16788903 -0.0741371 0.10682471 0.3944345
0003b0 de ef 6b be a7 8d f2 3d 90 a3 24 3e 44 ed 83 be
       -0.23040721 0.11843424 0.16078019 -0.25766957
0003c0 a0 a5 d2 3e 8f 54 bd 3d 05 23 25 be 42 87 3c 3e
       0.41141987 0.09244644 -0.1612664 0.18410972
0003d0 ff ec ac be de b5 43 bd d5 67 56 be 9c 1d 0b 3e
       -0.33774564 -0.047780864 -0.20938046 0.13585514
0003e0 c1 4b a8 3d 5a 1f 55 bd af 6d 13 3e ac 11 13 be
       0.08217574 -0.052031852 0.1439731 -0.1436221
0003f0 e1 1e 4e be b8 15 31 bf a7 36 63 3e 3d 9c cc 3e
       -0.20128967 -0.69173765 0.22188817 0.3996295

linear1.bias f4 [256]
000000 1d ed 7e bd 23 ea 71 be 2d 59 e6 bd cb ac 2e be
       -0.062237848 -0.23624472 -0.11247478 -0.17058103
000010 7f 1c 25 3e 83 36 be be 8f d2 9f be 39 91 3e 3c
       0.16124152 -0.37150964 -0.3121533 0.0116313035
000020 bf 9d fe bd 59 11 34 3d bc de 1c 3d 5b e1 09 3e
       -0.124324314 0.043961857 0.038298354 0.13464873
000030 29 81 96 3e 59 aa 1f be d0 66 a1 bd ec e3 bc 3d
       0.29395416 -0.15592326 -0.07880938 0.0922316
000040 11 b0 ae 3e 0a 77 19 be 17 e8 c0 3d 60 34 f2 bd
       0.34118703 -0.14986816 0.094192676 -0.11826396
000050 23 2d 1e be 70 f7 50 be 88 5d 10 3d 37 5c c1 bd
       -0.15446906 -0.2040689 0.03524545 -0.09441417
000060 37 95 31 be 5c 45 81 bd 0c 08 c5 3e ac 06 dc bd
       -0.17342077 -0.063120574 0.38482702 -0.1074346
000070 5f 45 5c be 90 e9 98 3c 56 55 8a be ea 8b 72 bc
       -0.21510838 0.018666059 -0.2701823 -0.014803866
000080 15 5c ff 3c 20 ec 05 be fc bc df 3d dd ce 69 3e
       0.031171838 -0.13078356 0.10924718 0.22832818
000090 81 c7 74 bc b1 d1 b1 3d fb 81 a9 3e 3b 52 b8 3b
       -0.014940144 0.086825736 0.3310698 0.005625037
0000a0 d0 03 48 3e db 5f 89 be 28 ee 29 be 20 33 40 be
       0.19532704 -0.26830944 -0.16594756 -0.18769503
0000b0 04 f3 dc 3d 83 c2 03 3e dd fc a4 be 31 13 2e 3e
       0.10788539 0.12867169 -0.3222417 0.16999508
0000c0 f2 32 4b 3e 11 cf 7d be 2e 7f 37 be f2 d5 d2 bd
       0.19843653 -0.24786021 -0.17919609 -0.10294713
0000d0 fe df ac bd 10 1a 9d bd 85 f8 82 be 0b bb e2 3a
       -0.084411606 -0.07670987 -0.2558023 0.0017298175
0000e0 a9 ae 62 be 0e ed e9 bc cb 61 b2 3d 7c 73 6f 3c
       -0.2213694 -0.02855542 0.08710059 0.014614936
0000f0 9f 8f fa bc f8 78 73 3e fd c4 21 be d4 e0 41 3e
       -0.030586062 0.23776615 -0.15797801 0.18933421
000100 7d 36 10 3d 81 0f 9c bc a3 7e 1b 3e 90 7b 54 be
       0.035208214 -0.019050362 0.15185027 -0.2075026
000110 c6 99 0a bc ce 0e 77 bb 43 fe bd bd d6 ce 78 be
       -0.008459514 -0.0037698033 -0.09277012 -0.24297652
000120 ee 10 0d 3e c3 9f af 3e 48 24 d1 3a 70 e3 3a be
       0.1377599 0.34301576 0.0015956247 -0.18250823
000130 74 d1 59 3e a9 ce 93 3d d0 9e 71 be 40 81 12 3e
       0.21271306 0.07217152 -0.23595738 0.14307117
000140 1f a9 4e be ee 80 be bd aa 04 6f bd d2 3f c6 bc
       -0.20181702 -0.09301935 -0.058354057 -0.024200354
000150 0f 71 bb 3d fe 7c 00 be 0e 77 13 be c1 26 39 be
       0.091524236 -0.1254768 -0.14400885 -0.1808119
000160 32 e2 75 3c 42 d6 ef bb 76 61 5b 3e d9 27 ab 3e
       0.015007542 -0.0073192427 0.21423897 0.3342884
000170 56 d1 36 3d b8 8d b9 bd b8 b6 49 bd cd a1 e6 bd
       0.044633232 -0.09060234 -0.04924652 -0.1126133
000180 e3 c4 d9 bb c8 96 a4 3d db 98 0b 3c e8 b1 8f be
       -0.006645785 0.08036572 0.00852033 -0.2806542
000190 58 9f 6e be 01 59 db bd 10 3f 56 be bc da 8d 3c
       -0.23302972 -0.107103355 -0.20922494 0.017316215
0001a0 b1 e2 9c 3d f1 f0 ca bd f7 bb b0 3d 81 48 ba 3d
       0.076604255 -0.09909237 0.086296014 0.0909586
0001b0 bb 9a 3b 3e b1 99 eb bd 30 00 66 bd b8 5b 2b be
       0.18320744 -0.11503924 -0.056152523 -0.16734207
0001c0 0c 25 f6 3d 14 17 35 3e f3 12 df bd c0 53 0d bd
       0.12018785 0.17684585 -0.10892286 -0.0345037
0001d0 12 58 36 bd 15 ba 2b be 8c b7 05 be 53 cc be bd
       -0.044517584 -0.16770203 -0.13058299 -0.093163155
0001e0 1a dd 97 bd 84 9a 0d 3b 95 b3 94 3c 62 bb aa 3b
       -0.07415219 0.002160699 0.018152038 0.005210326
0001f0 73 db f6 bd 87 20 f2 bd b3 62 a4 be b4 97 c1 bb
       -0.12053575 -0.1182261 -0.32106552 -0.005907977
000200 9a 26 e0 be 66 a3 e2 bd 8b 82 bd 3c 95 37 f5 3d
       -0.4377945 -0.11066322 0.023133537 0.11973492
000210 c3 34 4c be 05 a9 e2 3d 7a df de 39 f2 5e 27 3b
       -0.19942002 0.11067394 0.00042509643 0.002553877
000220 e6 dd 96 bd fd 54 90 be 11 c1 5e bd a0 88 74 3c
       -0.073665425 -0.2818984 -0.05438334 0.014925152
000230 bb 4d ba 3d 98 04 ca 3d 06 b0 3d bd b9 fd 9d be
       0.09096857 0.098641574 -0.046310447 -0.30857638
000240 53 71 e1 3d cc 84 c0 bd 33 dd 0b 3e 8a 4b f7 3d
       0.11007943 -0.09400329 0.136586 0.12074955
000250 ac d7 dd bd 65 ee e8 3d 26 74 4e 3e 90 bf 39 bd
       -0.10832152 0.11373595 0.20161495 -0.045348704
000260 6d e8 2b be f2 c6 38 be 9c a9 d7 bd 29 ac 13 3e
       -0.16787882 -0.18044642 -0.10530397 0.14421143
000270 a2 fb 96 bd e3 90 db 3e 1a fe 89 bb 6a c2 31 3e
       -0.07372214 0.42883977 -0.0042111995 0.1735932
000280 53 8c 0d 3e dd 9c 9d be 27 86 0c be 8c aa 1d 3e
       0.1382306 -0.3078374 -0.1372305 0.1539709
000290 39 6b f7 bd 70 d0 9b bd c2 bc ab be 6f f1 60 3e
       -0.12080998 -0.07608116 -0.33542448 0.219671
0002a0 bd be 5a bd 2a 67 7b be 2c 25 04 3e 8b ed 68 3d
       -0.05340456 -0.24551073 0.12904805 0.056867164
0002b0 c5 f4 89 be 33 32 36 be fa f5 ff 3d 82 20 5d 3e
       -0.26944557 -0.17792587 0.12498088 0.21594432
0002c0 d5 63 0d be b1 1f 34 3e f5 cd e0 3d 98 f4 79 3e
       -0.13807614 0.17590214 0.10976783 0.24409711
0002d0 ba b7 8b bc 6b e2 77 3e a8 38 0d be 0f 21 27 be
       -0.017055381 0.24207465 -0.13791144 -0.16321205
0002e0 f2 37 50 3d 38 68 eb bc 51 f8 82 bd ca a9 6e be
       0.050834604 -0.028736219 -0.06395019 -0.23306957
0002f0 79 db 2a 3e b0 d6 b4 3c 70 fe ef 3d 81 39 e3 bd
       0.16685285 0.022075027 0.11718452 -0.110949524
000300 38 d0 bf be 00 06 04 be ee 1b 79 3e 38 0f 99 be
       -0.37463546 -0.12892914 0.2432706 -0.29894423
000310 7c 04 1f be 97 7a bd 3e 02 7b 21 be 1f 68 b7 bd
       -0.15529054 0.3700759 -0.1576958 -0.089554064
000320 b3 6d 92 bd d5 09 98 be d8 42 15 3d 8a 79 0c be
       -0.0714983 -0.29695 0.0364407 -0.13718238
000330 cf 42 5a bb de 1d f5 3c ac 55 cb bd 85 f9 23 3c
       -0.0033303981 0.029921468 -0.0992845 0.010008221
000340 9a 9d a9 3d c6 18 0d be 98 c8 05 bd d1 4f 75 bc
       0.08282013 -0.13778982 -0.032662004 -0.014972643
000350 b9 14 dc bc 4e f4 30 3e 2d c6 b8 be 07 24 9d bd
       -0.02686535 0.17280695 -0.36088696 -0.07672887
000360 5f a8 f8 bd ba 6f 1e bc 92 56 9e 3d 65 1f 80 be
       -0.12141489 -0.009670192 0.07731356 -0.25023952
000370 b8 a3 84 3e 28 05 19 3b ca 65 be be 24 d6 91 3e
       0.25906157 0.002334902 -0.37187034 0.2848369
000380 37 b7 e2 3c 0a 33 90 bd 63 69 6c bd bc d3 f7 bd
       0.027675254 -0.07040985 -0.057717692 -0.12100932
000390 2d 0c 45 be 87 57 86 be c2 3d d9 bc 53 09 03 3e
       -0.19242926 -0.26238653 -0.026518706 0.12796526
0003a0 41 a2 8c be d0 11 f9 3b 48 ef 46 3d 91 87 b0 3d
       -0.2746754 0.0076010004 0.04856804 0.08619607
0003b0 e7 96 54 be e2 b4 86 be 82 f0 7c 3e 19 dd a2 3d
       -0.2076069 -0.26309878 0.24701121 0.07952327
0003c0 c9 99 72 3e 4c c7 26 be a6 ad 74 3e e0 38 14 be
       0.23691477 -0.16286963 0.23894367 -0.14474821
0003d0 ac 46 a6 3d 40 dd 46 3e 29 7a 80 bc 40 fe 18 bd
       0.08118948 0.19420338 -0.01568325 -0.037351847
0003e0 7f 52 25 3d 1a e6 46 3d 4e c4 05 be 2f 62 a0 be
       0.040361878 0.048559286 -0.13063166 -0.31324908
0003f0 f1 50 d9 bd ce 1a 7b be f0 f0 85 3c 72 01 19 be
       -0.106111415 -0.24521944 0.01635024 -0.14941958

linear2.weight f4 [3, 256]
000000 de d9 ea bd ff 55 1b bd 95 2f 9a be dd 55 4a be
       -0.11467336 -0.03792381 -0.30114427 -0.19759317
000010 6a 70 69 3e 3c 6d a3 3c 90 a7 ad 3b 7c 08 50 bd
       0.22796789 0.019949548 0.005299516 -0.05078934
000020 83 35 12 be 56 c5 36 be 20 a4 27 3e 9d 90 ad 3c
       -0.14278226 -0.17848715 0.16371202 0.021187121
000030 b2 e4 6a 3e 6a 1d 4f 3e f7 94 92 be e0 5f f2 3e
       0.22938803 0.20226064 -0.28629276 0.47338772
000040 9f 9f 2b 3e 53 13 07 3e 28 7f e8 3c e0 dd 6b be
       0.1676011 0.13190965 0.028380945 -0.23033857
000050 1b 00 a8 be 67 fe e1 be 64 db cb bd 83 33 16 3e
       -0.3281258 -0.44139406 -0.09953955 0.14668088
000060 df c7 f5 bd 39 f5 22 3d c1 a2 83 3e 3f a3 50 be
       -0.12001013 0.039784644 0.2571011 -0.20374773
000070 5b 2c be bd 4b a7 3b be f6 48 e3 be 36 b7 da 3e
       -0.09285804 -0.18325536 -0.44391602 0.42717904
000080 44 ca 86 be 0d f1 b6 be d6 7d 16 bd b1 9b 15 3e
       -0.2632619 -0.35730782 -0.0367411 0.14610173
000090 56 28 b8 bc 35 a4 d2 ba 4a ce ec 3e d8 66 76 3c
       -0.022480171 -0.0016070666 0.46251136 0.015039168
0000a0 bb d7 07 3e b6 b0 00 be 1f 39 04 bf 24 5b 86 be
       0.13265888 -0.1256741 -0.5164966 -0.2624141
0000b0 d0 85 d0 3e 31 05 c6 be 5e c5 b2 bc 91 1b a8 3e
       0.4072709 -0.38675836 -0.021822628 0.32833531
0000c0 e4 31 c0 3e 2f ff 2b be 4c d1 95 be 98 fd 29 be
       0.37538064 -0.16796564 -0.29261243 -0.16600645
0000d0 a2 15 4e 3e 25 33 af be 06 a9 28 be 02 cb 6a 3e
       0.2012544 -0.34218708 -0.16470727 0.22929004
0000e0 a4 1e 1d 3e 06 1a 63 be e3 2b 36 3e 12 ae 71 3e
       0.1534372 -0.22177896 0.17790179 0.23601559
0000f0 f8 53 c6 3e c7 39 4c 3e 08 86 52 bc fd 52 00 3f
       0.38735938 0.19943915 -0.012849338 0.5012663
000100 0e f2 ac 3b 96 07 f2 be bf 0a 85 3e 26 0a d5 be
       0.0052778786 -0.47271413 0.2598476 -0.41609305
000110 12 e8 c1 3d b9 75 72 be d9 59 85 bd 3c 82 3d be
       0.09468092 -0.2367772 -0.06511278 -0.18506712
000120 c5 ea e8 3d a8 8d ae 3e 2b f9 73 bc 17 2c 6b be
       0.11372904 0.3409245 -0.014890949 -0.22966038
000130 ea f7 b3 3d fc e6 48 3e 1b d1 9e be 87 53 2c be
       0.0878752 0.19619364 -0.3101891 -0.16828738
000140 8f d8 40 3e b2 51 a2 be dd 47 9a be f1 6c 4f be
       0.1883261 -0.31702954 -0.30132952 -0.20256402
000150 15 7d 82 bd 5f ea 0e be 27 d3 44 be c5 5d 1d be
       -0.06371514 -0.13956593 -0.19221173 -0.15367801
000160 82 2d af be 05 96 bf 3b 19 22 bb 3e 03 73 60 3e
       -0.34214407 0.005846741 0.36549452 0.21918873
000170 17 11 99 be ff 91 e3 bd 9b 1d 3a be 0a 09 25 be
       -0.2989585 -0.11111831 -0.18175356 -0.1611673
000180 15 d4 9c 3d fd 1c eb be a8 22 cc bb 2c 2c 75 bd
       0.07657639 -0.45920554 -0.0062297173 -0.05985658
000190 9e 0f 19 be 7a a0 83 be 92 10 03 3d 40 43 62 3c
       -0.14947364 -0.2570837 0.031998225 0.013809979
0001a0 18 21 55 bd 6c fa da 3d b9 6b a3 be 52 c9 22 be
       -0.052033514 0.106922954 -0.31918123 -0.1589711
0001b0 55 14 ca 3d a0 1e bf bd 49 16 3b 3e fd 1f 5e be
       0.09867159 -0.09332013 0.1827022 -0.2169189
0001c0 28 7f b0 3d 04 7a 67 3e a7 e1 cb 3e b3 6d 42 bd
       0.08618003 0.22605139 0.39820597 -0.0474679
0001d0 66 3a 0a be af 2d c4 bd 40 8c 9c 3e 84 c0 4d be
       -0.1349884 -0.09579026 0.30575752 -0.2009297
0001e0 96 cd 11 be 20 c4 a3 be ad 6b 66 3e a2 c6 05 be
       -0.14238581 -0.3198557 0.22502013 -0.13064054
0001f0 4a 92 87 be 1c bf 9f 3d d2 5d 6d 3d 1a 84 04 3e
       -0.26478797 0.07800123 0.057950802 0.12941018
000200 23 c4 d7 3d 75 46 d4 bd f1 50 a2 bd ae 07 c5 be
       0.10535457 -0.10365001 -0.079255946 -0.38482422
000210 87 ef 99 be 6b c1 09 3d 6b cc f2 be 8e 80 43 3d
       -0.30065557 0.033631723 -0.47421584 0.04773002
000220 b3 ae a1 be bd de 4b be ad cf 71 be 31 bd 23 3d
       -0.31578597 -0.19909187 -0.23614378 0.03997535
000230 27 bf 34 3d 46 d0 53 3d 2a e9 1a 3e f7 ac 12 3c
       0.04412761 0.051712297 0.15128008 0.008952371
000240 50 50 d0 bd 9c 4e 15 3e f7 f1 d1 3c 9d f8 92 3e
       -0.101715684 0.14580768 0.025628073 0.28705302
000250 55 90 b9 be 7f 41 e3 bd 71 bb 93 3e 50 fa 85 be
       -0.3624293 -0.11096477 0.28853944 -0.26167536
000260 c2 fc e5 bd 45 ed 94 be 7c fd 99 3e 65 7d 35 3e
       -0.1122985 -0.29087272 0.30076206 0.17723615
000270 e6 fe 3e 3c 24 64 19 3e 36 a9 7b 3e d8 d1 a7 3e
       0.011657452 0.14979607 0.24576268 0.32777286
000280 fd 91 26 3d 33 4b 91 3d 84 45 cb bd 17 24 04 be
       0.04066657 0.07094421 -0.099253684 -0.12904392
000290 03 31 b4 be f1 f6 1f bf d0 7f 99 be b4 07 5f 3b
       -0.35193643 -0.6248618 -0.29980326 0.003403169
0002a0 bc 12 03 bf 29 e7 d4 be c9 58 70 3e 14 50 27 3d
       -0.5120046 -0.4158261 0.23471369 0.040847853
0002b0 46 21 6e be b5 ed f0 3d 0f 0b 3c 3e e1 c4 5d 3e
       -0.2325488 0.11764089 0.18363594 0.21657135
0002c0 8c 6b 8a 3d b3 31 3b 3e 88 49 df 3d 17 5c 53 3e
       0.06758794 0.18280677 0.10902697 0.20640598
0002d0 61 2d d1 bd c2 38 0a 3e 9e 8d 05 bd 17 85 72 be
       -0.102137335 0.13498214 -0.03260576 -0.23683582
0002e0 40 e7 d2 be f6 ff 4c be 59 b8 a8 bd b2 e3 90 3e
       -0.41192055 -0.20019516 -0.082382865 0.28298718
0002f0 32 f9 2b 3e 8b 1f b1 be d4 ae 82 3d 1d e8 44 be
       0.16794279 -0.34594378 0.06381002 -0.19229169
000300 09 52 57 bc ce 88 a7 bd 82 67 9e 3e d8 ca 55 bd
       -0.013142117 -0.0818039 0.30938345 -0.0521954
000310 76 e0 e7 bd 93 91 9c 3e 62 b5 3f be 74 88 76 be
       -0.113221094 0.30579814 -0.18721536 -0.2407549
000320 20 94 bc be 38 f0 a7 be 8b 2d d1 3d d6 f9 23 be
       -0.3683176 -0.3280046 0.10213765 -0.16013274
000330 02 d5 90 3e a9 bb 88 be d8 e2 07 bf 47 03 83 3e
       0.28287512 -0.26705673 -0.5308051 0.25588438
000340 c3 f8 92 3e 01 53 98 bd b7 f0 ad bc 71 c5 f2 3e
       0.28705415 -0.07437707 -0.021232946 0.4741626
000350 27 1a 93 3e 44 a7 ed 3e 0b 80 41 be 36 bf 0c bd
       0.2873089 0.46416676 -0.18896501 -0.03436204
000360 b2 20 db 3d df a9 a7 3e 4e 17 72 3d f4 9c b6 bc
       0.106995955 0.3274679 0.059104256 -0.022291638
000370 fe 73 cc 3e fa 39 64 bd 62 5a 3e bd d6 f2 12 3e
       0.39932245 -0.055719353 -0.046472915 0.14350447
000380 71 dc a9 3c b7 78 25 3e a0 97 6a be a4 c1 96 be
       0.020734997 0.1615933 -0.22909403 -0.2944461
000390 d4 b3 5f 3c 19 84 20 be cd 2e e0 3e fd d4 59 3e
       0.013653714 -0.15675391 0.43785706 0.21272655
0003a0 20 e8 4f be b7 4f 15 be 18 db 0b 3d da 40 83 be
       -0.20303392 -0.1458119 0.03414449 -0.25635415
0003b0 25 16 b2 be 23 47 8b be db 6e 4e 3d 02 33 a7 3e
       -0.3478252 -0.2720271 0.05039869 0.32656103
0003c0 30 81 18 3e 51 bb 4a be 70 bf 23 3e 4d b9 d1 3d
       0.14893031 -0.19798018 0.15990996 0.102404214
0003d0 7e 5d cf bd 51 78 bf 3e b4 67 fd 3b 81 db a1 3e
       -0.10125254 0.37396482 0.0077333096 0.3161278
0003e0 63 48 05 bd 8c 99 c6 3e 8a 3d e4 be 7b bf a2 be
       -0.032539736 0.38789022 -0.445782 -0.31786713
0003f0 f4 42 08 be a2 ab f9 3d 24 e1 0a bd 3b 5e 0f 3e
       -0.1330679 0.121909395 -0.033906117 0.1400079

linear2.bias f4 [3]
000000 81 4d f2 3d 66 00 38 3d 15 67 b8 bd
       0.11831189 0.044922255 -0.09004036
