ReInforcement/snake/model/model_g184_s72.pth (torch, 17033 bytes, 4 tensors)

linear1.weight f4 [256, 11]
-0.4208699 -0.5594866 0.076552026 0.035055105 -0.2948313 -0.011413166 0.027283764 -0.27095115
0.1964971 0.19824389 -0.2241183 0.04448847 0.18882367 0.14546026 -0.25108066 0.061658885
-0.26794374 0.25349167 -0.2683153 0.30335587 0.3545562 -0.18884899 0.07333604 0.21138911
0.6371377 -0.3820337 0.2839337 0.15362594 -0.3044154 0.3761566 -0.015725251 -0.06508457
0.4222099 0.36578152 -0.72053766 0.52645624 -0.2519053 0.052703027 0.31140068 -0.3247936
9.3632945e-05 -0.09126771 -0.26086435 0.3472021 -0.5678675 0.35234267 -0.13951796 0.23705295
0.25167972 -0.42865166 -0.18325187 -0.124203086 0.4068277 -0.5289369 -0.533555 0.079396315
-0.048416 0.08649205 -0.22403456 -0.011051082 0.08118664 -0.07716192 -0.029344054 -0.0050927848
0.0722973 -0.26318654 -0.21501556 -0.097277656 -0.02652371 -0.052911803 0.1495492 0.042746753
-0.038963407 0.1465423 -0.23832098 -0.0053145583 -0.29903144 0.012341408 -0.26493663 0.07683917
-0.0071306056 -0.123152666 -0.12202585 -0.10557739 0.10540824 0.12687255 0.0036979765 0.043614823
0.074132696 -0.1604625 -0.2405966 0.3257479 -0.42191422 0.13938414 -0.29153565 -0.42670557
-0.27936184 -0.22375624 0.4141959 0.31808156 0.42728364 -0.5157663 -0.1284237 -0.37110132
-0.35614005 -0.035276223 0.1224487 0.26465502 0.27600527 0.23758404 0.13249023 -0.53856444
-0.21445063 -0.12474151 0.35659012 0.18064277 -0.44189376 -0.45619544 0.07532624 0.29654047
-0.1954555 -0.37874964 0.31720343 0.4162249 -0.087556526 0.074800126 0.10030108 -0.037901416
0.11883806 0.020507682 -0.10413783 0.076029405 -0.52799207 0.23860244 0.39609656 -0.5033376
0.17100352 0.06400958 0.16098723 -0.5070413 0.032259688 0.25425118 0.10790351 -0.30647013
0.008463567 0.31156415 0.3406155 -0.11385159 -0.36193335 -0.4026153 0.11620412 -0.277233
-0.0055508655 -0.6228931 -0.35865632 0.22792442 -0.270676 0.06651237 -0.2598447 -0.37748224
-0.3968103 -0.19595294 -0.15935928 0.21271154 0.1253426 -0.17789112 0.10099045 0.035390478
0.29061553 -0.38373318 -0.50423217 0.60001075 0.18423025 -0.8606498 -0.80590355 -0.21159713
-0.41575426 0.51785666 -0.5828404 0.1321676 0.22196497 0.24346271 -0.054839786 -0.050754033
-0.12802415 0.015155238 -0.13907388 -0.24248013 -0.018350052 0.1235638 -0.3323813 0.38029274
-0.16322139 -0.23957105 -0.38943723 -0.19823478 -0.42052224 0.27828428 -0.1264237 -0.17930481
0.17265692 -0.21891509 0.13614543 -0.12383078 -0.12683825 -0.36005887 -0.22786497 0.020685475
-0.34584144 0.33565965 0.47371718 -0.6746913 -0.1573714 -0.03884738 -0.09715055 0.13019624
0.39668855 0.14547142 0.28001508 0.07597375 0.04182797 -0.4585424 0.11824809 0.3024799
0.42844293 -0.4040751 -0.23323363 -0.5195408 -0.62961876 0.38837212 0.09721923 0.58179826
0.16334674 0.070754915 -0.040998578 0.50996345 -0.28664058 0.14978854 0.20767766 -0.25595084
0.46087134 0.063597985 -0.36964315 0.06349729 -0.31802094 -0.15064237 -0.29659304 -0.09366135
0.19285193 -0.101304606 0.11629163 -0.21488263 -0.27142116 -0.68946844 -0.0050486955 0.2032251
00000000: 427c d7be 843a 0fbf 4fc7 9c3d f195 0f3d
00000010: 21f4 96be 4afe 3abc 3382 df3c 1cba 8abe
00000020: 8936 493e 7200 4b3e 457f 65be 8b39 363d
00000030: fe5a 413e 89f3 143e a58d 80be 078e 7c3d
00000040: ec2f 89be a9c9 813e 9f60 89be 7651 9b3e
00000050: 6488 b53e a161 41be 3531 963d 6376 583e
00000060: 751b 233f ec99 c3be c25f 913e 1e50 1d3e
00000070: 56dc 9bbe 9997 c03e 3ed2 80bc 0f4b 85bd
00000080: e52b d83e b747 bb3e 2875 38bf d6c5 063f
00000090: bbf9 80be 21df 573d e96f 9f3e 594b a6be
000000a0: ce5c c438 91ea babd 0390 85be 79c4 b13e
000000b0: c45f 11bf 4266 b43e ccdd 0ebe 02be 723e
000000c0: 2adc 803e 3b78 dbbe 61a6 3bbe 305e febd
000000d0: b84b d03e 6968 07bf 0f97 08bf 899a a23d
000000e0: db4f 46bd be22 b13d 5169 65be 990f 35bc
000000f0: 2e45 a63d 1207 9ebd f162 f0bc 60e1 a6bb
00000100: 9b10 943d 63c0 86be 0a2d 5cbe 8239 c7bd
00000110: 4048 d9bc 0cba 58bd 6d23 193e 3817 2f3d
00000120: 1898 1fbd 2f0f 163e 6a0a 74be bf25 aebb
00000130: a61a 99be 9e33 4a3c c6a5 87be db5d 9d3d
00000140: dba7 e9bb 7737 fcbd b0e8 f9bd f538 d8bd
00000150: 46e0 d73d e1ea 013e c059 723b 75a5 323d
00000160: e2d2 973d 4850 24be f55e 76be 6ec8 a63e
00000170: 2405 d8be b7ba 0e3e 2944 95be 2779 dabe
00000180: 8408 8fbe 5b20 65be 7c11 d43e 96db a23e
00000190: ecc4 da3e 4309 04bf 8181 03be fe00 bebe
000001a0: fd57 b6be cd7d 10bd 62c6 fa3d dd80 873e
000001b0: 9050 8d3e 3b49 733e 85ab 073e 5cdf 09bf
000001c0: f298 5bbe 7a78 ffbd fb92 b63e 6bfa 383e
000001d0: e63f e2be 7392 e9be a544 9a3d 27d4 973e
000001e0: 7d25 48be 79eb c1be 7d68 a23e 6e1b d53e
000001f0: d650 b3bd cf30 993d a76a cd3d 843e 1bbd
00000200: 5e61 f33d baff a73c 3746 d5bd 4eb5 9b3d
00000210: 7d2a 07bf 3354 743e 2bcd ca3e bcda 00bf
00000220: 8c1b 2f3e 7417 833d d6d9 243e 75cd 01bf
00000230: bc22 043d 362d 823e 84fc dc3d a7e9 9cbe
00000240: c6aa 0a3c 5685 9f3e 2865 ae3e 062b e9bd
00000250: 544f b9be 9823 cebe 6dfc ed3d 7cf1 8dbe
00000260: 09e4 b5bb ec75 1fbf cda1 b7be 0565 693e
00000270: 0b96 8abe a337 883d 5d0a 85be 5a45 c1be
00000280: b82a cbbe e3a7 48be 142f 23be 0ed1 593e
00000290: cf59 003e 1729 36be 15d4 ce3d 9bf5 103d
000002a0: 8fcb 943e ad78 c4be 5c15 01bf 4e9a 193f
000002b0: dba6 3c3e 8c53 5cbf b24f 4ebf ebac 58be
000002c0: bedd d4be 4192 043f 0735 15bf f156 073e
000002d0: c94a 633e 4a4e 793e af9f 60bd 76e3 4fbd
000002e0: c318 03be ad4d 783c 6269 0ebe b64c 78be
000002f0: d952 96bc 040f fd3d e22d aabe bbb5 c23e
00000300: 8223 27be 1d52 75be 5164 c7be 0ffe 4abe
00000310: b14e d7be 477b 8e3e 3775 01be ae9b 37be
00000320: facc 303e 472b 60be b569 0b3e fe9a fdbd
00000330: e3e1 01be a359 b8be 6f55 69be 9674 a93c
00000340: 2112 b1be 95db ab3e 0f8b f23e 92b8 2cbf
00000350: f825 21be 6e1e 1fbd def6 c6bd 2a52 053e
00000360: c31a cb3e 76f6 143e 235e 8f3e 2098 9b3d
00000370: ce53 2b3d 12c6 eabe 0e2c f23d a5de 9a3e
00000380: df5c db3e eee2 cebe ccd4 6ebe a000 05bf
00000390: b22e 21bf b6d8 c63e e01a c73d bbf0 143f
000003a0: 5e44 273e f4e7 903d 20ee 27bd f78c 023f
000003b0: 8ec2 92be 2b62 193e 74a9 543e fd0b 83be
000003c0: 54f7 eb3e a93f 823d de41 bdbe de0a 823d
000003d0: a4d3 a2be fe41 1abe 0bdb 97be 86d1 bfbd
000003e0: fa7a 453e ca78 cfbd 4e2a ee3d 310a 5cbe
000003f0: b7f7 8abe 0181 30bf 876f a5bb 3e1a 503e

linear1.bias f4 [256]
-0.24908027 -0.1452476 -0.19639757 -0.26814443 0.15825917 -0.37150964 -0.3121533 -0.25708276
-0.1499121 -0.099188976 0.18927853 -0.13356435 0.2860513 -0.19749479 -0.23446162 0.15281132
0.5235032 -0.19206987 0.073355086 -0.23605469 -0.053571112 -0.25097552 -0.03184148 -0.17447703
-0.20931588 -0.06023603 0.67430216 -0.1798651 -0.38990772 -0.15260094 -0.3105111 0.05066033
-0.16032876 -0.1551366 -0.21897458 0.12296221 -0.36270294 0.13757676 0.5013834 -0.17648749
0.16965568 -0.3094514 -0.1384439 -0.262581 0.12988818 0.13981673 -0.3222417 0.2481374
0.27842787 -0.20752534 -0.16354296 -0.27779502 -0.18432924 -0.102618665 -0.40056768 0.05453875
-0.41113347 -0.2153348 0.103655115 0.08196971 0.020655947 0.35962993 -0.15797801 0.2735431
-0.20954745 -0.119471595 0.1882265 -0.25405136 -0.031967707 -0.08360772 -0.0636801 -0.42453647
0.2276766 0.5252177 -0.20206392 -0.34966508 0.24854848 0.049277715 -0.33834583 0.052404728
-0.27016664 -0.14562759 -0.17246214 -0.046939917 -0.17537574 -0.13037084 -0.30189094 -0.3364325
0.010319209 -0.19935796 0.30255353 0.48116577 0.038838055 -0.26708078 -0.27555162 -0.1622309
0.04787247 0.0240818 -0.029691143 -0.2806542 -0.2710804 -0.07040117 -0.20922494 -0.1901556
-0.10133357 -0.036522932 -0.054843996 0.0987547 0.8060951 -0.17580508 0.07825492 -0.33529553
0.21118417 0.27015945 -0.13395199 -0.25235873 -0.17011717 -0.1854485 -0.11833909 -0.15992689
-0.059181765 -0.11758736 0.25383624 -0.09650583 -0.21689591 -0.15320094 -0.4031788 0.12791419
-0.4377945 -0.17763148 -0.034779735 0.07047236 -0.24046497 -0.021834444 -0.045273755 -0.119498804
-0.01779823 -0.26240313 -0.06724889 0.12863493 0.029000273 -0.1104181 -0.10410612 -0.3259734
0.08488051 -0.05967369 0.01374171 0.21124986 -0.18592748 0.04831901 0.31727868 -0.15339829
-0.4419362 -0.31566995 -0.14552446 0.10644868 -0.13647084 0.9527092 -0.103724614 0.24509673
0.08895553 -0.3078374 -0.3916191 0.012312943 -0.09268547 -0.028225517 -0.48830345 0.1554235
-0.1486757 -0.3095666 0.22389624 0.06550148 -0.4036973 -0.13174607 0.17703298 0.30717954
-0.1830215 0.16502067 0.2383117 0.3120212 -0.012882835 0.29230583 -0.33749977 -0.17501396
0.02180678 -0.041275147 -0.2923786 -0.19256985 0.13476571 -0.03773577 0.18319957 -0.29641655
-0.37463546 -0.33222812 0.34935895 -0.29894423 -0.11131375 0.5921407 -0.2594314 -0.101322964
-0.18605487 -0.3719738 0.0521834 -0.27885926 0.06654706 0.063388474 -0.113274865 0.021839814
0.09756522 -0.3866652 -0.06293907 0.061434958 -0.10224341 0.22312315 -0.52509534 -0.027969249
-0.17429358 -0.032265846 0.09793948 -0.25023952 0.383937 -0.38531154 -0.37187034 0.5228807
-0.050229233 -0.050692193 -0.15612699 -0.1431781 -0.20068794 -0.34345832 0.044134226 0.1975671
-0.33458793 0.048866633 -0.059332564 0.1381026 -0.31027597 -0.26336515 0.19861493 0.13447535
0.24426122 -0.34933424 0.20355128 -0.10975507 0.058784917 0.3340554 -0.03150517 -0.053713877
-0.31995386 0.043307465 -0.2313778 -0.51097333 -0.13479127 -0.18277787 -0.2936128 -0.18891785
00000000: e60e 7fbe c9bb 14be 721c 49be 3a4a 89be
00000010: b10e 223e 8336 bebe 8fd2 9fbe 5aa0 83be
00000020: 8f82 19be 9723 cbbd 3bd2 413e 18c5 08be
00000030: 5175 923e 133c 4abe b516 70be 927a 1c3e
00000040: 4e04 063f f7ad 44be 313b 963d 52b8 71be
00000050: 626d 5bbd dd7f 80be 366c 02bd 1baa 32be
00000060: e756 56be 0eba 76bd 119f 2c3f 8f2e 38be
00000070: fca1 c7be 6c43 1cbe 50fb 9ebe 3581 4f3d
00000080: 392d 24be 21dc 1ebe df3a 60be 9cd3 fb3d
00000090: 33b4 b9be ece0 0c3e aa5a 003f 23b9 34be
000000a0: 38ba 2d3e 6a70 9ebe 3dc4 0dbe 0471 86be
000000b0: 6801 053e 1e2c 0f3e ddfc a4be bb17 7e3e
000000c0: 198e 8e3e 8681 54be ce77 27be 263b 8ebe
000000d0: cec0 3cbe bc29 d2bd 3517 cdbe 0664 5f3d
000000e0: 1680 d2be ba80 5cbe 2249 d43d bcdf a73d
000000f0: a936 a93c 6a21 b83e fdc4 21be d70d 8c3e
00000100: 9b93 56be 86ad f4bd 73be 403e 0513 82be
00000110: 92f0 02bd 863a abbd b66a 82bd d85c d9be
00000120: 0e24 693e ab74 063f d8e9 4ebe 4d07 b3be
00000130: 7e83 7e3e 6ed7 493d aa3b adbe 57a6 563d
00000140: 4853 8abe 661f 15be ea99 30be 1244 40bd
00000150: b395 33be ef7f 05be 7391 9abe e140 acbe
00000160: e611 293c 7e24 4cbe 4ce8 9a3e 5c5b f63e
00000170: a714 1f3d d0be 88be 1a15 8dbe db1f 26be
00000180: ec15 443d 3247 c53c d73a f3bc e8b1 8fbe
00000190: 0dcb 8abe 7d2e 90bd 103f 56be 26b8 42be
000001a0: fa87 cfbd 1299 15bd 19a4 60bd e73f ca3d
000001b0: 405c 4e3f 3f06 34be 1e44 a03d dbab abbe
000001c0: aa40 583e 5752 8a3e b62a 09be 2a35 81be
000001d0: 3233 2ebe 36e6 3dbe c45b f2bd e0c3 23be
000001e0: 9468 72bd a4d1 f0bd d3f6 813e d9a4 c5bd
000001f0: f619 5ebe b5e0 1cbe 746d cebe f0fb 023e
00000200: 9a26 e0be 07e5 35be 3275 0ebd d053 903d
00000210: 733c 76be 26de b2bc f970 39bd cabb f4bd
00000220: 98cd 91bc b459 86be c9b9 89bd e0b8 033e
00000230: fb91 ed3c e322 e2bd 9735 d5bd fce5 a6be
00000240: d5d5 ad3d 666c 74bd e924 613c e251 583e
00000250: c663 3ebe 27ea 453d 5a72 a23e 7114 1dbe
00000260: 7645 e2be 7e9f a1be 5d04 15be c401 da3d
00000270: 03bf 0bbe c0e4 733f 926d d4bd a3fa 7a3e
00000280: 512e b63d dd9c 9dbe 4c82 c8be 3abc 493c
00000290: e1d1 bdbd 3339 e7bc e902 fabe 5727 1f3e
000002a0: 713e 18be 837f 9ebe 0e45 653e a425 863d
000002b0: 6ab1 cebe 71e8 06be 2248 353e a346 9d3e
000002c0: fd69 3bbe 2efb 283e fb07 743e 3ec1 9f3e
000002d0: 8712 53bc 1ca9 953e c5cc acbe dc36 33be
000002e0: 22a4 b23c 2110 29bd a6b2 95be 0831 45be
000002f0: 0600 0a3e d390 1abd ab98 3b3e e9c3 97be
00000300: 38d0 bfbe ce19 aabe 2ddf b23e 380f 99be
00000310: 77f8 e3bd 8896 173f 31d4 84be 6a82 cfbd
00000320: 2b85 3ebe 5a73 bebe 43be 553d a4c6 8ebe
00000330: d349 883d d1d1 813d a7fc e7bd 69e9 b23c
00000340: 46d0 c73d fbf8 c5be 33e6 80bd 39a3 7b3d
00000350: fe64 d1bd 657a 643e a66c 06bf c41f e5bc
00000360: 047a 32be 3129 04bd 7e94 c83d 651f 80be
00000370: 6493 c43e 8e47 c5be ca65 bebe 82db 053f
00000380: 2bbd 4dbd 9ea2 4fbd c1df 1fbe 489d 12be
00000390: 2481 4dbe c5d9 afbe 17c6 343d 084f 4a3e
000003a0: 1c4f abbe 6128 483d b406 73bd c56a 0d3e
000003b0: 7edc 9ebe ccd7 86be b661 4b3e e8b3 093e
000003c0: 9d1f 7a3e f0db b2be bf6f 503e 44c7 e0bd
000003d0: 74c8 703d 4f09 ab3e 910b 01bd 1503 5cbd
000003e0: fed0 a3be 2b63 313d 4dee 6cbe 26cf 02bf
000003f0: b906 0abe 1f2a 3bbe 6b54 96be ae73 41be

linear2.weight f4 [3, 256]
0.022285108 -0.0846992 -0.27318436 -0.22701575 0.24531426 0.019949548 0.005299516 0.0039863368
-0.15945557 -0.036453772 0.22672884 -0.018447127 0.23205963 0.19182037 -0.1066099 0.5195521
0.17161219 0.04690182 -0.14623344 -0.106397316 -0.24318774 -0.39570788 0.044907846 0.045928527
-0.047472186 0.014630911 0.28277087 -0.20044485 0.0641072 -0.09216503 -0.39270306 0.5245247
-0.2366478 -0.23253632 -0.08704869 0.02315273 0.027341774 -0.045935128 0.52716947 0.04846371
0.09430947 -0.1256741 -0.41409072 -0.14209491 0.50880754 -0.35886848 -0.021822628 0.35994247
0.42502254 -0.15375505 -0.21792433 -0.0934344 0.25748333 -0.31488568 0.02406444 0.27872834
0.0038952946 -0.15939075 0.14278615 0.18711914 0.50815225 0.23205715 -0.012849338 0.6153178
0.014959695 -0.46339408 0.367619 -0.33518586 0.07390256 -0.13121575 -0.08126778 -0.10997382
0.24468446 0.41430685 -0.057811614 -0.17979883 0.13396354 0.20061737 -0.27494282 0.011073309
0.09253647 -0.33184576 -0.08097085 -0.32353356 -0.017196357 -0.17092127 -0.10681423 -0.14382164
-0.23119679 0.020743558 0.4715239 0.28456455 -0.56278765 -0.0866855 -0.021834739 -0.08069469
0.19129117 -0.53171986 -0.037765253 -0.05985658 -0.015467945 -0.46048182 0.031998225 0.09309911
-0.026028885 0.13727605 0.01382343 -0.4431282 0.19122496 -0.065302715 0.18160306 -0.06349141
0.0837362 0.23989977 0.48787078 -0.03438879 0.0007332999 -0.19977574 0.4009189 -0.092474766
-0.32343066 -0.27323624 0.25686967 0.047677193 -0.06512308 0.22327317 0.017410995 0.283769
0.10535457 -0.0010465571 0.010354127 -0.36592013 -0.4315093 0.09441136 -0.31698447 0.06615219
-0.3947271 -0.071620256 -0.283126 0.04741683 0.10756511 0.0001899991 0.08283612 0.008952371
-0.16301276 0.24994804 0.029889885 0.3799006 -0.3953943 -0.17473996 0.33724314 -0.28950357
-0.005417918 -0.26154992 0.2948561 0.18869984 0.014661807 0.23946723 0.2912068 0.5229662
0.05243752 0.07094421 -0.030220497 0.036651284 -0.2564906 -0.66723984 -0.2957475 0.0807083
-0.5073429 -0.28240663 0.2526339 0.10819266 -0.19010797 0.12403761 0.20820414 0.18675117
0.21742213 0.23042093 0.12541951 0.17929846 -0.024462907 0.15324128 -0.112132475 -0.1779912
-0.42632106 -0.29154038 -0.068662785 0.41062942 0.16817091 -0.42783386 0.2256882 -0.061563455
-0.013142117 -0.0190595 0.31441283 -0.0521954 -0.29138282 0.34976 -0.17178893 -0.27927402
-0.24013616 -0.005448557 0.11509126 -0.10446192 0.44016513 -0.2940547 -0.4531635 0.22937593
0.32737282 0.010370713 -0.19547522 0.5000197 0.32020807 0.6134123 -0.14379992 0.022894233
0.048596382 0.3676829 0.04892986 -0.022291638 0.44615763 -0.025818394 -0.046472915 0.12193568
0.0034931647 0.15054879 -0.16587171 -0.28573516 -0.024434563 -0.03916667 0.4438891 0.29770952
-0.12933926 -0.03784734 2.516032e-05 -0.32665783 -0.31318015 -0.3676667 0.008868117 0.31775826
0.15818487 -0.19956939 0.09243387 0.067206234 -0.040789463 0.37674156 0.015420583 0.34497148
0.035049304 0.440936 -0.26478893 -0.27408305 0.005925738 0.24858499 -0.0024692968 0.07140486
00000000: 428f b63c c676 adbd d2de 8bbe d176 68be
00000010: a933 7b3e 3c6d a33c 90a7 ad3b d19f 823b
00000020: 5248 23be 8d50 15bd 9b2b 683e 6e1e 97bc
00000030: 0aa1 6d3e 8f6c 443e 4b56 dabd 5e01 053f
00000040: 1bbb 2f3e 1f1c 403d 38be 15be d6e6 d9bd
00000050: 3506 79be 399a cabe 4af1 373d 8d1f 3c3d
00000060: 3272 42bd 7db6 6f3c 58c7 903e 6a41 4dbe
00000070: a34a 833d 05c1 bcbd 6010 c9be 4047 063f
00000080: cd53 72be 001e 6ebe 9546 b2bd cbaa bd3c
00000090: dbfb df3c 7926 3cbd 94f4 063f e281 463d
000000a0: 5325 c13d b6b0 00be b303 d4be 5481 11be
000000b0: 3641 023f 9cbd b7be 5ec5 b2bc 614a b83e
000000c0: 8e9c d93e f771 1dbe 8e27 5fbe 895a bfbd
000000d0: dbd4 833e b238 a1be ca22 c53c 7bb5 8e3e
000000e0: 3348 7f3b 5437 23be 8836 123e 299c 3f3e
000000f0: 4416 023f 64a0 6d3e 0886 52bc 7885 1d3f
00000100: 8219 753c fd41 edbe 8f38 bc3e 7b9d abbe
00000110: 3a5a 973d 6c5d 06be b96f a6bd f439 e1bd
00000120: 908e 7a3e 0720 d43e dfcb 6cbd 2f1d 38be
00000130: bd2d 093e a46e 4d3e 4ec5 8cbe d36c 353c
00000140: c383 bd3d b0e7 a9be 0cd4 a5bd 31a6 a5be
00000150: 60df 8cbc fc05 2fbe 6bc1 dabd fb45 13be
00000160: dabe 6cbe 65ee a93c 956b f13e 72b2 913e
00000170: da12 10bf 2b88 b1bd c4de b2bc 4243 a5bd
00000180: d5e1 433e cb1e 08bf bdaf 1abd 2c2c 75bd
00000190: 436d 7dbc 46c4 ebbe 9210 033d bfaa be3d
000001a0: 873a d5bc 1892 0c3e ab7b 623c b3e1 e2be
000001b0: 7ad0 433e 6ebd 85bd 27f6 393e c907 82bd
000001c0: e37d ab3d 49a8 753e 33ca f93e 43db 0cbd
000001d0: ec3a 403a 0392 4cbe 3e45 cd3e 6963 bdbd
000001e0: b498 a5be 9fe5 8bbe 6c84 833e 2949 433d
000001f0: 405f 85bd b9a1 643e 81a1 8e3c 2c4a 913e
00000200: 23c4 d73d a12c 89ba 5ba4 293c e259 bbbe
00000210: c9ee dcbe be5a c13d ca4b a2be cd7a 873d
00000220: ac19 cabe a4ad 92bd e4f5 90be 2638 423d
00000230: 194b dc3d 7f3a 4739 fca5 a93d f7ac 123c
00000240: d1ec 26be 61f2 7f3e a2db f43c 5582 c23e
00000250: 1f71 cabe 08ef 32be 22ab ac3e d039 94be
00000260: ca88 b1bb dfe9 85be 61f7 963e 883a 413e
00000270: 1338 703c e636 753e 0f19 953e 1de1 053f
00000280: bac8 563d 334b 913d fa90 f7bc a81f 163d
00000290: bc52 83be 3bd0 2abf 376c 97be 654a a53d
000002a0: 39e1 01bf 9a97 90be 3b59 813e 1d94 dd3d
000002b0: aaab 42be 6e07 fe3d 7733 553e b33b 3f3e
000002c0: e8a3 5e3e 77f3 6b3e f96d 003e 049a 373e
000002d0: 6f66 c8bc 48eb 1c3e b6a5 e5bd 5343 36be
000002e0: c146 dabe c844 95be 139f 8cbd 053e d23e
000002f0: ff34 2c3e 0a0d dbbe cf1a 673e f629 7cbd
00000300: 0952 57bc ab22 9cbc b8fa a03e d8ca 55bd
00000310: 2130 95be be13 b33e 70e9 2fbe 01fd 8ebe
00000320: 41e6 75be cf89 b2bb f7b4 eb3d 22f0 d5bd
00000330: 535d e13e 568e 96be 0c05 e8be 86e1 6a3e
00000340: 699d a73e ece9 293c a82a 48be 4b01 003f
00000350: 50f2 a33e 9708 1d3f 4940 13be b08c bb3c
00000360: 000d 473d ef40 bc3e ad6a 483d f49c b6bc
00000370: c66e e43e 1981 d3bc 625a 3ebd 6ab9 f93d
00000380: 94ed 643b 7629 1a3e 46da 29be e14b 92be
00000390: fe2a c8bc 3b6d 20bd 6f45 e33e 626d 983e
000003a0: 8371 04be d005 1bbd 600f d337 b23f a7be
000003b0: 2659 a0be cf3e bcbe 944b 113c 36b1 a23e
000003c0: 37fb 213e eb5b 4cbe f84d bd3d 6ca3 893d
000003d0: da12 27bd 45e4 c03e 9da6 7c3c 1aa0 b03e
000003e0: dc8f 0f3d 5dc2 e13e 6a92 87be 9d54 8cbe
000003f0: b12c c23b 108d 7e3e edd3 21bb b63c 923d

linear2.bias f4 [3]
0.26601177 0.13457328 0.029365556
00000000: b232 883e 94cd 093e 0990 f03c
