ReInforcement/snake/model/model_g466_s73.pth (torch, 17033 bytes, 4 tensors)

linear1.weight f4 [256, 11]
00000000: 427c d7be 843a 0fbf b8b4 023e 70b5 3ebd
00000010: 8df0 aabe 56fb 3fbe f470 32bc 1cba 8abe
00000020: 8e1c c73d 6e25 123e 457f 65be 3032 4a3d
00000030: abd8 fc3d 35a8 a2be dc9b 3dbe 178a 27be
00000040: 770a 48be 2dd7 a83e 3b2c d4be 514b e6be
00000050: 6e12 b83e d3e7 a7be 0e4d 4d3e 63e4 c73e
00000060: 1c26 503f d604 fdbe ffd4 1d3e 95a8 0b3e
00000070: 34c0 dcbe 8531 013f 9794 d8be 1a3a 2fbe
00000080: af79 ce3e bbaf 053f 2c6e 65bf 085b bb3e
00000090: f329 22bd 5a25 f23d 5f83 9f3e 46df d5be
000000a0: 08c8 f83d 56ac d2be 4497 52be 6dd9 f73e
000000b0: 110f 32bf 1360 493f 1598 c0be 37fd 883e
000000c0: c2f6 b63e 2b8d b5bf ed13 3cbf a8b6 5ebe
000000d0: cb09 053f 276d 37bf f87d 25bf 899a a23d
000000e0: db4f 46bd be22 b13d 5169 65be 990f 35bc
000000f0: 2e45 a63d 1207 9ebd f162 f0bc 60e1 a6bb
00000100: 9b10 943d 63c0 86be 0a2d 5cbe 8239 c7bd
00000110: 4048 d9bc 0cba 58bd 6d23 193e 3817 2f3d
00000120: 1898 1fbd 2f0f 163e 6a0a 74be bf25 aebb
00000130: a61a 99be 9e33 4a3c c6a5 87be db5d 9d3d
00000140: dba7 e9bb 7737 fcbd b0e8 f9bd f538 d8bd
00000150: 46e0 d73d e1ea 013e c059 723b 75a5 323d
00000160: 848b 9b3d 8596 693d 0a11 6bbe 9342 d23e
00000170: 24a8 f1be 2915 5c3e 0975 c2be 359b 26bf
00000180: 29ff bfbe d9b7 a1be 72ba f13e 542a ca3e
00000190: 7a07 943e 24df 2dbf a696 79be 7a21 dabe
000001a0: 0a03 11bc a897 1bbe f484 71bd 3dc1 193e
000001b0: 87f7 3f3d 1745 953e 6110 983d ffa8 13bf
000001c0: b3e3 f3bb d878 8abe e2f8 f73e 2a71 343e
000001d0: 6dd1 2bbf 1e78 0dbf 184c f2bd f68d 483e
000001e0: f0c3 fcbe 52f2 c9be 523c b93d 5ee5 2b3e
000001f0: 4be4 7cbe 1fe2 58bd cdac 2d3d 9f76 5abe
00000200: 3230 43bd e80e 1cbe a33d 6fbe 1ea7 56bd
00000210: e8ed 68bf ba05 953e 5763 c33e be5f 04bf
00000220: c996 4b3e 9441 ccbd 3372 c03c dc65 0fbf
00000230: 8844 13bd e7a9 883c e1e8 7fbd 8a16 25bf
00000240: 9b35 723e 9ef6 c23e bffb a53e 2d1f 07be
00000250: 3919 e9be 4eb6 f6be 1ec7 d63c eee1 d6be
00000260: 3b8b 663d c8b3 4fbf 140d d5be b596 b73e
00000270: d355 353d 71f9 973d 4749 e6be b721 99be
00000280: aa56 80be 78bc d0be 17c6 1abf 7579 a23e
00000290: 62ed 9c3d e581 abbe 4379 123e ffc6 303c
000002a0: 681d 853e 85c2 13bf 9a0d 1fbf 918f 433f
000002b0: 3222 483e 967c 8fbf 7afe 88bf 0da1 90be
000002c0: f802 b8be 8e98 143f c2c7 02bf 6644 533c
000002d0: a96f 333e 0901 d63d 3cc5 e2bd cdd0 4ebe
000002e0: e96c 1fbe 4181 8bbe 2585 87be 8738 7fbe
000002f0: 857f f23d e750 823d dc0c acbe 8a3d cd3e
00000300: 75c2 c43e aba0 9dbe 88c8 6ebf 27f3 48bf
00000310: 868b d2be f440 9b3e e660 b5be ae15 0fbe
00000320: 1804 383e ae6c bcbe 4ad8 bf3e 3389 c2be
00000330: 7c25 ee3e 9c45 49bf 83c8 07bf 9297 543e
00000340: df67 19bf 1a3e d53e 731e 333f 172a 39bf
00000350: 3f4d 52be f89c 74be 79ac 89bd 5271 523e
00000360: d019 ad3e 1eb7 593e d597 993e 4450 0cbd
00000370: c157 7f3e 30fc 17bf 991e 943c 2441 953e
00000380: 0baf 0a3f 83fb 08bf c5b2 88bd 5328 66bf
00000390: 1348 33bf 4b3c 013f 9049 8c3c 05b1 1c3f
000003a0: 26d3 133d 418d b63d b9a6 37be 2b60 0c3f
000003b0: ce0c aebe d477 1a3e 0b04 b33e 2d05 ebbe
000003c0: 6d97 093f 8f5f a8bd de41 bdbe aa75 923d
000003d0: 1f25 adbe ac68 2bbe 0bdb 97be 763b 24be
000003e0: a573 7f3d 1480 61be 4aaf 153b 9438 bfbe
000003f0: 8662 a8be 9aa1 3ebf 3a4b c7bc 2451 053e
-0.4208699 -0.5594866 0.12764251 -0.04655975 -0.3338665 -0.18748221 -0.010891188 -0.27095115
0.09722243 0.14272091 -0.2241183 0.04936427 0.12346014 -0.31768957 -0.18516487 -0.16361271
-0.19535242 0.32976666 -0.41439995 -0.44979337 0.3595156 -0.32794055 0.20048925 0.39041433
0.8130815 -0.49417752 0.15413283 0.13638528 -0.4311539 0.50466186 -0.42300865 -0.17112008
0.40327212 0.5222127 -0.89621234 0.3659289 -0.039590787 0.118235305 0.31154916 -0.41771907
0.12147528 -0.41147107 -0.20565516 0.4840807 -0.6955424 0.7866222 -0.3761603 0.26755688
0.35735136 -1.4183706 -0.73467904 -0.21749365 0.5196807 -0.7165093 -0.6464534 0.079396315
-0.048416 0.08649205 -0.22403456 -0.011051082 0.08118664 -0.07716192 -0.029344054 -0.0050927848
0.0722973 -0.26318654 -0.21501556 -0.097277656 -0.02652371 -0.052911803 0.1495492 0.042746753
-0.038963407 0.1465423 -0.23832098 -0.0053145583 -0.29903144 0.012341408 -0.26493663 0.07683917
-0.0071306056 -0.123152666 -0.12202585 -0.10557739 0.10540824 0.12687255 0.0036979765 0.043614823
0.0759497 0.057028312 -0.22955719 0.41066417 -0.47198594 0.21492447 -0.37979916 -0.6508058
-0.3749936 -0.31585577 0.4721256 0.3948542 0.28911954 -0.6791861 -0.24373874 -0.42603666
-0.008850822 -0.15194571 -0.058964685 0.15015121 0.04686692 0.29154274 0.07424999 -0.5767974
-0.0074429153 -0.2704532 0.4843207 0.17621294 -0.67116433 -0.5526141 -0.1183092 0.19585404
-0.49368238 -0.39442688 0.09044708 0.16786715 -0.24696462 -0.05295002 0.042401124 -0.21334313
-0.047653385 -0.15240061 -0.23363356 -0.05240547 -0.90988016 0.29105932 0.38161728 -0.5170859
0.19881739 -0.099734455 0.023491954 -0.560148 -0.03595403 0.016682578 -0.06247795 -0.64487517
0.23653261 0.3807878 0.3241863 -0.13195486 -0.45527056 -0.48185962 0.026217993 -0.41969246
0.056285124 -0.811337 -0.4161154 0.35857168 0.0442713 0.07420624 -0.4497778 -0.29908535
-0.2506612 -0.4076879 -0.6045851 0.3173329 0.07662465 -0.3349754 0.1430407 0.010789632
0.25998998 -0.5771869 -0.6213013 0.7639094 0.19544294 -1.1209896 -1.070266 -0.28247872
-0.35939765 0.5804528 -0.51086056 0.012894725 0.17523064 0.10449416 -0.11072776 -0.20196839
-0.1556889 -0.2724705 -0.2646877 -0.24923907 0.11840729 0.06363087 -0.3360356 0.40086013
0.3842961 -0.30786642 -0.93274736 -0.7849602 -0.41122073 0.30322993 -0.3542549 -0.13973114
0.17970312 -0.36801666 0.37469703 -0.379953 0.46512973 -0.7862184 -0.5304033 0.20760944
-0.5992412 0.41648942 0.69968337 -0.7232985 -0.2053728 -0.23888004 -0.0672235 0.20551041
0.33808756 0.2126126 0.2999865 -0.034256235 0.24935819 -0.5936918 0.018080996 0.2915126
0.54173344 -0.53508776 -0.066747226 -0.8990528 -0.7003185 0.50482625 0.017124921 0.6120761
0.03609004 0.08913661 -0.17934693 0.5483424 -0.33994144 0.15084773 0.34964022 -0.45902386
0.5374668 -0.08221351 -0.36964315 0.07151349 -0.33817384 -0.16739148 -0.29659304 -0.16038308
0.062366147 -0.22021514 0.0022840076 -0.37347853 -0.32887667 -0.74465334 -0.024327863 0.13019234

linear1.bias f4 [256]
00000000: d436 b8be 44e4 65be 7af3 cebe 59c8 d2be
00000010: d59e 8b3e 8336 bebe 8fd2 9fbe 5aa0 83be
00000020: 209f 2fbe 948f c7be 359a 8c3e 9116 ecbe
00000030: 2d36 893e 8c04 21be 5657 b5be 8a4b a13e
00000040: f06e fe3e 0121 59be f04b a13d 3331 83be
00000050: 5a6d 81bc bcd6 a9be 88e4 2ebe dc35 b2be
00000060: 55a2 f2be ac3d 84be 6fcd 763f cfc3 b0be
00000070: 0cc9 06bf c42e e1be ad09 f0be b8d3 0a3e
00000080: 8122 45be b2ba a7bd 0994 06bf 10dc c73d
00000090: 3f23 02bf 1e41 c23d de7c 353f 21ce 9abe
000000a0: 9848 183e 6a70 9ebe 4416 cbbd 2079 10bf
000000b0: 6029 a23d 65cd 543d ddfc a4be 8cb0 ca3e
000000c0: 1cbb 923e 49d4 02be 4170 2abe 2263 01bf
000000d0: 7ffb 7abe a492 34be fed7 b0be 1b20 1b3e
000000e0: 1680 d2be b67f 06bf bacd 58be 80f4 02be
000000f0: a64f 8f3c 71d1 bc3e fdc4 21be f048 eb3e
00000100: c244 cabe 11bc 74be 2bac 8c3e 726e 98be
00000110: 7893 d5bc b095 4fbe dbb7 1abe b198 16bf
00000120: d5a7 cb3e 6d3e 1b3f 0eee c1be cfe8 11bf
00000130: 5843 683e b9b3 bcbd 6c52 febe 7a4e 0dbd
00000140: 6bbd edbe 1523 36be cfdc 03bf 87e9 4f3c
00000150: 4c5c d0be 1ebf 64be 0e77 15bf 0dd5 c5be
00000160: 6375 8d3d 6496 c2be 6638 a03e ea33 113f
00000170: 7dfd 4dbd ed4b 11bf 35b9 00bf b3fb 35be
00000180: 1674 f33d e3e8 e5bd 7fb1 bfbd e8b1 8fbe
00000190: 93b0 8cbe 19de fcbd 103f 56be c2cb 15be
000001a0: 8ac4 76be 3174 a5bd c6ce 40bc b59a 9b3c
000001b0: ce94 823f 7584 85be 75d6 f2bd fdaa d4be
000001c0: 3ccb 8e3e bfe3 bcbb 1ef6 80be 489f fabe
000001d0: 5aac 9cbe 5208 75be cc05 29be 173a 85be
000001e0: 962e 6bbe a21b 5cbe 77cd 2c3e 7ce3 d9be
000001f0: 9801 f4be 2f2e acbe 746d cebe 6eb6 403e
00000200: 9a26 e0be afc9 acbe 4506 a7be 4adf 6abd
00000210: 9fe2 92be e770 28be 68be c6bd 4f77 02be
00000220: 85bd 19bd ea85 d3be 648d 46be 171f 983d
00000230: 9c67 26bc 51ab b8be 60d3 20be fce5 a6be
00000240: b14d 543e d39d 40bb ce5e c3be 042b 933e
00000250: adc5 5abe e44d 623b cf7d ce3e 2dcb a9be
00000260: 3234 06bf b6a3 fbbe bf28 0ebe 24a3 483e
00000270: b42e 83be b0bb a13f 2458 cfbd c276 bc3e
00000280: dbe0 aabd dd9c 9dbe ed46 1fbf 3ff8 02be
00000290: 7a86 46bd 88ea a4bd 2acc 1dbf 5366 b2bd
000002a0: 1147 92be fbcc e9be 3257 793d 973e 3d3d
000002b0: 60f1 04bf ecbc d1be 544a ae3d d149 af3e
000002c0: f768 5cbe 5aa9 3c3e 507d 9b3d 043c 2fbc
000002d0: 417e b5bd e536 983d 0756 0dbf 4eb3 2cbe
000002e0: cd7e 003c f3f8 1fbe bf4f 10bf b958 89be
000002f0: 1e3f 21be e0b5 38be 8940 813e 854c 25bf
00000300: 38d0 bfbe 9080 cbbe 7ddf cb3e 380f 99be
00000310: dc84 1ebe 69c2 573f 67d2 e4be 4e17 04be
00000320: f368 e6be 5328 15bf 4a06 533e 7c99 1fbf
00000330: ec43 353e c0a4 6b3c 87ad 1fbe 1b07 2dbe
00000340: 0e96 063e 11c9 debe d976 e4be f5b8 033e
00000350: 3f6b c7bd 50e1 833e a890 4fbf bab2 1abd
00000360: 283e dfbe 12f0 9c3a f9e1 e7bb 651f 80be
00000370: 47f5 063f 72d7 fabe ca65 bebe 6e23 4f3e
00000380: 6800 9bbe 9e75 bebe 0aa8 e0be d7fb 5bbe
00000390: fadf e9bd 51d2 21bf b322 0f3e 77f6 1e3e
000003a0: 3d60 f3be a54d 91bd b406 73bd 7b6e c23d
000003b0: b6b8 febe 3580 69be 0b7f 193e ba59 043e
000003c0: 0caa 773e b436 fdbe 0651 203e 159b 33be
000003d0: 0e17 40bd 9fbb f33e dd38 7abe ad02 65be
000003e0: 1ae4 d4be 5ec2 ff3c 9497 e4be 5016 28bf
000003f0: 6594 9dbe df11 17be 6b54 96be 6bdd 0fbf
-0.3597933 -0.22450358 -0.40420133 -0.41168478 0.27269617 -0.37150964 -0.3121533 -0.25708276
-0.17150545 -0.3897673 0.274614 -0.46110967 0.26799145 -0.15724391 -0.35418195 0.31502944
0.49694014 -0.21203996 0.07875812 -0.25623474 -0.015799213 -0.33171642 -0.17079365 -0.34806716
-0.47389475 -0.25828302 0.96407217 -0.3452439 -0.52650523 -0.43980992 -0.46882382 0.13557327
-0.19251443 -0.08189906 -0.52569634 0.097587705 -0.5083503 0.09485076 0.7089366 -0.3023539
0.14871442 -0.3094514 -0.09916356 -0.5643482 0.07918048 0.051953692 -0.3222417 0.3958782
0.28658378 -0.12776293 -0.16644384 -0.5054189 -0.2451 -0.17634064 -0.3453979 0.15148966
-0.41113347 -0.5253862 -0.21172228 -0.12788582 0.017494034 0.3687854 -0.15797801 0.45954084
-0.39505583 -0.23899867 0.27475104 -0.29771763 -0.026071295 -0.20271945 -0.15109198 -0.5882674
0.39776483 0.6064213 -0.37876934 -0.5699586 0.2268194 -0.09213967 -0.49672258 -0.03449867
-0.46433577 -0.1778682 -0.515088 0.012689955 -0.40695417 -0.2233853 -0.5838479 -0.38639107
0.06907155 -0.38005364 0.3129303 0.5671984 -0.050290573 -0.5675648 -0.50282604 -0.17771797
0.11887376 -0.1122606 -0.093600266 -0.2806542 -0.27478465 -0.12347049 -0.20922494 -0.14628509
-0.24098411 -0.080788024 -0.011768049 0.018994668 1.0201662 -0.2607762 -0.11857311 -0.41536704
0.2788943 -0.005764454 -0.25187773 -0.48949647 -0.30600244 -0.23928955 -0.16506118 -0.26020882
-0.2296699 -0.21494916 0.16875254 -0.4255637 -0.47657466 -0.33628985 -0.4031788 0.18819591
-0.4377945 -0.33747622 -0.3262197 -0.05734185 -0.28688523 -0.16449319 -0.09704286 -0.12740825
-0.037534256 -0.41313106 -0.19389874 0.07427805 -0.010156538 -0.36068204 -0.15705633 -0.3259734
0.20732762 -0.0029390946 -0.38158268 0.28743756 -0.2136447 0.003453129 0.4033036 -0.33162823
-0.52423394 -0.4914834 -0.13882731 0.19593483 -0.2562157 1.2635403 -0.10124233 0.36809355
-0.08343669 -0.3078374 -0.622176 -0.12790011 -0.04846809 -0.08052546 -0.61639655 -0.08710923
-0.28569844 -0.456642 0.06087417 0.04620227 -0.5193081 -0.40964448 0.08510271 0.34236005
-0.21524416 0.18423977 0.07592261 -0.010695461 -0.08861972 0.07432345 -0.5520939 -0.16865274
0.007842732 -0.1562231 -0.5637168 -0.26825503 -0.15746734 -0.1803813 0.2524455 -0.64569885
-0.37463546 -0.39746523 0.39818946 -0.29894423 -0.1548037 0.8428102 -0.44691774 -0.12899515
-0.45001945 -0.58264655 0.20607868 -0.62343574 0.17701691 0.014382541 -0.15593539 -0.16897242
0.13143179 -0.43512776 -0.44621924 0.12863524 -0.097372524 0.25757837 -0.810801 -0.037768103
-0.4360211 0.0011973402 -0.0070764986 -0.25023952 0.52718014 -0.48992497 -0.37187034 0.20228359
-0.30273747 -0.3719911 -0.43878204 -0.21482788 -0.11419673 -0.6321154 0.1397808 0.15523706
-0.4753436 -0.07094888 -0.059332564 0.09493729 -0.49750298 -0.22802813 0.1498987 0.12924853
0.24185961 -0.49455798 0.15655908 -0.17539628 -0.046896987 0.4760408 -0.24435754 -0.22364302
-0.41580278 0.031220611 -0.44646895 -0.65659046 -0.3077728 -0.14752911 -0.2936128 -0.5619723

linear2.weight f4 [3, 256]
00000000: 2906 423e e62b 59be 45e7 74bd 4a59 8abe
00000010: 19f5 a33e 3c6d a33c 90a7 ad3b d19f 823b
00000020: dd1a 28be 8ac9 063e 7f8f 4e3e ee3c 173b
00000030: f449 f93d b98f bc3d 195d a4bc 9fe9 163f
00000040: 2148 b13d e557 2fbe bfdb 56be 2ebe 31bc
00000050: 8743 15bf 203c 9fbe 7096 7639 172f 05bc
00000060: 9203 053c 45e6 5cbe 7a5b 8c3e f099 96bd
00000070: f7bb 133e ae9d 33bc db40 67be 51a6 1d3f
00000080: 6039 23be 436c 0dbe b4c2 da3d 239b cb3d
00000090: f757 be3d 0564 7ebd facd 123f b74f 81bd
000000a0: 487a c5bd b6b0 00be 9972 aabe 77b9 3fbc
000000b0: fb15 f63e 1bdc 82be 5ec5 b2bc bfb5 d23e
000000c0: 8196 a53e 2eb8 e2be 5e9c 21be c1e6 1cbc
000000d0: 50b1 0cbc 1261 80be 5ac0 2bbe c32f 8e3e
000000e0: 3348 7f3b 9b8a b03d dffc bfbc c897 663a
000000f0: cbef 003f 36e6 183e 0886 52bc 4156 303f
00000100: 5c10 acbc 581a dcbe f4aa e03e e854 46be
00000110: 8ff7 b23d 57d7 09be 8e11 37bf 0d12 ebbd
00000120: fbb4 de3e 3506 d13e da8b b4bc 2bb6 73bd
00000130: a3c1 c93d eb4d 10bd f12a 2bbe f1f2 9abd
00000140: 4587 e8bc 9442 1ebe e1a9 0f3d 0d5b 8dbe
00000150: 8899 de3e 0a44 acbd 3748 81bb 1f0d 77bd
00000160: d04c f2be 43a0 98bc 4e39 ff3e 47d0 ae3e
00000170: 1788 afbe fc94 103e ee6a 903c 887a 7cbd
00000180: a52a 6d3e 0346 c7be 68c8 cebd 2c2c 75bd
00000190: 101f 0cbf 120a afbe 9210 033d dfe5 babd
000001a0: 73a0 1f3b 7a76 0a3e cb73 a1be ba80 e1be
000001b0: 5e1c 173e 8fde cebd 9998 a7bd a358 06be
000001c0: 72d8 2dbd b6d0 993b 0114 713e fe78 353d
000001d0: ff9c f039 3677 49be e0f5 bc3e b92f c23d
000001e0: ce50 4bbe 90c4 dbbe c419 413e 0461 91bb
000001f0: 2a32 683c e9fd 173f 81a1 8e3c fb59 8a3e
00000200: 23c4 d73d 6e44 8c3c ec52 0cbc 7a5c 1ebf
00000210: 1ac9 abbe fe0e c4bd a179 29be c2f9 adbc
00000220: 8fdd 19bf c479 b0bc ca1b 0ebf a01e 0c3d
00000230: dbed fd3c c859 34bd d821 e83a f7ac 123c
00000240: 083f acbe 74ae a03e c1eb 63bd b7fe cc3e
00000250: abbd 4cbe e082 ddbd e826 863e b049 d2bd
00000260: 208f 16bc bf50 89be b685 4d3e 4045 9f3e
00000270: e38b 3dbd 662d 693e ca69 4f3e 30e2 273f
00000280: 22a2 ebbd 334b 913d 6694 c8bb 563e a93e
00000290: 545f a9be ec79 47bf ea67 8fbe 335e 623b
000002a0: 45b4 05bf 763c 03be e705 463d f3d9 653d
000002b0: 9745 07be 05e9 99bb f5fe 703d a70d c23d
000002c0: 4535 013e d9b6 0d3e f54f b13d 06e7 033c
000002d0: 82b5 f1bd 30fb 6cbd 0adc 86bb 74bb f1bd
000002e0: 3f34 86be 2747 1dbe 37e0 ae3d 7348 a13e
000002f0: 5b46 38bc bf2a 2dbf 93d8 673e c11a 2a3e
00000300: 0952 57bc 2e95 523b f9d4 a03e d8ca 55bd
00000310: 5f91 b2be c9a4 b03e 81e6 a8bd 1436 1fbf
00000320: 6825 a63d 8783 03bc bf06 133e 8839 cdba
00000330: a7c6 083f 4bc7 acbe c7ae 97be 940f 183d
00000340: 8f6c ec3d 14e7 5cba f7a6 8cbd 46a4 023f
00000350: a064 9d3e a8b0 233f 9444 823b 8199 9bbe
00000360: 5208 d0bc cbba 013f aae6 343b f49c b6bc
00000370: bd38 c23e 79b7 03bd 625a 3ebd cef0 69bc
00000380: 9d39 af3d 0fcb 1abb aa2e 94bb 2e7b 4cbe
00000390: dcc3 c0bd 1ebc aebc 68d3 bc3e c9e4 4b3e
000003a0: a1e9 cfbc 98cb b0bd 600f d337 43f7 c2be
000003b0: 5c81 86be a132 fcbe 6602 b6bc 21cf a03d
000003c0: 4c0c 423e bb14 08be c345 203e 9a62 6fbd
000003d0: f9a3 413d ee7a ba3e 9512 053d a31c ecbc
000003e0: ee96 293d 8fb2 eb3e 8bdd e7bc eba1 cdbd
000003f0: 2e3d ebbd bfdd 8d3e edd3 21bb 412b 043c
0.18947662 -0.21208152 -0.05979087 -0.27021247 0.32022932 0.019949548 0.005299516 0.0039863368
-0.16416498 0.13162819 0.20171927 0.0023077088 0.121723086 0.092071004 -0.020063924 0.5895023
0.086563356 -0.17123373 -0.20982264 -0.010848565 -0.58306164 -0.3110056 0.0002351643 -0.008128903
0.008118527 -0.21572216 0.2741354 -0.0735358 0.14427172 -0.010962887 -0.22583334 0.61581904
-0.15939856 -0.1381083 0.10681668 0.09941699 0.09294122 -0.062107105 0.57345545 -0.063140325
-0.09642464 -0.1256741 -0.33290556 -0.011701933 0.48063645 -0.25558552 -0.021822628 0.41154286
0.32341388 -0.44281143 -0.15782306 -0.0095765 -0.0085871965 -0.2507406 -0.16772595 0.27770814
0.0038952946 0.08620187 -0.023436008 0.0008796421 0.50365895 0.14931569 -0.012849338 0.68881613
-0.021003895 -0.4298885 0.43880427 -0.19368327 0.08738624 -0.13461052 -0.7151116 -0.11478052
0.43497452 0.40825048 -0.022039343 -0.0594999 0.098513864 -0.03523056 -0.167156 -0.07565869
-0.028384814 -0.15455085 0.03507412 -0.2760853 0.4347651 -0.08411415 -0.0039453763 -0.060315248
-0.47324228 -0.018631106 0.49848408 0.34143278 -0.34283516 0.14119333 0.017629113 -0.061640292
0.23160799 -0.38920602 -0.10096818 -0.05985658 -0.547349 -0.3418737 0.031998225 -0.09125876
0.002435711 0.13521758 -0.31533656 -0.44043523 0.14756915 -0.101010434 -0.081834026 -0.1311975
-0.042442746 0.0046940697 0.23542787 0.04430484 0.00045893338 -0.19674382 0.36906338 0.094817586
-0.19855043 -0.42923403 0.18857485 -0.004436614 0.014172116 0.5937181 0.017410995 0.27021775
0.10535457 0.017122474 -0.008564692 -0.6185986 -0.33551866 -0.09573172 -0.16550304 -0.021237258
-0.60103697 -0.021542437 -0.5551115 0.034208894 0.030997207 -0.044030935 0.0017710282 0.008952371
-0.3364184 0.31383097 -0.055644754 0.40038082 -0.19994228 -0.10815978 0.26201558 -0.10267961
-0.009189397 -0.26819417 0.20070538 0.3110752 -0.046275984 0.22771224 0.20255199 0.6557951
-0.11505534 0.07094421 -0.006121206 0.3305537 -0.33080542 -0.77920413 -0.28008968 0.003454101
-0.52228194 -0.12816033 0.048345473 0.056116056 -0.1321014 -0.0046969675 0.058836896 0.0947526
0.12617977 0.13839282 0.08657829 0.008050686 -0.11802198 -0.05785674 -0.004115586 -0.11803332
-0.26211736 -0.15359174 0.08538859 0.31500587 -0.011247243 -0.6764335 0.2264121 0.16611768
-0.013142117 0.0032132375 0.31412485 -0.0521954 -0.34876534 0.3450072 -0.0824709 -0.6219189
0.081126034 -0.008026964 0.14358042 -0.0015657404 0.5342812 -0.33745798 -0.29625532 0.03712423
0.115441434 -0.00084267673 -0.068677835 0.5103191 0.30740833 0.6394143 0.0039754603 -0.30390552
-0.025394592 0.5067565 0.0027603307 -0.022291638 0.37933913 -0.032157395 -0.046472915 -0.014278604
0.08555911 -0.0023619568 -0.0045221644 -0.19968864 -0.09412357 -0.021329936 0.3688004 0.19911493
-0.025379958 -0.086325824 2.516032e-05 -0.3807927 -0.26270568 -0.49257377 -0.02221794 0.07852007
0.18950003 -0.13289158 0.15651612 -0.058443643 0.047275517 0.36421913 0.032488424 -0.028822249
0.041403703 0.46034667 -0.028303882 -0.10040649 -0.114862785 0.2770824 -0.0024692968 0.008066953

linear2.bias f4 [3]
00000000: 941e e63e c362 123e f372 1a3c
0.44945204 0.14295487 0.00942682
