ReInforcement/snake/model/model_g151_s70.pth (torch, 17033 bytes, 4 tensors)

linear1.weight f4 [256, 11]
-0.37826273 -0.46556932 0.19361891 0.04783464 -0.3194594 -0.049449585 0.062515 -0.15264086
0.25252065 0.21647398 -0.13621177 0.07906835 0.1800268 0.050963838 -0.22050785 0.08740402
-0.25316077 0.19528794 -0.33686787 0.34032384 0.3467587 -0.13803627 0.020008303 0.13774738
0.58023065 -0.31470314 0.18349923 0.15566196 -0.2739903 0.39271888 -0.019674074 -0.09543443
0.40105775 0.34195432 -0.6922081 0.47090188 -0.19382556 0.04550151 0.24003099 -0.2957621
-0.008992142 -0.08198842 -0.29848447 0.33322254 -0.6303002 0.4428072 -0.06294254 0.23363598
0.25117195 -0.4549565 -0.21777663 -0.09974544 0.33608106 -0.46757475 -0.49398386 0.079396315
-0.048416 0.08649205 -0.22403456 -0.011051082 0.08118664 -0.07716192 -0.029344054 -0.0050927848
0.0722973 -0.26318654 -0.21501556 -0.097277656 -0.02652371 -0.052911803 0.1495492 0.042746753
-0.038963407 0.1465423 -0.23832098 -0.0053145583 -0.29903144 0.012341408 -0.26493663 0.07683917
-0.0071306056 -0.123152666 -0.12202585 -0.10557739 0.10540824 0.12687255 0.0036979765 0.043614823
-0.06213359 -0.21101579 -0.3020494 0.2880204 -0.42191422 0.105333075 -0.20097552 -0.30119246
-0.1875684 -0.19417672 0.39298633 0.2798776 0.44304326 -0.4639064 -0.13644226 -0.33611357
-0.31290853 -0.068615794 0.044552002 0.31453598 0.29241633 0.24865621 0.1689537 -0.4633156
-0.20068268 -0.095917076 0.3411678 0.17788044 -0.38247937 -0.47152612 0.17860538 0.28603846
-0.15062147 -0.30726555 0.35275173 0.48928905 -0.02827053 0.109341085 0.17020658 -0.033278644
0.20559774 0.016382923 -0.03973297 0.10832642 -0.51486856 0.24095339 0.45929328 -0.47552174
0.18885201 0.062910296 0.100791276 -0.512994 0.031682286 0.27853325 0.11185637 -0.36913756
0.101147264 0.15361562 0.33986807 -0.2265181 -0.29204744 -0.40308356 0.11590698 -0.2752952
-0.032998115 -0.4809977 -0.35865632 0.1632179 -0.22653824 0.106626086 -0.2607229 -0.37748224
-0.3968103 -0.20912671 -0.057731643 0.21902722 0.16552676 -0.16148515 0.07537666 0.05274432
0.31856325 -0.44087222 -0.50423217 0.5600493 0.17317428 -0.8092626 -0.6786664 -0.19969063
-0.3492151 0.5684726 -0.48976034 0.13756368 0.23841208 0.2706501 -0.0921605 -0.030312749
-0.124357596 0.064123586 -0.069337375 -0.21271399 -0.13695274 0.22251163 -0.20259126 0.31875482
-0.12607908 -0.0737488 -0.3590832 -0.07813916 -0.42052224 0.31672427 -0.007880339 -0.09696928
0.15678273 -0.13381492 0.064683944 -0.097199626 -0.074794695 -0.27822882 -0.2138979 0.01681168
-0.32147598 0.32860282 0.45996383 -0.5700051 -0.24642856 -0.06970986 0.007784244 0.12749709
0.34522548 0.18509524 0.23241311 0.15032987 -0.019133516 -0.38905916 0.16458993 0.30688494
0.3670988 -0.427971 -0.2579522 -0.40579054 -0.5810596 0.35165194 0.0899881 0.5843844
0.16939394 0.07755077 -0.0244421 0.45609882 -0.26686338 0.17363259 0.17256917 -0.24132165
0.4343409 0.06980836 -0.34109876 0.14206879 -0.30349496 -0.12219199 -0.26495624 0.060317516
0.17157881 0.018973 0.10121491 -0.20351551 -0.22168899 -0.7205094 0.038393784 0.21608166
00000000: a7ab c1be 1a5f eebe 0944 463e 41ee 433d
00000010: 2f90 a3be a68b 4abd dd07 803d e34d 1cbe
00000020: 634a 813e 5bab 5d3e 197b 0bbe 96ee a13d
00000030: f258 383e 75bf 503d cfcc 61be e100 b33d
00000040: 4a9e 81be 90f9 473e f279 acbe ed3e ae3e
00000050: 5b8a b13e 6159 0dbe 74e8 a33c a60d 0d3e
00000060: ff89 143f c520 a1be 39e7 3b3e d965 1f3e
00000070: 7548 8cbe 7312 c93e 862b a1bc 2073 c3bd
00000080: 7157 cd3e a314 af3e 8d34 31bf 0d1a f13e
00000090: 357a 46be cb5f 3a3d afca 753e 216e 97be
000000a0: c753 13bc 8be9 a7bd f5d2 98be 259c aa3e
000000b0: 5b5b 21bf a0b7 e23e 05e8 80bd 453e 6f3e
000000c0: 9c99 803e 0ff0 e8be d600 5fbe 5647 ccbd
000000d0: d112 ac3e f565 efbe 74eb fcbe 899a a23d
000000e0: db4f 46bd be22 b13d 5169 65be 990f 35bc
000000f0: 2e45 a63d 1207 9ebd f162 f0bc 60e1 a6bb
00000100: 9b10 943d 63c0 86be 0a2d 5cbe 8239 c7bd
00000110: 4048 d9bc 0cba 58bd 6d23 193e 3817 2f3d
00000120: 1898 1fbd 2f0f 163e 6a0a 74be bf25 aebb
00000130: a61a 99be 9e33 4a3c c6a5 87be db5d 9d3d
00000140: dba7 e9bb 7737 fcbd b0e8 f9bd f538 d8bd
00000150: 46e0 d73d e1ea 013e c059 723b 75a5 323d
00000160: cb7f 7ebd 8614 58be 38a6 9abe 6977 933e
00000170: 2405 d8be deb8 d73d 87cc 4dbe e635 9abe
00000180: ee11 40be 43d6 46be 8135 c93e 1e4c 8f3e
00000190: 91d6 e23e 2485 edbe 85b7 0bbe 1417 acbe
000001a0: 8c35 a0be 7086 8cbd 297c 363d dc0a a13e
000001b0: 98b7 953e bc9f 7e3e 3302 2d3e b437 edbe
000001c0: c37f 4dbe 2c70 c4bd 8cad ae3e 4a26 363e
000001d0: 56d4 c3be df6b f1be 54e4 363e a273 923e
000001e0: 843c 1abe e951 9dbe e09b b43e 1884 fa3e
000001f0: 9997 e7bc 38ee df3d a24a 2e3e 304f 08bd
00000200: 3788 523e 7b35 863c 0abf 22bd 3eda dd3d
00000210: 6dce 03bf 7cbc 763e 7d28 eb3e 9677 f3be
00000220: 6c62 413e 1dd7 803d a86b ce3d 9353 03bf
00000230: 49c5 013d e99b 8e3e f414 e53d 99ff bcbe
00000240: 4c26 cf3d 6a4d 1d3e 3003 ae3e 5cf4 67be
00000250: 3e87 95be f860 cebe a460 ed3d 7ef3 8cbe
00000260: 0829 07bd 5545 f6be cda1 b7be 9822 273e
00000270: a4f9 67be c75e da3d 797d 85be 5a45 c1be
00000280: b82a cbbe 5025 56be 0478 6cbd ac48 603e
00000290: d97f 293e 5d5c 25be 145f 9a3d 6e0a 583d
000002a0: b91a a33e 01ba e1be 5c15 01bf 645f 0f3f
000002b0: 9954 313e d52b 4fbf 15bd 2dbf b37b 4cbe
000002c0: 52cc b2be 6c87 113f dec1 fabe 7edd 0c3e
000002d0: 4c22 743e a692 8a3e a5be bcbd 7152 f8bc
000002e0: 32af febd 3a53 833d c100 8ebd b2d1 59be
000002f0: 573d 0cbe 17da 633e 1574 4fbe d533 a33e
00000300: e01a 01be 9c09 97bd c1d9 b7be 6d07 a0bd
00000310: b14e d7be af29 a23e 8a1c 01bc d497 c6bd
00000320: a78b 203e c706 09be 0479 843d 9910 c7bd
00000330: f62d 99bd 0274 8ebe 0d08 5bbe a6b8 893c
00000340: 8098 a4be a13e a83e 6180 eb3e dbeb 11bf
00000350: c557 7cbe 0bc4 8ebd f912 ff3b 998e 023e
00000360: 65c1 b03e 9b89 3d3e b4fd 6d3e 13f0 193e
00000370: e4bd 9cbc c332 c7be 438a 283e 0620 9d3e
00000380: 60f4 bb3e 041f dbbe 5012 84be c7c3 cfbe
00000390: 52c0 14bf b90b b43e ae4b b83d 379a 153f
000003a0: 9b75 2d3e f0d2 9e3d cd3a c8bc c985 e93e
000003b0: 51a2 88be becc 313e f9b5 303e 061d 77be
000003c0: ee61 de3e aff7 8e3d 7fa4 aebe 7b7a 113e
000003d0: b163 9bbe cb3f fabd 58a8 87be 800f 773d
000003e0: 5bb2 2f3e 446d 9b3c c349 cf3d 5f66 50be
000003f0: 7002 63be 4e73 38bf cd42 1d3d 8344 5d3e

linear1.bias f4 [256]
-0.20529248 -0.15404761 -0.17879114 -0.26321316 0.12378771 -0.37150964 -0.3121533 -0.25708276
-0.161168 -0.078836344 0.20157376 -0.05420283 0.2611092 -0.2149985 -0.19474402 0.13186756
0.4913578 -0.17932017 0.07208625 -0.21403761 -0.08426955 -0.24453509 0.0087081175 -0.16223669
-0.17722295 -0.04179676 0.6059774 -0.110613085 -0.33285847 -0.14665934 -0.3028175 0.045506526
-0.10441937 -0.13003644 -0.15317854 0.15535696 -0.27710444 0.13232356 0.43019554 -0.11139077
0.26105696 -0.3094514 -0.14619735 -0.25006804 0.103255264 0.16784738 -0.3222417 0.24301247
0.22954221 -0.22728878 -0.1780726 -0.2528071 -0.14374441 -0.060535282 -0.34169605 0.02535506
-0.3236059 -0.1743011 0.09069329 0.04414393 0.0015578718 0.3480998 -0.15797801 0.30841503
-0.1801353 -0.032221515 0.22588387 -0.2134992 -0.019331973 -0.067576416 -0.02970868 -0.38330084
0.23171166 0.47683614 -0.12730117 -0.34457827 0.26358235 0.03876001 -0.3258122 0.04289078
-0.23380178 -0.13883853 -0.16052823 -0.08799766 -0.1280358 -0.14634322 -0.23584944 -0.29619518
0.0335091 -0.07592594 0.24248825 0.467621 0.071283884 -0.26196915 -0.19920404 -0.12885328
0.060284976 0.080328405 -0.040807284 -0.2806542 -0.26435056 -0.011955065 -0.20922494 -0.1783057
-0.114466816 -0.030711627 0.02497615 0.08091883 0.7262135 -0.17958087 0.05079043 -0.31670552
0.20222798 0.25281194 -0.16527982 -0.24297598 -0.15867051 -0.1421708 -0.15414068 -0.12906979
-0.06953293 -0.10811949 0.2300965 -0.0869968 -0.18549162 -0.14482306 -0.4031788 0.14385943
-0.4377945 -0.16415718 -0.023929777 0.114523165 -0.2322374 0.057428356 -0.022418661 -0.18074055
-0.051369235 -0.31529295 -0.027266815 0.10229366 0.009852713 0.034448534 -0.10685582 -0.3259734
0.050221626 -0.087958775 0.0629791 0.19191566 -0.13716899 0.07704467 0.29380456 -0.12277696
-0.3592741 -0.27730384 -0.13939291 0.12755848 -0.1321568 0.8606414 -0.058615718 0.19768523
0.19206427 -0.3078374 -0.40939057 0.12700021 -0.1162776 -0.041481297 -0.47132838 0.18822539
-0.09113602 -0.30520493 0.19237271 0.092900895 -0.3576568 -0.1308251 0.16219567 0.30166876
-0.19303763 0.17678274 0.21975324 0.35084873 0.023725174 0.27013028 -0.26527733 -0.17439593
0.06844189 -0.016790718 -0.2838462 -0.23695597 0.18074809 0.030917658 0.11437449 -0.29963264
-0.37463546 -0.3629293 0.3235916 -0.29894423 -0.1372255 0.5188901 -0.29231682 -0.10076069
-0.10781 -0.37108824 0.04463084 -0.26727563 0.039019804 0.08682031 -0.09699062 0.0086854715
0.11353281 -0.28352302 -0.09219875 0.07095398 -0.07227495 0.18022928 -0.45886877 -0.04102572
-0.12366978 -0.038284484 0.14805621 -0.25023952 0.3345895 -0.29415756 -0.37187034 0.56518143
-0.051808584 -0.045304224 -0.16942063 -0.14630279 -0.18800841 -0.31471226 0.032605913 0.132815
-0.30253273 0.04242995 -0.059332564 0.12404319 -0.2766418 -0.27337265 0.30387905 0.12964354
0.24719009 -0.35996118 0.21642134 -0.10573801 0.08724079 0.31535026 -0.014339703 -0.057434157
-0.18943816 0.033738296 -0.19398028 -0.49682686 -0.09922352 -0.16747747 -0.21438624 -0.21022093
00000000: 3138 52be a8be 1dbe 0615 37be e0c3 86be
00000010: 6984 fd3d 8336 bebe 8fd2 9fbe 5aa0 83be
00000020: 3909 25be f374 a1bd 5a69 4e3e c903 5ebd
00000030: 1bb0 853e 9128 5cbe fa6a 47be 4a08 073e
00000040: 4093 fb3e b59f 37be f5a1 933d ad2c 5bbe
00000050: 8495 acbd 6867 7abe 7eac 0e3c 6021 26be
00000060: ef79 35be 1433 2bbd 5621 1b3f 1d89 e2bd
00000070: 6d6c aabe de2d 16be e50a 9bbe 0d65 3a3d
00000080: d3d9 d5bd 4628 05be d6da 1cbe e515 1f3e
00000090: a2e0 8dbe d47f 073e 9742 dc3e d820 e4bd
000000a0: 42a9 853e 6a70 9ebe c2b4 15be eb08 80be
000000b0: 7f77 d33d 2fe0 2b3e ddfc a4be 43d8 783e
000000c0: 1d0d 6b3e 64be 68be aa58 36be ef6f 81be
000000d0: bc31 13be d8f3 77bd c9f2 aebe 6ab5 cf3c
000000e0: acaf a5be fd7b 32be 67bd b93d 44d0 343d
000000f0: 8131 cc3a 233a b23e fdc4 21be 93e8 9d3e
00000100: 6375 38be b5fa 03bd 1a4e 673e 899f 5abe
00000110: 165e 9ebc 8165 8abd 9e5f f3bc 0240 c4be
00000120: d245 6d3e de23 f43e 3d5b 02be 906c b0be
00000130: 44f4 863e d1c2 1e3d dbd0 a6be 3eae 2f3d
00000140: bc69 6fbe b02b 0ebe 8361 24be 1e38 b4bd
00000150: d11b 03be ffda 15be 8482 71be e5a6 97be
00000160: d740 093d 0f7f 9bbd d74e 783e 056c ef3e
00000170: 49fd 913d d220 86be 25fc 4bbe 1df2 03be
00000180: 61ed 763d 3883 a43d 8a25 27bd e8b1 8fbe
00000190: f558 87be 2ddf 43bc 103f 56be c595 36be
000001a0: 946d eabd f396 fbbc c89a cc3c c6b8 a53d
000001b0: 21e9 393f 0ce4 37be a009 503d 3a27 a2be
000001c0: da14 4f3e 9170 813e 1d3f 29be b2ce 78be
000001d0: 867a 22be 3995 11be 0ed7 1dbe df2a 04be
000001e0: 4867 8ebd c06d ddbd 6b9e 6b3e 612b b2bd
000001f0: 84f1 3dbe 7f4c 14be 746d cebe e34f 133e
00000200: 9a26 e0be d218 28be 6108 c4bc 1f8b ea3d
00000210: a4cf 6dbe ff39 6b3d 57a7 b7bc 0d14 39be
00000220: 8c68 52bd 146e a1be a85e dfbc 577f d13d
00000230: 466d 213c e819 0d3d 39d7 dabd fce5 a6be
00000240: 31b5 4d3d bb23 b4bd 30fb 803d 8a85 443e
00000250: 0776 0cbe 99c9 9d3d 8d6d 963e 7d72 fbbd
00000260: c6f2 b7be c5fa 8dbe 04bd 0ebe b19e 023e
00000270: 1d54 07be ff52 5c3f 0917 70bd ff6d 4a3e
00000280: 7fac 443e dd9c 9dbe a49b d1be 580c 023e
00000290: f322 eebd 4be8 29bd f451 f1be 28be 403e
000002a0: 86a5 babd d243 9cbe 5afd 443e d342 be3d
000002b0: cb1e b7be 04f7 05be 9f16 263e 5474 9a3e
000002c0: a8ab 45be 8906 353e fe06 613e 72a2 b33e
000002d0: 4c5b c23c 844e 8a3e 6ed2 87be d994 32be
000002e0: 432b 8c3d b08c 89bc 4a54 91be 96a4 72be
000002f0: 0716 393e 0747 fd3c 2c3d ea3d 7369 99be
00000300: 38d0 bfbe dfd1 b9be ccad a53e 380f 99be
00000310: d784 0cbe fbd5 043f 8daa 95be 9f5b cebd
00000320: 7dcb dcbd 47ff bdbe d4ce 363d 5ad8 88be
00000330: 3bd3 1f3d d9ce b13d 05a3 c6bd 824d 0e3c
00000340: e483 e83d ee29 91be b3d2 bcbd 5250 913d
00000350: e404 94bd 068e 383e d9f0 eabe 960a 28bd
00000360: 9546 fdbd 31d0 1cbd 0c9c 173e 651f 80be
00000370: 514f ab3e d29b 96be ca65 bebe bbaf 103f
00000380: 3d35 54bd ec90 39bd 9a7c 2dbe 66d0 15be
00000390: 4785 40be f721 a1be c78d 053d a800 083e
000003a0: 92e5 9abe 07cb 2d3d b406 73bd 5b0a fe3d
000003b0: fea3 8dbe 80f7 8bbe 0996 9b3e 47c1 043e
000003c0: 661f 7d3e d54c b8be 8e9d 5d3e 2b8d d8bd
000003d0: 4dab b23d 9775 a13e 13f1 6abc 1440 6bbd
000003e0: 14fc 41be 2b31 0a3d c4a2 46be 1760 febe
000003f0: b335 cbbd 377f 2bbe 1188 5bbe 2844 57be

linear2.weight f4 [3, 256]
-0.009372234 -0.070107415 -0.26267672 -0.14408715 0.24652766 0.019949548 0.005299516 0.0039863368
-0.10814268 -0.07813189 0.22383775 0.02745065 0.24364561 0.22839937 -0.08561963 0.49346352
0.17926519 0.09803716 0.059013616 -0.12839247 -0.18456143 -0.40186632 0.012682299 0.10401967
-0.09260802 0.06301635 0.2708236 -0.24086218 -0.051058445 -0.13128859 -0.42103264 0.4645133
-0.23187469 -0.3799964 -0.03156147 0.10049934 0.0043817344 0.020988043 0.49862453 0.04501747
0.11536901 -0.1256741 -0.4544249 -0.20697369 0.48206627 -0.39194354 -0.021822628 0.3464935
0.40895653 -0.11445508 -0.20764288 -0.14807928 0.2495245 -0.36405072 0.047841415 0.2763338
0.05441337 -0.19348513 0.14655982 0.21507326 0.466294 0.23739058 -0.012849338 0.5729256
-0.0037792933 -0.5295669 0.32588324 -0.37698585 0.104371645 -0.21709925 -0.017811032 -0.0728442
0.192841 0.40527973 -0.044256587 -0.19694914 0.12891717 0.21999401 -0.30852762 -0.057420142
0.128328 -0.41332734 -0.15259953 -0.12523219 -0.032191586 -0.14224905 -0.17770341 -0.1766465
-0.3457827 0.02062233 0.4312647 0.25351802 -0.57083535 -0.07140382 -0.110499196 -0.13640009
0.16168588 -0.71134156 -0.06672004 -0.05985658 -0.09476034 -0.4465147 0.031998225 0.066040166
-0.013784637 0.117190555 -0.20016302 -0.49669242 0.16466151 -0.037050698 0.18151905 -0.093342125
0.12158679 0.25458282 0.4225872 -0.027723508 -0.024444701 -0.18334012 0.3662098 -0.13033476
-0.116429284 -0.27263424 0.25813237 0.0042044455 -0.17074344 0.10966176 0.017410995 0.23981075
0.10535457 -0.04068188 -0.0149348695 -0.3764592 -0.40112415 0.07825564 -0.44835708 0.038941897
-0.36768648 -0.090048574 -0.35593164 0.071755506 0.07167556 0.07960403 0.144892 0.008952371
-0.07531381 0.20569278 0.025946483 0.33791405 -0.4364439 -0.091219455 0.31958392 -0.36325613
-0.07451179 -0.28172013 0.2833594 0.17814666 0.022131689 0.207918 0.27459002 0.46415028
0.03814685 0.07094421 -0.05521958 -0.095207 -0.30629718 -0.6395651 -0.30875954 0.07997988
-0.5815058 -0.31245548 0.2507906 0.09181719 -0.22760084 0.16892198 0.21639131 0.2083173
0.20328045 0.20968628 0.12309302 0.20954362 -0.07859145 0.16817674 -0.070034295 -0.18718225
-0.4642486 -0.30852768 -0.029466024 0.35106567 0.17116721 -0.47632974 0.17032744 -0.08903471
-0.013142117 -0.048474688 0.31250155 -0.0521954 -0.2520903 0.3510075 -0.18628249 -0.31610274
-0.3396041 -0.15107624 0.101826854 -0.1300399 0.3768786 -0.3872892 -0.45180696 0.24076885
0.32852432 -0.03513227 -0.075049914 0.49275404 0.29114696 0.562302 -0.18134578 -0.022617217
0.065029204 0.35968757 0.052083943 -0.022291638 0.41758314 -0.02945683 -0.046472915 0.13485521
0.0015372153 0.16516338 -0.18314065 -0.27427742 -0.069822416 -0.07915427 0.4546252 0.28465724
-0.18070368 -0.048143305 2.516032e-05 -0.2375912 -0.34662163 -0.32872868 0.01064659 0.32511762
0.19839911 -0.22013226 0.1400482 0.106081605 -0.052376453 0.3762045 0.0032035962 0.32300958
0.024226563 0.39982224 -0.40197015 -0.31296858 -0.016843366 0.21790393 0.013188259 0.10452878
00000000: 008e 19bc 7a94 8fbd 907d 86be 958b 13be
00000010: bf71 7c3e 3c6d a33c 90a7 ad3b d19f 823b
00000020: e979 ddbd 9d03 a0bd b935 653e 30e0 e03c
00000030: 3c7e 793e 86e1 693e 5859 afbd 40a7 fc3e
00000040: 4b91 373e b5c7 c83d 43b8 713d 5179 03be
00000050: acfd 3cbe 6cc1 cdbe 6bc9 4f3c 4408 d53d
00000060: 46a9 bdbd b70e 813d 64a9 8a3e 93a4 76be
00000070: a922 51bd 8470 06be 9791 d7be b0d4 ed3e
00000080: 8f70 6dbe e38e c2be 9a46 01bd 99d2 cd3d
00000090: a794 8f3b 1eef ab3c b74b ff3e 3d64 383d
000000a0: 9646 ec3d b6b0 00be 61aa e8be e9f0 53be
000000b0: 64d1 f63e d3ac c8be 5ec5 b2bc 9967 b13e
000000c0: c062 d13e 6d67 eabd 56a0 54be 18a2 17be
000000d0: 5a83 7f3e db64 babe 5cf5 433d a07b 8d3e
000000e0: 8ee0 5e3d f720 46be c713 163e 2a3c 5c3e
000000f0: 16be ee3e 8416 733e 0886 52bc 41ab 123f
00000100: 05ae 77bb b291 07bf 2bda a63e 4a04 c1be
00000110: cdc0 d53d 444f 5ebe 71e8 91bc 572f 95bd
00000120: 1c78 453e d380 cf3e 6546 35bd 09ad 49be
00000130: dd02 043e 1c46 613e 55f7 9dbe 6231 6bbd
00000140: 6a68 033e a49f d3be 0d43 1cbe de3c 00be
00000150: 53db 03bd bca9 11be e2f7 35be d2e2 34be
00000160: 6e0a b1be 29f0 a83c bace dc3e 1dcd 813e
00000170: 4422 12bf 2a3c 92bd 674d e2bd 77ac 0bbe
00000180: fc90 253e 7b1a 36bf 84a4 88bd 2c2c 75bd
00000190: b611 c2bd 939d e4be 9210 033d 1140 873d
000001a0: f5d8 61bc 9a01 f03d 89f7 4cbe 784e febe
000001b0: 079d 283e 79c2 17bd 21e0 393e 282a bfbd
000001c0: 7f02 f93d ae58 823e 595d d83e 691c e3bc
000001d0: 4140 c8bc 83bd 3bbe da7f bb3e 7a76 05be
000001e0: 7a72 eebd b796 8bbe ed29 843e 72c5 893b
000001f0: 5ed7 2ebe 5896 e03d 81a1 8e3c f390 753e
00000200: 23c4 d73d 0ba2 26bd 62b1 74bc 43bf c0be
00000210: 2560 cdbe 7e44 a03d 0f8f e5be 8a81 1f3d
00000220: 6741 bcbe 636b b8bd ac3c b6be 8df4 923d
00000230: a3ca 923d 7007 a33d 925e 143e f7ac 123c
00000240: 203e 9abd 21a1 523e b88d d43c 1203 ad3e
00000250: 9375 dfbe 44d1 babd 81a0 a33e b5fc b9be
00000260: a399 98bd 9f3d 90be 7c14 913e 146c 363e
00000270: 844d b53c 75e8 543e 1097 8c3e 1ba5 ed3e
00000280: df3f 1c3d 334b 913d ed2d 62bd e3fb c2bd
00000290: fcd2 9cbe 8aba 23bf bb15 9ebe 7ecc a33d
000002a0: 90dd 14bf 2afa 9fbe a067 803e a70a bc3d
000002b0: 3210 69be e2f9 2c3e af95 5d3e 2151 553e
000002c0: c028 503e 00b8 563e 3118 fc3d 9a92 563e
000002d0: 8ef4 a0bd 8636 2c3e 246e 8fbd b4ac 3fbe
000002e0: feb1 edbe 57f7 9dbe bb62 f1bc e1be b33e
000002f0: 7546 2f3e 7ee1 f3be 516a 2e3e d457 b6bd
00000300: 0952 57bc 658d 46bd 3400 a03e d8ca 55bd
00000310: fb11 81be 41b7 b33e d6c0 3ebe 38d8 a1be
00000320: 97e0 adbe bbb3 1abe 998a d03d 2e29 05be
00000330: 3bf6 c03e c54a c6be 3e53 e7be 1c8c 763e
00000340: 5734 a83e dbe6 0fbd c5b3 99bd 424a fc3e
00000350: 3711 953e 06f3 0f3f b5b2 39be be47 b9bc
00000360: 082e 853d f828 b83e f955 553d f49c b6bc
00000370: 75cd d53e 734f f1bc 625a 3ebd 7c17 0a3e
00000380: 637c c93a 9720 293e 3989 3bbe 176e 8cbe
00000390: 0eff 8ebd a21b a2bd a2c4 e83e 98be 913e
000003a0: 630a 39be ea31 45bd 600f d337 1c4b 73be
000003b0: 6478 b1be 204f a8be 096f 2e3c d175 a63e
000003c0: 2329 4b3e 5a6a 61be cc68 0f3e 5041 d93d
000003d0: b188 56bd e09d c03e 6df3 513b 8361 a53e
000003e0: c976 c63c 80b5 cc3e 08cf cdbe 6b3d a0be
000003f0: 19fb 89bc 3522 5f3e 9113 583c 2f13 d63d

linear2.bias f4 [3]
0.20836331 0.15111412 0.006286044
00000000: 315d 553e a9bd 1a3e 29fb cd3b
