ReInforcement/snake/model/model_200.pth (torch, 16787 bytes, 4 tensors)

linear1.weight f4 [256, 11]
00000000: 8183 ca3d 4b00 803d 1df0 c23c 6cdd 813e
00000010: 5a29 6bbe a19a c1bd 97e4 84be 76f0 a4be
00000020: 66db 8c3e 7a93 133e 399e 61be a67e 9b3e
00000030: f207 293e d424 2dbf 9c1b ac3d c22f 6f3e
00000040: b370 5f3e 7059 33bf 1308 6ebe e35a 1cbf
00000050: a5d2 72be a26a 86bd 6bea 093f 8550 d63b
00000060: 2f41 a43e 124c 243d cb9a 303d ea7f 4cbe
00000070: 1820 8b3c 1205 9b3e be8e 3a3e 3d5c e13e
00000080: c08e 423e f784 34be 6b58 84bc e25e 9abe
00000090: 8f04 0bbf 4782 de3e e4ea 19bf 03de 3e3d
000000a0: 1f28 2bbf a40b be3e 1ef7 a3be 4a49 71bf
000000b0: 2eed 933d ad94 a23d bb9d f13e cab8 1f3e
000000c0: 87e0 12be 8611 323d 31b1 cf3c aca4 7f3e
000000d0: 2055 0a3f e0dd 163f 8e8b c93e 921e 2abe
000000e0: 7b1f 6a3d 92e6 82be 7b37 98be 3385 173e
000000f0: 60ef 4ebe d5f9 6bbe 1d4b 56be de5e 083d
00000100: 7ad3 1abc eabb 16bd 0f24 0fbe 2097 a13d
00000110: 7a4a 353e 4df4 9f3e c76e 8abe 6a38 09be
00000120: 7218 913d ed2c 98bd 72ad a93e d05f 073f
00000130: a7ee 11bd f7b0 b9be 93da 97bd 43de 863e
00000140: 9a52 f33d c42b 613e 11ff 21bf 4f94 f9be
00000150: 10d4 bc3e 1bf1 a03e d7ab f8be ccf5 07bf
00000160: 231e ea3d 6a2b 223b 5b80 17bf 2685 45bd
00000170: e70b 483e bf14 043e 8343 01bf ca81 a23b
00000180: 597f 92be 594d e8bd 79d7 703e 9417 8a3e
00000190: 715d 93bd da15 993e 78f3 e5bd 3af2 a83d
000001a0: 8578 74bd 13ac a73d c9d1 553d 57c8 8abd
000001b0: 1d35 ed3d 6b49 8cbd df39 39be 7133 edbe
000001c0: 261c 053d 10f7 dc3c 6b7a ebbd 9e05 513e
000001d0: 8aaa abbe ed3f 68be f166 003e 9733 613d
000001e0: 528b 2a3d 6b1c 003f 8e05 3bbe 4052 b2bd
000001f0: f18e 12be 6753 4b3e 2afd 0ebe 6f76 f53e
00000200: cc2a 5fba 01fc a9be 03ff a23d 43d6 06bf
00000210: 8c53 053e 37e4 af3c 8380 413d c038 7a3e
00000220: 156e 8bbe 58f5 b4bb 96c7 abbe ea00 9fbe
00000230: 5b1c ffbe e871 583e 3929 68be eeeb 433e
00000240: 9861 6e3e 9fa8 c7be 39a2 a8be 69cc 273e
00000250: 22fc d7bd 60f7 f63d f82c 963e 4097 ef3d
00000260: 0393 c33e 7f11 3cbe 63a9 96be 692f 8ebd
00000270: 6dcd 923d 4953 09bd 2941 1bbe 1da1 70be
00000280: a65e 62bd a039 13be d91c 88bc 4be5 10be
00000290: c24e 6dbe 38f8 ea3d 9a19 133f 5334 ecbe
000002a0: 8499 d2bd 6af0 0e3e f76e a7bc 029a fabc
000002b0: 83a6 613e 932b a53d 04ca 853e b674 da3e
000002c0: 6f39 c1be 33cd 663e 3464 d53e ed75 783d
000002d0: 4fab d9bc f15d 573d 028e 62bb 0d96 8ebe
000002e0: 54b8 f73c 9469 28be 9f7c f0bd 1eb9 34be
000002f0: 8065 a53e 69ea 0fbf 4b5c 0f3e 829b 363e
00000300: 636c a33e 857d 6abd b420 a7bd db91 cf3b
00000310: a43a 2abe ac78 46be 736d 44be 2cb1 2ebe
00000320: 3b62 09bf 01af 12bf 9fec 6d3e ce49 fa3e
00000330: 4445 16bf 514a 91be f425 353b 5f80 233e
00000340: dc1e 3bbf 0355 02bf 9e38 d13e 1c09 a03d
00000350: 57a0 f7bd eca5 243e f1d0 9fbe 92c0 9fbe
00000360: 82ce 84be df75 5e3e 10c5 99be c13d a2be
00000370: dcd2 173d 41ad 0abf 1348 263f 118e fbbd
00000380: 0ce1 793e 3529 6dbe 5b0c 923d a758 2f3e
00000390: 4b76 23bd b944 b0be c464 083e 6d63 023f
000003a0: ccf1 47bd 3ad7 09bf d2cb babc 33e5 0c3e
000003b0: 56e8 fcbd 01eb e2be 0d92 9cbe 66a8 80be
000003c0: cd01 b2bc cc24 473e 387c 91be 6d91 04be
000003d0: fe0a 60bc 9746 cabd 3ea9 a43d 3621 e5bd
000003e0: e0c2 e63d 3deb 4d3d 031e fb3d cd39 1b3e
000003f0: f0cb eabc 8566 8cbd ed3f ca3e 1e21 153e
0.09888364 0.06250056 0.023796136 0.25364244 -0.22964993 -0.09453321 -0.2595565 -0.32214707
0.27511138 0.14411727 -0.22033013 0.30370063 0.16506937 -0.6763432 0.084037036 0.23358062
0.21820335 -0.70058346 -0.23245268 -0.6107618 -0.23713167 -0.06563307 0.5387332 0.0065403604
0.3208098 0.04011161 0.043116372 -0.1997067 0.016983077 0.30277306 0.18218514 0.44015685
0.18999767 -0.17628847 -0.016155442 -0.30150515 -0.5430383 0.4345877 -0.6012404 0.046598446
-0.66858095 0.37118256 -0.32024473 -0.94252455 0.07222973 0.07938514 0.4719065 0.15597835
-0.14343463 0.043473743 0.025353046 0.24965161 0.5403614 0.58932304 0.39364284 -0.16613224
0.05715893 -0.25566536 -0.29729828 0.14796905 -0.20208502 -0.23044522 -0.20927091 0.033293597
-0.009449834 -0.036800303 -0.13978599 0.07890153 0.17704192 0.31241074 -0.2703764 -0.13400427
0.07084741 -0.07430444 0.3314014 0.52880573 -0.035627987 -0.36267826 -0.074147366 0.26341447
0.118809894 0.21989352 -0.63279825 -0.48745963 0.3688054 0.3143395 -0.48568603 -0.5310943
0.114315294 0.0024745115 -0.5918023 -0.048222683 0.1953579 0.12898539 -0.5049364 0.0049593197
-0.28612784 -0.11342878 0.23519696 0.26971114 -0.07195557 0.29899484 -0.112280786 0.08249326
-0.05968525 0.081871174 0.05220202 -0.06776493 0.11582396 -0.06849941 -0.18088482 -0.4632831
0.032497548 0.026973277 -0.11497959 0.20412299 -0.33528548 -0.22680636 0.12539269 0.05498084
0.041636772 0.5004336 -0.18263838 -0.08707094 -0.1431234 0.19856034 -0.13963762 0.4794192
-0.0008513152 -0.33200076 0.07958796 -0.5267069 0.13020152 0.021471126 0.0472417 0.24435711
-0.27232423 -0.0055224113 -0.3355071 -0.31055385 -0.4982632 0.21137202 -0.22671975 0.19132969
0.23279417 -0.38995835 -0.32936266 0.1638657 -0.105461374 0.12058902 0.29331183 0.116987705
0.381981 -0.18366049 -0.29426107 -0.069426365 0.07168088 -0.033526693 -0.15161575 -0.2349896
-0.055266045 -0.14377451 -0.016615318 -0.14149968 -0.23174575 0.11473125 0.5746094 -0.4613367
-0.10283187 0.13958898 -0.020438654 -0.030591015 0.22036175 0.08064952 0.26130688 0.42667168
-0.3773913 0.22539215 0.4167801 0.060659338 -0.026570944 0.052579824 -0.0034569507 -0.27848855
0.030239262 -0.16446525 -0.117425196 -0.17648742 0.32304 -0.56217057 0.1400005 0.17832759
0.3191863 -0.05724861 -0.081605345 0.006334526 -0.16623932 -0.1938197 -0.19182377 -0.17059773
-0.5366551 -0.57298285 0.23234795 0.48884434 -0.5869944 -0.2837701 0.002764103 0.15966938
-0.7309396 -0.5091097 0.40863508 0.078142375 -0.12091129 0.16078919 -0.31214097 -0.31201607
-0.25938803 0.21724652 -0.3003316 -0.3168774 0.037066326 -0.54170614 0.64953727 -0.122829564
0.24402255 -0.2316025 0.07131263 0.17123662 -0.039907735 -0.3442743 0.13319689 0.5093296
-0.04881458 -0.53844035 -0.022802267 0.13759308 -0.12349002 -0.4431992 -0.30580178 -0.25128478
-0.021729374 0.1944763 -0.28415084 -0.129461 -0.013674496 -0.09876745 0.08040093 -0.11187975
0.11267638 0.05027317 0.12261584 0.15158768 -0.028661698 -0.068554915 0.39501897 0.14563414

linear1.bias f4 [256]
00000000: 1bd0 f7bd a864 aa3e ad9a 85be e2d9 583e
00000010: dcc3 02bf 8485 98be 25ab bdbe 408f 523d
00000020: 7435 1e3d 934c cfbe 3ea6 2fbe 0b22 f03d
00000030: d023 69be babf f7be 7926 88bd a8c9 32be
00000040: 0dcd 40be bcdc 1c3f 9efd 193e c18c 03be
00000050: 464b 07be 296c acbc d05e d7be c1b7 83be
00000060: d11c b43e f96d 8abe 13b4 063e fdca 40be
00000070: 52dd f3be fc19 1ebe 45d4 81be 3dc0 40be
00000080: 2748 d7bc bb4f a4be 648f 2cbe 9f31 a3be
00000090: d100 0f3e 81ab a5be 8bb6 5bbe 4e9c 0a3e
000000a0: 6958 62be 69cc 90be 6e8a 3dbe bf26 47bd
000000b0: 0d1c b4bd ba9b 69be a9f0 913d 09ea 98be
000000c0: 4e8d 4dbe d268 91be f000 2f3f 9282 74bd
000000d0: 8191 84be 6dc9 c23c ba4d f5bd 14b3 26bb
000000e0: 764e 1d3f e865 1a3e d8b4 40be 08ef 943d
000000f0: fe5c af3e fefc b3bd 609d 8f3c bd76 f43d
00000100: 6d45 b1bd 7d0c cfbe 01dd ecbd 5526 11be
00000110: 126a c3bd 072e 843f 5ae7 adbe a187 9fbd
00000120: 5fb5 aa3e 1681 a53e 94e5 d3be 4835 62be
00000130: 1806 f93d ba8d dcbe cd75 1cbe 05f6 51bd
00000140: 641a 0abe bd38 13be cb3e a43e 79c9 0cbe
00000150: c1c4 8ebe 964e 85be 304b 08bf 7eaf bebd
00000160: e353 4abe c56c c2bd d121 89be 5968 1a3d
00000170: 7df8 eb3d 9227 8abe 70fa 32be a77e 11be
00000180: 6cb1 8bbe d739 99be 547c 8fbe ed5c e1bd
00000190: cd6a 99bc ca2c 1ebe a3c6 2fbe 4e0c 8bbe
000001a0: 945a 5dbe a548 c7bc 5371 a73e 852e afbc
000001b0: 7e0b 9cbe 1f24 723c 898e 6fbd 0fe9 bebe
000001c0: 5f90 5cbe 7e3d 4ebe 9288 e7bd 15d2 fbbd
000001d0: b8f7 9f3e da4d acbd 6d11 b13e eaf1 06bd
000001e0: 9a3d 9fbe 239f 55be 1ce2 67bd d552 ec3d
000001f0: 912e d8bd e1bc 26be 6812 363e 2eb3 df3d
00000200: 907e 183d b36c aebe 44d9 bfbe 0aea 3dbe
00000210: 0d0d 2ebe ff0d 033e cc64 d13c 86eb 88be
00000220: 0067 2bbe b0fc cb3e e147 86bd 6a06 c53e
00000230: fde8 34be b8d9 823e bb92 a9be cb2e f0bc
00000240: 5c74 15be 7f98 113f c4c0 69be 25c4 c63d
00000250: 9eb1 13be 761e babc d8e3 823d d190 603e
00000260: 9b29 40be 6542 bc3d 7920 213d f468 12be
00000270: 2ecb 9dbe 5960 61be 2e3b 9e3e 1dae ccbe
00000280: 33ea 61be 0871 bb3e ab3e 673d 6ca3 80be
00000290: 6fa0 dabd 397c 35bd 0892 b6be 7571 0dbe
000002a0: f291 b0be 08ff 5dbe 63c3 83bd 89b2 f23d
000002b0: 140c 95bd dfa5 ba3e 82b9 c8be f481 523d
000002c0: d871 22be 9b0e dabd e756 033f 6eda 8c3d
000002d0: f9a7 76be 55c6 e93b e8b4 da3d c440 c8be
000002e0: 1cc4 6cbe 1f62 ec3d 32e9 e7bd 24ec c53e
000002f0: bb0f 683e 4d32 583e 3a53 903e a7a0 03bd
00000300: 408b 8ebe 1f0b b5be cde1 5e3d 8e3b 9f3e
00000310: fb72 b3be d11e 8f3e 3388 4e3e 6222 e33d
00000320: 4776 88be 4936 cdbe 56ff 093f e24e aabe
00000330: a887 24be 4c7c dbbe f514 fbbe 535d 41be
00000340: 9616 173d 7753 65be 6b41 abbe d8e7 4dbe
00000350: f559 34bc 7288 81be fe77 ad3e f48f 95be
00000360: 15a9 6bbe 938c 36be 78bb 0c3f bc12 8c3e
00000370: 38ec 5c3e 472b 2ebe a840 0c3e 2afe 16be
00000380: 11e3 ee3b 7f9f 8d3e 8684 1ebe 1b28 a4bc
00000390: b349 51be 0b5c 4fbe a001 b73d eb13 563d
000003a0: e840 7c3e e93e 643e 2725 c1bd d2ae f2bd
000003b0: 5895 5f3d b736 413e 6f8e 42be cfe4 433e
000003c0: b917 b3bd ad27 83be d48b 293d b3cb 88be
000003d0: d96e 78be 1619 953d d2b4 64be 514a 343e
000003e0: 6671 90be 5ea4 b9be 2217 e5bd 1384 3abe
000003f0: 284e bdbe e75c 2ebe 78a6 1dbd 951d 50be
-0.1210024 0.3327992 -0.2609457 0.21176866 -0.5108011 -0.29789364 -0.37044635 0.051406145
0.038625196 -0.4048811 -0.1715326 0.11725243 -0.22767568 -0.48388463 -0.06647963 -0.17459738
-0.1882822 0.61274314 0.15038154 -0.12846662 -0.13212308 -0.021047669 -0.42064524 -0.2572613
0.35178235 -0.27037027 0.1315463 -0.18827434 -0.47629791 -0.154396 -0.2535726 -0.18823333
-0.026279522 -0.3209208 -0.16851574 -0.31873795 0.13965155 -0.3235741 -0.21456353 0.13536188
-0.22104038 -0.28280953 -0.18509838 -0.048620936 -0.08794413 -0.22813311 0.071259804 -0.29866055
-0.20073435 -0.28400284 0.68360806 -0.059694834 -0.2589226 0.023777688 -0.11977716 -0.0025436329
0.61447847 0.15077937 -0.18818986 0.07272154 0.34250635 -0.08788489 0.017531097 0.1193671
-0.0865582 -0.40439215 -0.11565591 -0.14174779 -0.09541716 1.0326546 -0.3396557 -0.07789541
0.333415 0.32325047 -0.41386092 -0.22090638 0.121593654 -0.4307688 -0.15279312 -0.051260013
-0.1348663 -0.14377113 0.32079157 -0.1374873 -0.27884486 -0.2603652 -0.5323973 -0.09310816
-0.19758563 -0.094934024 -0.26783612 0.03769717 0.11522005 -0.26983315 -0.17478347 -0.1420847
-0.272838 -0.2992694 -0.28024542 -0.11004052 -0.018727684 -0.15446773 -0.17165618 -0.27157825
-0.21616584 -0.024326632 0.32703647 -0.021384487 -0.30477518 0.01477912 -0.05848554 -0.37287185
-0.21539448 -0.20140645 -0.113053456 -0.12295929 0.31243682 -0.084132865 0.34583607 -0.03294555
-0.31101686 -0.20861487 -0.05661212 0.115392365 -0.10555757 -0.16282989 0.17780459 0.10922848
0.037230074 -0.34067306 -0.37470448 -0.1854631 -0.16997166 0.12798308 0.025560759 -0.2674219
-0.1673851 0.39841223 -0.065566786 0.38481456 -0.17667003 0.2555673 -0.3311976 -0.029319188
-0.14595169 0.56873316 -0.2282744 0.0970538 -0.14423224 -0.022719603 0.06391114 0.21930243
-0.18765871 0.09192351 0.03933761 -0.14297849 -0.30819076 -0.2200941 0.30904526 -0.39976588
-0.22061996 0.36609674 0.05645625 -0.2512468 -0.106751315 -0.04430792 -0.35658288 -0.13812812
-0.34486347 -0.21679318 -0.064337514 0.11850459 -0.07277694 0.36454675 -0.3920403 0.051393464
-0.1586374 -0.10647317 0.5130448 0.068776 -0.24087514 0.0071342387 0.106790364 -0.39111912
-0.23121685 0.115421526 -0.11323775 0.38656723 0.2266225 0.21112938 0.28188497 -0.032135632
-0.27840614 -0.35360047 0.05441456 0.31100124 -0.3504866 0.279532 0.20169143 0.110905424
-0.26652738 -0.4008048 0.53905237 -0.33263308 -0.16067374 -0.42868268 -0.49039426 -0.18883257
0.036886774 -0.2239512 -0.33448347 -0.20107973 -0.011007776 -0.25299412 0.3388061 -0.2921139
-0.23013718 -0.17827062 0.54973555 0.27358043 0.21574485 -0.17008696 0.1369654 -0.14745393
0.007290252 0.27660748 -0.15480241 -0.020038655 -0.2043827 -0.20249955 0.08935857 0.05226509
0.24634135 0.22289623 -0.09430914 -0.118497506 0.054585785 0.18868528 -0.18999647 0.19130252
-0.08744759 -0.25616208 0.041393116 -0.2671791 -0.24261035 0.072801754 -0.22334602 0.17606474
-0.28211516 -0.36258215 -0.11186053 -0.18214445 -0.3697369 -0.17027627 -0.038488835 -0.20323785

linear2.weight f4 [3, 256]
00000000: 6258 07be ddf4 d93d 0d92 8abe 9d3f cc3e
00000010: c59a a7be a07e 013d 2c60 6cbd 9d1e 073f
00000020: 3258 91bd e618 57bb 30be 49bc 9f56 bcbe
00000030: 8940 07bd c007 18be c611 8cbc b256 e3bd
00000040: 0ef0 0c3d 15fb 6c3e 7b19 8b3e cb87 143e
00000050: ad5c 843d 244a 1ebe 8191 9ebc 0cc1 8abc
00000060: 75dd 2f3e 64e5 3cbe f74a 1e3c 0892 55bd
00000070: 0968 2bbe 4eef 10bf 22b9 bdbc 387a 26bd
00000080: 773f da3c febf fabe b2d6 2cbe 5b55 21bd
00000090: ccb6 79bc a49c 69bc 899c 59bd 8730 4dbe
000000a0: f014 c6be e898 02be be20 91bc e85d 593d
000000b0: 8e6a 0fbf 96ff 113d 273f c33e 6ccd 2dbf
000000c0: 4a38 933e 94b9 ba3c 1c44 ea3e 2663 e2bc
000000d0: 8716 d7bd 060d a03e ae36 833e 3621 87be
000000e0: 7e87 8c3e 468a b43e 16fc eebe b16e 12bd
000000f0: 3f19 8f3e d9a6 33be 4028 4c3d 153c d3be
00000100: cc53 43be 29d2 613b 8f6b 5fbe 52c8 643e
00000110: 8d03 773b cd0c 6d3e 9d93 463b 3b46 a8be
00000120: 7b13 863e 9cb1 d73e 1b40 49bc 8f1f 00be
00000130: 8b2c e9be 09c1 7dbe a077 2dbf 1dd4 d53e
00000140: c0c6 783d 43ae a0bb f2cf 9b3e 0e1f b03b
00000150: 243c 2c3e e504 3bbe 30b5 bbbb 3f97 be3e
00000160: 5e08 9cbe db8e 8dbd 215b 87be b4b8 d23d
00000170: 37cc 073f 19c2 b2be bc3b 093d b75a 803d
00000180: b92f d3bc 3e8b 2a3c 174e 8e3c 61ba 63be
00000190: c5ad 87bd d52e c3bd 3a99 f73a 910e e4bc
000001a0: 5c5a 2abe e676 dfbe aa9c b53d fe18 e23b
000001b0: 9213 103d 7282 12bf 2506 1fbf 3ab0 21be
000001c0: 630b 0a3d 7d3d 2ebe ab44 92be 3547 1b3d
000001d0: ace1 da3e 6d28 afbc 1799 eb3d 7225 2bbd
000001e0: 4eb7 a6be 9527 b63c b957 f73c 668a 263d
000001f0: 74bf 99bc 0232 febd 854e 5b3c 1fb4 803e
00000200: 95b8 f8be fb08 80be 8b37 37bc 6ef3 c0be
00000210: d909 263d 407e 5a3d a759 913e ccaf 21be
00000220: 69fa 9d3c 6ae6 323e 2455 2cbf e467 db3e
00000230: d346 95be 66fa 993e 4680 9cbe 663f 34bd
00000240: a0e0 f33c b853 723e 45e9 6fbe 30b0 eb3e
00000250: 72da 9dbe 0abc ac3d 76c3 143f 619a 863d
00000260: cd58 75bd eaa0 1739 2649 993d fd62 74bd
00000270: b31f bbbc 7674 0ebe 6e62 183e 75c2 5fbe
00000280: 145a 103e f144 8c3e 11c8 56bc 3285 0d3d
00000290: 5541 763d ab3b 06bf 1414 19be 0f86 4bbe
000002a0: deef 943e e0ba 0dbe eb4a 32bb f776 f63e
000002b0: 7785 4fbf ac3c 523e 9b47 18bd 0c63 0a3e
000002c0: 2719 bdbe 119b 14be f191 133f 0a9c 98be
000002d0: a0d8 d2bd 8011 14bf 7989 db3e 7636 8fbd
000002e0: 6931 eebe 6168 813e 82a5 a33d cfa0 fc3d
000002f0: bc6b ff3d b2b3 b13e 563a 5abc 43d2 563e
00000300: 2036 5b3c fba2 62bd b6f4 123c cae0 b53e
00000310: dba5 36bd 3edc af3d 4f93 3d3e d4f1 1f3d
00000320: 60d0 7e3d 2d8e 84bd ee8b 973e 7bc7 b9bd
00000330: 6558 09bf 49a1 973b a534 45be 9a83 5fbe
00000340: ccea 6a3c 5b6b b9bd 7b2b 76be 8f77 3d3d
00000350: bf8c dd3e b4a7 db3c 19c9 393e 6e10 a6be
00000360: 73a5 b8be ade7 87be ddf7 9c3e 3b6a df3e
00000370: 5591 523e ea78 153c 46f2 b5be daed 83bc
00000380: 6999 883d b10a 9d3e d646 09bf 6faf 9d3e
00000390: a24c 7cbd 7abb 983c dede 903e c960 143b
000003a0: e94d ed3d 3879 993d 715c 12bf 013d 363d
000003b0: 3a03 1f3e a781 f83c 02bb 1cbd 12d3 0d3c
000003c0: 58b5 08bd 5fd4 b4be ba7f 49bd 38e5 f03c
000003d0: b587 15bc cb50 f43d 3555 85ba 1b18 2f3f
000003e0: d217 5cbd f4f0 7bbd e6da d7bc d75b 99be
000003f0: cc68 133b 83e1 ce3d 1b11 833e 4fe1 64bd
-0.13217309 0.10642407 -0.27064553 0.39892283 -0.32735267 0.0316149 -0.057708904 0.5278109
-0.070969 -0.0032821237 -0.012313411 -0.36784837 -0.03302053 -0.14846706 -0.017098319 -0.1110052
0.03440862 0.23142655 0.27167878 0.14504926 0.06462989 -0.1545797 -0.019356491 -0.016937755
0.17174323 -0.1844688 0.009661428 -0.05214122 -0.16738905 -0.5661515 -0.023159567 -0.0406439
0.02664159 -0.48974603 -0.16878775 -0.039388042 -0.015241336 -0.014258537 -0.0531278 -0.20038043
-0.3868785 -0.12753642 -0.017715808 0.05306807 -0.56021965 0.035644136 0.3813412 -0.67891574
0.28753883 0.022793569 0.45755088 -0.027635168 -0.105023436 0.31259936 0.25627655 -0.26392525
0.27447122 0.35261744 -0.466767 -0.035750095 0.2794895 -0.17544116 0.049843073 -0.41256776
-0.19074935 0.003445754 -0.21818374 0.22342041 0.0037691325 0.23149414 0.0030300387 -0.32866082
0.26186737 0.42127693 -0.01228335 -0.12512039 -0.45541796 -0.24780668 -0.6776066 0.41763392
0.060736418 -0.004903586 0.30432087 0.0053747958 0.16819817 -0.18263586 -0.0057283863 0.37224767
-0.30475134 -0.06912013 -0.26436713 0.102891356 0.5304598 -0.3491371 0.033504233 0.062673025
-0.025779592 0.0104091745 0.01737122 -0.22239067 -0.06624941 -0.09530417 0.001889027 -0.027838977
-0.16636032 -0.436454 0.08867772 0.006899952 0.035174914 -0.57230294 -0.6211875 -0.15789881
0.033702265 -0.17015643 -0.28568015 0.037909705 0.427503 -0.021381581 0.11503809 -0.041783758
-0.32561725 0.022235671 0.030193197 0.04065933 -0.01876805 -0.12411882 0.01338542 0.2513742
-0.48578325 -0.25006852 -0.011182676 -0.37685722 0.040536735 0.053343058 0.28388712 -0.15789717
0.019284444 0.17470708 -0.67317414 0.428527 -0.29155597 0.3007385 -0.30566615 -0.044005774
0.029770195 0.23664749 -0.23428829 0.46032858 -0.30830723 0.08434303 0.5811075 0.06572414
-0.05989914 0.00014460427 0.07484655 -0.059664715 -0.022842264 -0.13911614 0.14881298 -0.21851523
0.14096862 0.27396348 -0.013109223 0.034550853 0.0601209 -0.52434796 -0.14949065 -0.19875358
0.29089254 -0.13840818 -0.00272053 0.48137638 -0.81063026 0.20530957 -0.037177663 0.13514346
-0.36933252 -0.14512278 0.57644564 -0.29806548 -0.10295224 -0.578392 0.4287832 -0.069928095
-0.46522072 0.25274947 0.079905525 0.12335359 0.124717206 0.3470741 -0.013319572 0.20978646
0.013379604 -0.05533121 0.008969476 0.35523063 -0.044591766 0.0858693 0.18513225 0.039048985
0.06221044 -0.064724304 0.29598945 -0.09071251 -0.53650504 0.004627381 -0.19258364 -0.21827546
0.0143382065 -0.090536796 -0.24040024 0.046256598 0.43271443 0.026813366 0.18143119 -0.3243441
-0.36063728 -0.26543942 0.30657855 0.43635735 0.20563252 0.009123066 -0.35536402 -0.016104627
0.06669886 0.3067222 -0.5362371 0.30797908 -0.06159652 0.018644083 0.28295034 0.0022640696
0.11587126 0.07493824 -0.57172304 0.04449177 0.15528575 0.03033526 -0.038264282 0.00865628
-0.033376068 -0.35318276 -0.049194075 0.029406175 -0.009126593 0.119294725 -0.0010172488 0.6839616
-0.053733654 -0.061509088 -0.026349496 -0.2995288 0.0022492884 0.10101607 0.25598988 -0.055878934

linear2.bias f4 [3]
00000000: 5992 723e 59cf 40bc fb04 f73c
0.2368864 -0.0117681855 0.030153742
