ReInforcement/snake/model/model_g106_s56.pth (torch, 17033 bytes, 4 tensors)

linear1.weight f4 [256, 11]
000000 a5 5d ae be 78 02 dc be ce da a4 3e 69 12 b8 3d
       -0.3405582 -0.42970634 0.32198185 0.089878865
000010 85 08 a7 be 6e 1d 72 3d 1d d7 05 3e 74 36 3d bd
       -0.32623687 0.059110098 0.1307034 -0.04619451
000020 e0 77 b2 3e 39 d7 a1 3e 95 ec f3 bd 23 0e 01 3e
       0.34857082 0.31609514 -0.11910359 0.12603049
000030 01 b2 17 3e de 69 28 3e 32 f4 a8 be 11 39 53 3d
       0.14813997 0.16446635 -0.32998806 0.051568095
000040 5f fb 9f be 02 a1 85 3e 08 c2 6d be 92 dd 94 3e
       -0.31246468 0.26099402 -0.23218548 0.29075295
000050 51 10 95 3e a1 e6 89 bd 68 e5 0a bd f7 a5 c2 3d
       0.2911401 -0.06733442 -0.033910185 0.095043115
000060 1e 00 18 3f 37 39 76 be dc f4 cf 3d bc 42 6c 3e
       0.5937518 -0.24045263 0.10154125 0.23072332
000070 5e c2 83 be a6 2d ae 3e ac 55 02 3d d7 b2 2b be
       -0.25734228 0.34019202 0.031819984 -0.1676744
000080 de 9b bd 3e ac 26 c7 3e b5 fc 0d bf 29 08 17 3f
       0.3703298 0.38896692 -0.55463725 0.58996826
000090 a0 14 dd bd 01 f9 a4 3d da 71 61 3e b8 86 5e be
       -0.107949495 0.08055306 0.22016087 -0.21731079
0000a0 17 f4 56 bb f8 57 31 bc 50 66 3d be d5 a3 bd 3e
       -0.0032799297 -0.010824196 -0.1849606 0.37039056
0000b0 a5 1d 13 bf 31 f7 e1 3e d8 2b 48 3d a9 17 94 3e
       -0.5746711 0.44133905 0.048869938 0.289243
0000c0 01 fe 7a 3e 48 14 fe be 6a c7 ea bd ba 46 d5 bd
       0.24510957 -0.49624848 -0.114638165 -0.10413881
0000d0 9c e4 a4 3e 50 1d ac be 9e a9 ed be 89 9a a2 3d
       0.32205665 -0.33616114 -0.4641847 0.079396315
0000e0 db 4f 46 bd be 22 b1 3d 51 69 65 be 99 0f 35 bc
       -0.048416 0.08649205 -0.22403456 -0.011051082
0000f0 2e 45 a6 3d 12 07 9e bd f1 62 f0 bc 60 e1 a6 bb
       0.08118664 -0.07716192 -0.029344054 -0.0050927848
000100 9b 10 94 3d 63 c0 86 be 0a 2d 5c be 82 39 c7 bd
       0.0722973 -0.26318654 -0.21501556 -0.097277656
000110 40 48 d9 bc 0c ba 58 bd 6d 23 19 3e 38 17 2f 3d
       -0.02652371 -0.052911803 0.1495492 0.042746753
000120 18 98 1f bd 2f 0f 16 3e 6a 0a 74 be bf 25 ae bb
       -0.038963407 0.1465423 -0.23832098 -0.0053145583
000130 a6 1a 99 be bc c2 8d 3d 67 ee 77 be 27 5f 9a 3e
       -0.29903144 0.06921908 -0.24212037 0.3015072
000140 23 45 0f 3e 1b 3e 0b be 0c 12 3a bd bb c6 4a bd
       0.13991217 -0.1359791 -0.045427367 -0.04950593
000150 9d 07 92 3e 82 40 ff 3d 95 20 f1 3d 63 3c 01 3e
       0.28521433 0.12463476 0.11773793 0.12620692
000160 2a 20 2a be 1a fe d9 bd c5 4c 9f be 90 4c 97 3e
       -0.16613832 -0.10644169 -0.31113258 0.295506
000170 24 05 d8 be 2e 45 9d 3d 33 ef 14 be d4 02 62 be
       -0.42191422 0.076792106 -0.14544372 -0.22071391
000180 a4 c2 be 3b 43 d6 46 be e9 b4 dc 3e 62 8f 88 3e
       0.005821543 -0.19417672 0.43106773 0.26671892
000190 d7 1a c3 3e 1e f3 00 bf 1c f6 58 bd 1d 12 8a be
       0.38106415 -0.5037097 -0.052969083 -0.26966944
0001a0 b4 41 b6 be 96 5e 20 bd ee 1b 39 3c b1 77 9b 3e
       -0.35597003 -0.039152704 0.011298163 0.30364755
0001b0 7b 89 a3 3e 1f a3 94 3e 43 50 53 3e 34 de e4 be
       0.31940827 0.29030702 0.20636086 -0.44700778
0001c0 c2 72 62 be bd d6 3f be e5 04 a8 3e f3 74 32 3e
       -0.22114089 -0.1873426 0.32816234 0.17427425
0001d0 1f 6e 8b be 09 90 c9 be 3d 51 43 3e e6 a3 80 3e
       -0.27232453 -0.39367703 0.19073959 0.25125045
0001e0 9a e7 f2 bd 45 fc 7e be 5d 3c bf 3e fc 0c 06 3f
       -0.11860581 -0.2490092 0.3735074 0.5236356
0001f0 a6 b2 bc bb 13 d3 1c 3e 38 f0 5e 3e b7 87 8f 3d
       -0.0057586012 0.15314893 0.21771324 0.070083074
000200 f2 1d 90 3e bb ab a4 3d f9 4d b5 3c f1 35 25 3e
       0.28147846 0.080405675 0.022131907 0.16133858
000210 02 f2 e0 be d9 1d a9 3e 3e 71 01 3f 41 47 bc be
       -0.43934637 0.33030584 0.5056342 -0.36773112
000220 83 aa 4d 3e 68 04 59 3d b3 78 ff 3d d0 17 b3 be
       0.20084576 0.052982718 0.124741934 -0.34979105
000230 d6 ec 21 3d 03 9c b2 3e 8e 42 fc 3d 8e 4c 90 be
       0.039532505 0.34884652 0.12317382 -0.28183407
000240 1b 4c 34 3e cf 50 66 3e b7 cb b6 3e 57 a8 6e be
       0.17607157 0.22491764 0.35702297 -0.23306404
000250 e8 2a 89 be 86 e2 5b be 2a c2 ea 3d f8 00 39 be
       -0.26790547 -0.2147313 0.11462815 -0.18066776
000260 64 5c e8 bc 64 2a b5 be de 55 91 be 4f 83 3a 3e
       -0.028364368 -0.35383904 -0.28385824 0.18214153
000270 b7 df 81 be 1a 13 42 3e 72 04 3d be 5a 45 c1 be
       -0.25365993 0.18952599 -0.18458727 -0.37748224
000280 b8 2a cb be 43 77 1c be 0d 22 ae 3b b7 69 86 3e
       -0.3968103 -0.1527987 0.0053141178 0.2625253
000290 19 b6 78 3e c1 05 45 be 93 43 fe 3b 08 7d 99 3d
       0.24288215 -0.19240476 0.0077595203 0.07494551
0002a0 3e 11 a7 3e ea d8 d6 be 61 5f f2 be 55 06 0a 3f
       0.32630342 -0.41962367 -0.47338393 0.5391591
0002b0 ad dc 8d 3e d5 5d 38 bf e2 d8 25 bf 04 88 45 be
       0.27707425 -0.72018176 -0.6478406 -0.19290167
0002c0 71 49 9e be b6 cc 1b 3f 98 98 ec be 97 e7 cf 3d
       -0.30915406 0.6085924 -0.4621017 0.10151594
0002d0 ac 2d 5e 3e d6 ba 90 3e 29 d0 d2 bd ee 0e 22 3c
       0.2169711 0.28267545 -0.1029361 0.009891255
0002e0 60 42 e4 bd 56 de fc 3d 72 a6 b0 bd 22 e5 66 be
       -0.111454725 0.12347095 -0.08625497 -0.22548345
0002f0 5e e5 5b bd 49 b2 c3 3e cb 5a 6c be f9 4f a3 3e
       -0.05368554 0.38221958 -0.2308151 0.31896952
000300 e4 66 bd bd 0d d5 83 bd a7 4a a3 be d1 8d e7 bc
       -0.092481405 -0.064371206 -0.31892893 -0.028265866
000310 92 e2 43 be 66 c5 93 3e 6a 4c be bc ff d8 b2 bc
       -0.19129398 0.2886154 -0.023229796 -0.021831987
000320 06 31 9d 3e 47 c5 34 bd 65 b5 81 3d 04 fe a7 bd
       0.30701464 -0.04413345 0.063334264 -0.082027465
000330 99 f9 9c bd 2a bc 57 be 59 5b c0 bd 8e 06 b4 3c
       -0.076647945 -0.21067873 -0.09392423 0.021975782
000340 0a ab 93 be b7 ec ac 3e 4a 92 e9 3e 9f 55 07 bf
       -0.2884143 0.3377435 0.45619422 -0.5286502
000350 90 f9 54 be eb 89 fd bc 4b 04 c6 3b 38 e0 0e 3e
       -0.20798326 -0.030949553 0.006042992 0.1395272
000360 10 71 a8 3e 6f 65 16 3e 44 59 70 3e 87 86 49 3e
       0.3289876 0.14687131 0.23471552 0.19680224
000370 f4 6e 26 bd 4e 76 94 be 99 c4 55 3e 33 0e 94 3e
       -0.040633157 -0.2899651 0.20875777 0.28917083
000380 1c 4c a6 3e 22 54 8e be d3 4f 6e be 6e 68 94 be
       0.32479942 -0.27798563 -0.23272638 -0.28985924
000390 cc e1 e9 be 07 af c4 3e 0c 4a e1 3c b0 e7 07 3f
       -0.45680082 0.38414785 0.027501129 0.530879
0003a0 c6 90 1f 3e 0a 59 50 bd 0f 10 19 3d dc 2c d9 3e
       0.1558257 -0.050866164 0.03736883 0.42417037
0003b0 b0 6c 87 be 41 ba e1 3d fb be 0c 3e c7 49 7f be
       -0.2645011 0.11021853 0.13744728 -0.24930488
0003c0 96 b1 cb 3e 2a 8b 95 3d 4d 60 7b be 6c 5b 29 3e
       0.39783925 0.07301934 -0.24548455 0.16538781
0003d0 12 90 ab be 08 50 dd 3c 7a 80 87 be 1e 19 17 3e
       -0.33508354 0.027015701 -0.26465207 0.14755675
0003e0 31 20 f7 3d 58 7b 01 bc 14 1f 3c 3e 72 d5 2b be
       0.12066687 -0.007902943 0.1837123 -0.16780642
0003f0 b1 77 2c be 80 e4 34 bf b4 5f 0c 3e 81 3c a4 3e
       -0.16842534 -0.70661163 0.13708383 0.3207741

linear1.bias f4 [256]
000000 33 10 b3 bd 00 c2 27 be b0 f0 14 be 44 bd 3f be
       -0.08743324 -0.16382599 -0.1454494 -0.18724543
000010 bd 21 3b 3e 83 36 be be 8f d2 9f be 6d e1 82 bd
       0.18274589 -0.37150964 -0.3121533 -0.06390653
000020 5c 78 f9 bd 3f 6a 06 3c f1 9d 0e 3e 1a a0 43 3d
       -0.1218116 0.008204042 0.13927437 0.047760107
000030 92 e9 95 3e 0d b6 3b be 69 1c c2 bd a8 65 07 3e
       0.29279763 -0.18331166 -0.09478075 0.13222373
000040 c0 dc d9 3e 81 a4 23 be f0 e5 01 3e 1a 68 1d be
       0.4255123 -0.15980722 0.1268537 -0.15371743
000050 a4 24 bb bd 34 b4 7f be b9 20 91 3d 3e 21 0a be
       -0.09137848 -0.24971086 0.070863195 -0.13489243
000060 79 0f 29 be 41 77 3a bc 7b 23 f8 3e 8e 52 f9 bd
       -0.16509809 -0.011380971 0.4846457 -0.12173949
000070 ea 78 8b be ba b1 56 bc db 9e 82 be 77 e9 ef bb
       -0.27240688 -0.013103897 -0.25511822 -0.0073215324
000080 95 f2 19 bd 1e 80 10 be 8f af ed bb 41 8b 50 3e
       -0.03758486 -0.14111373 -0.007253594 0.20365621
000090 8e ff 0e be 61 e5 f6 3d 8c a6 bc 3e 09 7b 46 3c
       -0.13964674 0.12055469 0.36845815 0.012114295
0000a0 94 ea 87 3e 6a 70 9e be 31 46 04 be fc 88 74 be
       0.26546156 -0.3094514 -0.12917401 -0.2388038
0000b0 23 99 e8 3d a3 8a 11 3e dd fc a4 be 24 25 40 3e
       0.113573335 0.14213042 -0.3222417 0.18764168
0000c0 c6 f8 5b 3e 0f 92 84 be c8 8e 35 be 2d 87 3b be
       0.21481618 -0.25892684 -0.17730248 -0.18313284
0000d0 1f 25 b2 bd 2e 28 b1 bd 12 71 a8 be 17 b3 ad 3c
       -0.086984865 -0.08650242 -0.32898766 0.02120356
0000e0 71 6f 4c be 20 af ec bd 45 e8 c8 3d b4 00 1d 3d
       -0.19964387 -0.1155684 0.09809927 0.03833075
0000f0 4c c6 e2 bb 04 ea 8c 3e fd c4 21 be b2 c8 86 3e
       -0.0069206115 0.2752229 -0.15797801 0.26324993
000100 56 65 c2 bc b9 a6 36 bd 20 03 89 3e 03 1b 58 be
       -0.023729961 -0.044592593 0.26760197 -0.21104054
000110 f9 c6 49 bd dc b4 8f bd a7 40 ba bb 51 dd 97 be
       -0.04926202 -0.07016918 -0.0056839767 -0.2966104
000120 46 84 38 3e 7a 8d d2 3e 1b 84 42 bd fc 67 86 be
       0.18019208 0.41123563 -0.047489267 -0.2625121
000130 0a fa 6b 3e e1 cf 82 3d 4e 5e a6 be 29 d0 15 3e
       0.23044601 0.06387306 -0.32493824 0.14630188
000140 47 d3 56 be 1f 0a 11 be 2a 9d ce bd 42 d3 e4 bb
       -0.20979033 -0.14164017 -0.100885704 -0.0069831917
000150 f6 2d d0 bc b7 d5 03 be f5 43 4f be d9 8c 7c be
       -0.02541254 -0.12874494 -0.20240767 -0.24663104
000160 5c 04 79 3c c5 b6 e4 bc 33 05 7f 3e d4 cb e3 3e
       0.015198793 -0.027919183 0.24904327 0.44491446
000170 65 75 6f 3d 52 f8 2d be 10 47 e0 bd fb 65 fe bd
       0.058461566 -0.16989258 -0.10951054 -0.12421795
000180 1c 9a 4b 3d af 26 d2 3d 0c 36 aa bc e8 b1 8f be
       0.049707517 0.102612846 -0.020777725 -0.2806542
000190 42 7b 56 be 21 c1 9f bd 10 3f 56 be e6 7d a8 bc
       -0.20945457 -0.07800508 -0.20922494 -0.020567846
0001a0 d6 dc 10 bc c6 00 a5 bd 61 4e 59 3d 1b 1b 0d 3e
       -0.008841714 -0.08056788 0.053053264 0.13779871
0001b0 d2 03 f5 3e f2 14 f1 bd 26 57 24 bc ba 0c 5f be
       0.47854477 -0.11771573 -0.010030543 -0.21782199
0001c0 fa 4c 3c 3e 1b e6 59 3e 56 11 1b be ab f0 22 be
       0.18388739 0.21279185 -0.15143332 -0.1591212
0001d0 07 4a be bd 8b 53 ff bd 5f 0f 05 be e7 92 c5 bd
       -0.09291463 -0.124671064 -0.12994145 -0.0964716
0001e0 59 ac 9f bd 11 90 d0 3b 9e 69 06 3e 13 7f f7 bc
       -0.077965446 0.0063648303 0.13126227 -0.03021196
0001f0 57 06 13 be 6c a0 9d bd 51 e9 bb be 87 90 b5 3d
       -0.14357887 -0.07696614 -0.36701444 0.08865457
000200 9a 26 e0 be 8c 4a 05 be f9 a7 bb 3c 48 ae f0 3d
       -0.4377945 -0.13016719 0.022907244 0.117519915
000210 e6 52 51 be 66 30 87 3d 81 46 a6 bc 9d bc 41 bd
       -0.2044178 0.06601028 -0.02029729 -0.047299016
000220 72 48 5a bd ef 8f 95 be 6c 1b fe bb 23 2c a2 3d
       -0.053291745 -0.29211375 -0.007754734 0.07918575
000230 3e 40 a9 3d 94 91 c6 3d c9 1e b8 bc af 04 9e be
       0.08264206 0.096957356 -0.022475617 -0.30862948
000240 7d f8 c0 3d f9 c4 70 bd 65 2f 16 3e 29 08 72 3e
       0.094223954 -0.058781598 0.14666517 0.23635925
000250 e6 96 0d be df 19 00 3e 5b ba 76 3e 2d dc e5 bd
       -0.13827094 0.12509869 0.24094526 -0.11223636
000260 ef 84 83 be 7c 66 6c be 79 0d e4 bd 17 79 0b 3e
       -0.25687358 -0.2308597 -0.11135382 0.13620411
000270 25 5f 05 be fd 04 2b 3f b0 7d 11 bd 15 95 62 3e
       -0.13024576 0.66804487 -0.035520256 0.22127183
000280 48 ad 19 3e dd 9c 9d be 46 a6 88 be fb f0 f5 3d
       0.15007508 -0.3078374 -0.26689357 0.12008854
000290 58 ad a7 bd 3a e9 91 bd 79 b2 c4 be 23 68 4d 3e
       -0.081873596 -0.071245626 -0.38417414 0.20059256
0002a0 48 f4 a2 bd 64 b1 88 be c2 30 21 3e 81 c1 fc 3d
       -0.07956749 -0.26697838 0.15741256 0.123415954
0002b0 90 05 aa be 69 b9 36 be 07 a2 21 3e ce ca 94 3e
       -0.3320737 -0.17844166 0.15784465 0.29060978
0002c0 96 23 35 be 0f e4 3d 3e fe 43 50 3e 9d 23 9c 3e
       -0.17689356 0.18544029 0.20338437 0.3049592
0002d0 45 fd 14 3d 81 c3 72 3e 7a 51 4d be e7 35 06 be
       0.03637435 0.23707391 -0.20050612 -0.131065
0002e0 67 1f 41 3d b3 7f 17 bd 19 ee 18 be 29 df 54 be
       0.04714909 -0.036987018 -0.14934577 -0.20788254
0002f0 3e b2 35 3e a0 5b 5d 3c 0b 4d 14 3e 95 2c 45 be
       0.17743775 0.013510615 0.14482515 -0.19255288
000300 38 d0 bf be e8 b3 73 be e2 b4 93 3e 38 0f 99 be
       -0.37463546 -0.23799098 0.2884894 -0.29894423
000310 f8 c0 10 be 62 7e dc 3e 22 eb 82 be 40 71 93 bd
       -0.14136112 0.43065172 -0.25570017 -0.07199335
000320 86 18 c9 bd 75 f7 ab be 0c 19 a1 3d 0c 08 5e be
       -0.098191306 -0.33587232 0.078661054 -0.21682757
000330 f2 19 8a 3c a6 b2 26 3d d4 a3 d6 bd a8 f9 47 bb
       0.016858075 0.040697716 -0.104804665 -0.0030513797
000340 71 d8 eb 3d 00 21 50 be d1 3e ba bc 68 98 01 3d
       0.11515892 -0.20325089 -0.022735031 0.031639487
000350 02 93 44 bd 9a 34 34 3e 70 4c db be d5 4c 78 bd
       -0.04799176 0.17598191 -0.42831755 -0.060620148
000360 ef 21 00 be 76 1c 49 bc 67 17 04 3e 65 1f 80 be
       -0.12512945 -0.012274852 0.12899552 -0.25023952
000370 0c 16 99 3e a1 8b c7 bd ca 65 be be 66 24 c8 3e
       0.29899633 -0.09743429 -0.37187034 0.3909027
000380 04 a6 83 bc ad b0 16 bd 63 90 90 bd b8 10 f8 bd
       -0.016070373 -0.036789585 -0.070587896 -0.12112564
000390 e6 b0 3f be ff 82 9f be de ac 95 3c ec 41 1b 3e
       -0.18719825 -0.3115463 0.018270906 0.15161866
0003a0 73 2c 8c be 5b 25 0a 3d 0d 7a 9f 3d 30 a2 da 3d
       -0.27377662 0.03372703 0.07786951 0.10675466
0003b0 6b 6f 7b be 9b 93 71 be 70 3d a8 3e ac 9b e7 3d
       -0.24554221 -0.23591463 0.32859373 0.11308989
0003c0 52 32 7e 3e b9 d9 9b be df c7 82 3e b8 bd 1e be
       0.24823883 -0.30439547 0.25543115 -0.1550206
0003d0 0b 41 ae 3d fa 1d 9c 3e 67 e1 43 bc 84 6d dd bc
       0.085085 0.3049162 -0.011955596 -0.02702976
0003e0 d7 d0 69 bd 54 76 2c 3d 3b 6b 1d be 1a 81 d4 be
       -0.05708393 0.042105034 -0.15372936 -0.41504747
0003f0 97 f3 b1 bd af a7 45 be 52 8c 6f bd fd 86 4b be
       -0.08689039 -0.19302247 -0.05848343 -0.19875713

linear2.weight f4 [3, 256]
000000 4d d2 f9 bd 08 2e 34 bd 87 cc a0 be be 60 40 be
       -0.12198315 -0.04398921 -0.31406042 -0.18786904
000010 9f 0b 7f 3e 3c 6d a3 3c 90 a7 ad 3b 83 c9 28 bd
       0.24906777 0.019949548 0.005299516 -0.0412078
000020 87 b0 0d be 36 c9 18 be 45 2a 5b 3e c9 40 dc 3c
       -0.13836871 -0.14920506 0.21402843 0.02688636
000030 76 ba 75 3e b5 40 71 3e 52 ae 8b be cd c0 00 3f
       0.2399691 0.2355984 -0.27281433 0.5029419
000040 3e c8 46 3e ab 45 d8 3d 29 f5 05 3c f6 87 52 be
       0.19412324 0.10560163 0.0081761265 -0.20559677
000050 26 84 83 be 9f 96 d4 be 72 b8 90 bd 15 bc 05 3e
       -0.2568676 -0.41521165 -0.0706643 0.13060029
000060 a6 2e c8 bd ff f3 2c 3d a8 29 8b 3e e7 e3 4a be
       -0.097745225 0.04222488 0.2718022 -0.198135
000070 5f 84 a9 bd 54 e0 3e be e6 13 f3 be f8 7f e5 3e
       -0.08277201 -0.18640262 -0.4747612 0.44824195
000080 87 ea 90 be d7 2d e0 be 00 72 04 bd 90 61 0e 3e
       -0.2830393 -0.43784973 -0.03233528 0.13904405
000090 02 73 d2 bc c1 03 51 3d 98 ae ff 3e 48 35 03 3d
       -0.025689606 0.05102897 0.49937892 0.032033235
0000a0 fa 66 17 3e b6 b0 00 be a7 19 0f bf 24 67 7b be
       0.14785376 -0.1256741 -0.5589852 -0.24551064
0000b0 9a d3 e1 3e 77 54 cc be 5e c5 b2 bc 66 ea b5 3e
       0.44106752 -0.39908192 -0.021822628 0.35530394
0000c0 69 c2 cf 3e 7b e6 28 be 44 fa 90 be cf 5b 2f be
       0.4057801 -0.16494171 -0.28315938 -0.17124866
0000d0 5d 4b 7e 3e c7 9b b6 be a1 7d 06 be 21 69 84 3e
       0.24833436 -0.35665724 -0.13133861 0.25861457
0000e0 1e b2 33 3e 4c 3c 51 be 07 f8 40 3e 50 55 82 3e
       0.17548415 -0.20433158 0.18844615 0.25455713
0000f0 54 0f dc 3e 80 e1 7a 3e 08 86 52 bc ca e2 0a 3f
       0.42980444 0.24500084 -0.012849338 0.542523
000100 b9 37 bf 3c ee 51 01 bf 61 b9 98 3e f4 6d d1 be
       0.023342 -0.5051564 0.29828933 -0.409042
000110 99 d5 ce 3d 4e 05 6a be 5e 4c b5 bd d7 70 3f be
       0.10099334 -0.22853586 -0.088524565 -0.18695389
000120 87 4f 1b 3e 58 d7 bc 3e d4 5d 92 bc bf 89 77 be
       0.15167056 0.36883044 -0.017867006 -0.2417364
000130 f2 1c d8 3d 84 8b 62 3e ee a9 a4 be a8 b1 1f be
       0.10552396 0.22123533 -0.32160896 -0.15595114
000140 9a 54 5d 3e 04 8e af be 87 3b 85 be 27 39 6f be
       0.21614304 -0.34288037 -0.26021978 -0.23361646
000150 ad 7b 60 bd c4 f4 0d be d4 c1 43 be 9e 02 2b be
       -0.054805446 -0.13862902 -0.19116908 -0.16700217
000160 1c b4 b3 be db 1b d6 3c a8 a4 cc 3e 24 00 81 3e
       -0.3509835 0.02613633 0.39969373 0.2519542
000170 86 0a c0 be a6 37 fb bd 65 17 21 be 50 3e 2d be
       -0.3750803 -0.122664735 -0.1573158 -0.16918302
000180 a8 1c ff 3d 2c c4 0e bf 19 4a fa 3b 2c 2c 75 bd
       0.124566376 -0.55768085 0.0076382277 -0.05985658
000190 b0 cf 0f be c3 75 aa be 92 10 03 3d 5b 69 d7 bc
       -0.1404407 -0.3329297 0.031998225 -0.026295355
0001a0 ea 75 47 bd bc b7 04 3e b7 32 b8 be 66 f1 8b be
       -0.048696436 0.12960714 -0.35976192 -0.2733261
0001b0 e7 48 16 3e 0c 59 eb bd fe d3 45 3e 54 aa 37 be
       0.14676248 -0.11491594 0.1931915 -0.17936069
0001c0 6f 51 cd 3d 28 e4 7d 3e 20 f3 cb 3e 71 13 26 bd
       0.10025298 0.24794066 0.39833927 -0.040545885
0001d0 fc 89 d0 bd 0a ee 95 bd 7c dc a7 3e d2 c2 27 be
       -0.101825684 -0.07320793 0.32785404 -0.16382912
0001e0 99 ec 22 be a0 dd cf be ea 70 8b 3e c9 ff da bd
       -0.15910567 -0.40598774 0.27234584 -0.106933184
0001f0 4f c6 91 be af 6a 8e 3d e8 74 28 3d 4b e4 2f 3e
       -0.2847161 0.06953942 0.041127115 0.1717693
000200 23 c4 d7 3d 5f 40 9f bd c8 a3 46 bd 94 f7 cf be
       0.10535457 -0.0777595 -0.048496038 -0.40618575
000210 64 77 cb be 93 10 24 3d c5 94 ea be 58 73 d7 b9
       -0.39739525 0.04005487 -0.45816627 -0.00041093933
000220 88 67 c0 be 54 9a 3b be 28 6a 9e be e4 8b 99 3d
       -0.37578988 -0.1832059 -0.30940366 0.07497385
000230 0a 82 4a 3d 46 80 7c 3d 3e 57 25 3e f7 ac 12 3c
       0.04944042 0.06164577 0.16146562 0.008952371
000240 2b fd 0f be 86 31 35 3e 0c fe 54 3d 7d b2 ad 3e
       -0.1406142 0.17694673 0.05200009 0.33925238
000250 b6 b3 ca be ae 45 f2 bd e9 8e 9f 3e a8 c0 97 be
       -0.39590234 -0.118296966 0.3116372 -0.29639173
000260 d5 d0 ef bd e4 11 99 be e3 22 9d 3e 3d b5 3b 3e
       -0.117097534 -0.29896462 0.3069068 0.18330856
000270 79 6c ba 3c ae a8 4a 3e 4a 3b 8e 3e 07 7d bc 3e
       0.022756802 0.19790909 0.2777961 0.36814138
000280 7d 0e fd 3c 33 4b 91 3d e3 9d bc bd 9b c0 d0 bd
       0.030890698 0.07094421 -0.09209802 -0.101929866
000290 be 3c b7 be 9d 7a 26 bf 6d 23 a2 be da b0 ad 3c
       -0.3578853 -0.65030843 -0.31667653 0.021202493
0002a0 b2 e5 0e bf 86 4e ca be 9f 3a 7a 3e 74 24 bf 3d
       -0.5581924 -0.39513034 0.24436425 0.09333125
0002b0 89 2f 76 be 62 87 09 3e 69 bd 64 3e cf 26 80 3e
       -0.2404157 0.1343055 0.22337879 0.2502961
0002c0 87 60 b8 3d e4 29 60 3e 43 48 13 3e cc 9c 6e 3e
       0.09002786 0.2189098 0.14383034 0.23302001
0002d0 1f 52 2d be ab bd 28 3e 38 fc 2a bd 3e 7c 7e be
       -0.16925858 0.16478603 -0.04174444 -0.24852082
0002e0 d9 a6 d7 be 19 ee 55 be 97 f2 b1 bd ec 74 a1 3e
       -0.42119482 -0.20891608 -0.086888485 0.31534517
0002f0 19 74 46 3e 80 20 c9 be 0e b2 b9 3d ea ea 3e be
       0.19380225 -0.39282608 0.09067164 -0.186443
000300 09 52 57 bc 8e 9e 99 bd e6 2b ad 3e d8 ca 55 bd
       -0.013142117 -0.07500945 0.33822554 -0.0521954
000310 30 02 29 be f0 0f aa 3e b4 f8 4b be bf 4d a2 be
       -0.1650474 0.33215284 -0.19919091 -0.3169994
000320 c0 38 c6 be 5b 86 a6 be 50 c9 fe 3d 90 4e 27 be
       -0.38715172 -0.3252438 0.12440741 -0.16338563
000330 56 63 9f 3e ab 3f 9a be b4 cf 07 bf b4 52 84 3e
       0.31130475 -0.301267 -0.53051305 0.25844347
000340 6c b4 a7 3e 8e 45 72 bd d4 93 5a bd e4 e8 00 3f
       0.32754838 -0.059148364 -0.053363636 0.5035536
000350 da 24 9a 3e 61 36 01 3f 58 55 4c be 8b d1 56 3c
       0.3010624 0.504736 -0.19954431 0.013111482
000360 cc 21 ee 3d bf 13 b9 3e 23 51 9c 3d f4 9c b6 bc
       0.1162754 0.36147878 0.07632663 -0.022291638
000370 4c 75 d5 3e 28 03 40 bd 62 5a 3e bd 84 fe 19 3e
       0.41691053 -0.04687801 -0.046472915 0.15038496
000380 fc 14 c4 3b 00 29 39 3e 72 ef 90 be 3f 37 a0 be
       0.005983947 0.18082047 -0.28307682 -0.3129215
000390 4d ef 08 bc 71 f0 15 be bb 0a f2 3e 85 05 85 3e
       -0.008357835 -0.14642502 0.47273812 0.25980774
0003a0 15 8b 6c be 58 cd c7 bd 92 ed 37 3d 1b a8 87 be
       -0.2309993 -0.09755963 0.0449043 -0.26495442
0003b0 ec 03 b8 be e6 7d a4 be 10 04 63 3d c4 7c b3 3e
       -0.35940492 -0.32127303 0.055423796 0.35056126
0003c0 4f 22 2c 3e ba e7 4e be f2 bf 39 3e 57 fb 0b 3e
       0.16809963 -0.20205584 0.18139628 0.13670097
0003d0 95 27 c2 bd ab 49 cb 3e 31 b4 fc 3c b6 75 ae 3e
       -0.09480206 0.39704642 0.03084764 0.3407418
0003e0 52 9c 26 bd 9b e1 cb 3e 57 f1 f6 be cd 01 a5 be
       -0.040676422 0.3982056 -0.48231003 -0.32227936
0003f0 6e 26 02 be e2 63 1f 3e 94 65 08 bd f5 a8 01 3e
       -0.12709972 0.15565446 -0.033299997 0.12662108

linear2.bias f4 [3]
000000 5f ce 1e 3e 69 22 a9 3d a8 a3 aa bc
       0.15508412 0.08258516 -0.02082999
