ReInforcement/snake/model/model_g118_s64.pth (torch, 17033 bytes, 4 tensors)

linear1.weight f4 [256, 11]
00000000: d434 a9be 08dd eebe 01ea 8c3e 2039 c03d
00000010: 3ec7 9ebe 5367 ae3d 15ca c53d 2549 e6bc
00000020: bcf3 ae3e c5f2 9a3e 71e8 05be 631f db3d
00000030: 23ab f13d f906 063e c410 84be a93b b13d
00000040: d718 abbe 833b 663e dc09 a8be 9b3d a73e
00000050: 8260 9f3e 539e c4bd ee62 913c 97b2 1b3e
00000060: feea 123f 79dc 8bbe cc19 143e 689e 3f3e
00000070: 7474 8ebe d57e c03e 335a ec3c 2d35 1ebe
00000080: 0293 c03e bb10 ad3e 3068 10bf 8b06 143f
00000090: 7deb 1fbe a9c2 bb3d bb70 613e 9f92 8bbe
000000a0: 1dfe 2a3b f4ba 03bd fbe4 5fbe 4521 ad3e
000000b0: bcdb 18bf f193 ea3e 22cb 693d 9966 943e
000000c0: 0394 6d3e 85d6 f5be a0fe c9bd 1087 d2bd
000000d0: 89a8 ad3e d64b c9be daf2 ebbe 899a a23d
000000e0: db4f 46bd be22 b13d 5169 65be 990f 35bc
000000f0: 2e45 a63d 1207 9ebd f162 f0bc 60e1 a6bb
00000100: 9b10 943d 63c0 86be 0a2d 5cbe 8239 c7bd
00000110: 4048 d9bc 0cba 58bd 6d23 193e 3817 2f3d
00000120: 1898 1fbd 2f0f 163e 6a0a 74be bf25 aebb
00000130: a61a 99be c408 703d 07ad 91be b7e6 823e
00000140: b202 943d 5965 9ebd 7436 a6bd 4876 8ebd
00000150: a8fc 803e a63d 163e f4c7 bc3d 2011 c53d
00000160: d8f4 03be 02fe 04be 96fe 8bbe 1212 9e3e
00000170: 2405 d8be 66a9 e93d ea18 3dbe 9797 73be
00000180: 9120 5abd 43d6 46be da0a df3e b11f 903e
00000190: 3b27 c83e ae1b 02bf 6bc7 dfbd 12cc 86be
000001a0: dc84 9fbe 5b51 5bbd 8f39 423d 14bf a73e
000001b0: 7f0d a13e 5e0f 923e ebec 6b3e 493f e9be
000001c0: 4482 79be 4c82 30be 3086 b13e 77d2 563e
000001d0: b05b 81be 03a6 efbe 181c 4a3e c2b3 953e
000001e0: a678 d6bd b792 83be da59 c63e 567d 073f
000001f0: 8320 8fbc 85e5 e03d 424e 473e c38c 653d
00000200: d645 803e 259d 9a3d 8378 2cbb 7878 153e
00000210: e2df f3be 9456 9e3e a6ae 033f daf6 b7be
00000220: 5cc8 403e e8ef 7d3d 077e 173e 8a6d d5be
00000230: 6117 233d b92c ae3e c423 fd3d 535c a5be
00000240: 55c3 4a3e 9c48 553e 3987 ae3e 36c9 60be
00000250: a452 89be 9930 a3be 4073 f53d 4acb 69be
00000260: dd73 bfbb a937 dcbe d77c bcbe f56a 193e
00000270: 96fb 71be 30ea 073e 9d8d 4abe 5a45 c1be
00000280: b82a cbbe 1c1a 47be 2308 c4bc ba52 4b3e
00000290: 2980 603e 9ae5 3dbe e0f8 063d f4f0 c83d
000002a0: 6fc9 a83e 3ef3 cebe 5c15 01bf 0ac1 0f3f
000002b0: b45f 713e 32f4 4ebf 2b57 27bf 044f 4cbe
000002c0: 2fa1 a0be 923e 163f 8d87 f4be 07a9 083e
000002d0: 1121 683e 9269 943e cb9a b8bd 0500 9ebc
000002e0: b37a ecbd cf17 e73d 9c65 8fbd 4a6f 7fbe
000002f0: 021c bdbd 986a 963e 2738 7dbe 1b6f b23e
00000300: 8f87 aebd 02b1 83bd 54e4 c6be 240f 9ebd
00000310: edfd 99be 526b b13e 7d36 11bd cf06 10bc
00000320: 97b1 473e dcc5 71bd 70f3 9c3d 69e2 c1bd
00000330: 35d9 ebbd 1121 94be 11e6 a3bd d34a 0c3d
00000340: a34d a2be 4776 b73e 0cc5 de3e 336c 12bf
00000350: 0fd1 80be da75 3abc aeea a93c c1d4 d23d
00000360: 03f8 b23e 013e 313e e018 583e cfe9 533e
00000370: be51 9fbc 48ed b6be fd9d 353e afd9 9d3e
00000380: c880 bf3e 7121 a6be f276 8abe 3e5a b9be
00000390: a2b3 f2be bf01 c93e 492f aa3d f75e 0f3f
000003a0: 44ea 243e 378c 773d 2e6a 1b3c 1c7b e93e
000003b0: bd20 83be 4727 153e 8de1 433e d951 70be
000003c0: e30f d33e cf9c ca3d 816f 9dbe 8a49 d93d
000003d0: 8bf3 8ebe 21c7 f63a 0e26 87be 2cea ef3d
000003e0: d161 e43d 83a7 0e3c d28f 023e 195c 51be
000003f0: 337a 3fbe 4b7c 35bf 8a2b b73d 08ff 8d3e
-0.33048117 -0.46653008 0.2752228 0.09385896 -0.31011385 0.08515801 0.09657685 -0.02811105
0.3417033 0.30263343 -0.1307695 0.10699346 0.1180022 0.13088597 -0.2579404 0.086539574
-0.3341739 0.2248364 -0.32820022 0.3266419 0.31128317 -0.096005104 0.017747369 0.15204845
0.5738982 -0.27316645 0.14462966 0.18712771 -0.27823222 0.37596765 0.028851604 -0.15449972
0.37612158 0.33801827 -0.5640898 0.57822484 -0.15617175 0.09167988 0.2201566 -0.272603
0.0026091405 -0.032160714 -0.21864693 0.33814445 -0.5971029 0.45815995 0.05707849 0.28984526
0.23200993 -0.48015228 -0.09863019 -0.102796674 0.33917645 -0.3931567 -0.4608372 0.079396315
-0.048416 0.08649205 -0.22403456 -0.011051082 0.08118664 -0.07716192 -0.029344054 -0.0050927848
0.0722973 -0.26318654 -0.21501556 -0.097277656 -0.02652371 -0.052911803 0.1495492 0.042746753
-0.038963407 0.1465423 -0.23832098 -0.0053145583 -0.29903144 0.05860211 -0.28452322 0.25566646
0.072270766 -0.07734174 -0.08115855 -0.06956154 0.2519276 0.14671955 0.092178255 0.09622407
-0.12886369 -0.12987521 -0.2734267 0.30873162 -0.42191422 0.11409263 -0.18466535 -0.23788296
-0.053253714 -0.19417672 0.43562967 0.2814918 0.3909243 -0.50823486 -0.10926708 -0.26327568
-0.3115605 -0.053544383 0.047418173 0.3276297 0.3145561 0.2852735 0.23039596 -0.45556095
-0.24366099 -0.17237204 0.3467269 0.20978723 -0.25265265 -0.46806344 0.1973728 0.29238707
-0.104722306 -0.25697872 0.38740426 0.5292562 -0.017471557 0.109812774 0.19463447 0.056042444
0.2505328 0.07549504 -0.0026316948 0.14596736 -0.47631747 0.3092543 0.5143837 -0.3593052
0.18826431 0.06199637 0.1479417 -0.41685134 0.039817218 0.34018496 0.123603374 -0.32297
0.19801076 0.2082848 0.34087542 -0.21951756 -0.26820862 -0.31873015 0.11984873 -0.22831455
-0.0058426694 -0.43011215 -0.36813995 0.14982207 -0.23631129 0.13272929 -0.19780584 -0.37748224
-0.3968103 -0.19443554 -0.023929661 0.19855776 0.21923889 -0.18544617 0.03295219 0.09811583
0.32966182 -0.40419954 -0.50423217 0.5615393 0.23571664 -0.8084136 -0.6536738 -0.19952017
-0.31372973 0.58689225 -0.47759667 0.13345729 0.22668864 0.28986794 -0.090138994 -0.019287119
-0.115468405 0.11283838 -0.07001802 -0.24944797 -0.09233858 0.293782 -0.24728452 0.34850392
-0.085219495 -0.06430246 -0.38846076 -0.077177316 -0.30076542 0.3465219 -0.035452355 -0.008790686
0.19501339 -0.059026584 0.076636195 -0.094670124 -0.11516038 -0.28931478 -0.08002866 0.034251045
-0.31699857 0.35832426 0.4350971 -0.5719635 -0.251595 -0.011380637 0.020741787 0.10294486
0.34954843 0.17308809 0.21103239 0.2069466 -0.019448157 -0.35727906 0.17736049 0.30830142
0.3740294 -0.3244739 -0.27043873 -0.36201662 -0.47402674 0.39259145 0.083098 0.5600428
0.1610499 0.060436454 0.009485764 0.45601737 -0.25610915 0.14565764 0.1912901 -0.23468722
0.41223058 0.0989319 -0.30749133 0.106097296 -0.27920184 0.0018827656 -0.2639622 0.117145866
0.111514695 0.00870693 0.12750176 -0.20445289 -0.18698959 -0.7089278 0.08943851 0.27733636

linear1.bias f4 [256]
00000000: 891e c7bd ff02 24be ae32 2dbe 33ce 6dbe
00000010: 8793 2c3e 8336 bebe 8fd2 9fbe cd31 06be
00000020: 6e38 f9bd b829 c4bc c37b 633e 78e4 483b
00000030: fde9 9e3e a087 4ebe 35bf 26be c68c 143e
00000040: 5974 f63e a743 0abe 2062 c63d 5d02 3dbe
00000050: 47df 81bd 2256 68be 2aa9 d93c 2931 10be
00000060: b824 24be d1d3 983b cfb6 1b3f c520 0cbe
00000070: d511 9ebe edb3 babd 19b8 8fbe 8334 c43b
00000080: d004 86bd 32ba 0dbe a597 95bd 22ba 3b3e
00000090: df9a 20be 3348 f73d 8964 d73e b55d 9bbc
000000a0: 3804 993e 6a70 9ebe cc0c eebd 43ae 82be
000000b0: ad76 073e 64cf 003e ddfc a4be cbb4 6f3e
000000c0: 73f2 7a3e c92f 75be 1e66 09be baa5 4bbe
000000d0: b6fa 08be b2a8 89bd c3c1 adbe a66e 453c
000000e0: 4fba 57be fd81 11be 0f75 d83d 91a9 393d
000000f0: 9fb0 0abc ea2c 9b3e fdc4 21be 0beb a63e
00000100: db72 a7bd b10a cebc bd0b 8c3e 79ed 51be
00000110: 983b 74bc 81db 7cbd 078e 8cbd 1683 bdbe
00000120: fec5 553e a356 fc3e a621 adbd 4ddd 99be
00000130: 54b3 8f3e ece7 7f3d cdf7 a5be 30e7 da3d
00000140: 9dc9 59be 449e 00be 6909 06be a3e6 00bd
00000150: 1613 aebd 4679 24be 8c4a 54be c012 8cbe
00000160: 5c66 2a3b 2fd7 51bd e6b7 8e3e 80b4 053f
00000170: 7932 553b c739 6bbe f13f 08be 3f46 b0bd
00000180: d66c 7b3d 3cde 403d 480f f5bc e8b1 8fbe
00000190: 6c4a 66be 2532 2cbd 103f 56be b8dc a7bd
000001a0: 143a f1bc 5c31 59bd 6d91 823d bfaf 9a3d
000001b0: 99ee 2e3f fd6f 0dbe 6ccf 333d 08b6 80be
000001c0: d089 6a3e a0bf 773e 20d2 06be d124 4dbe
000001d0: 4525 d9bd a09b 0fbe d118 eebd c4e8 b9bd
000001e0: 7c24 b4bd b3ae d3bd 0dcd 4b3e 7463 46bd
000001f0: c708 2dbe 77fc 8cbd 746d cebe 61d6 293e
00000200: 9a26 e0be 51d0 11be d713 8e3b d294 ef3d
00000210: e2b2 7cbe 00e2 903d fa59 1bbd ccda 1fbe
00000220: a958 adbd dc98 afbe fa18 b2bd 37c2 dc3d
00000230: 443c 933d 18b5 c63d a48b 08bd fce5 a6be
00000240: c4ce a23d d900 38bd 91d9 f73d 729e 773e
00000250: c8ed e4bd aae5 de3d eaf4 9a3e f41c febd
00000260: b54b 99be 21a2 85be 9177 bdbd cd4d 283e
00000270: 1507 09be 2c70 523f 4709 5abd 9aa0 653e
00000280: 56f4 563e dd9c 9dbe b7e5 b7be f326 e53d
00000290: 0297 b2bd a5f0 7dbd e27c dfbe a437 663e
000002a0: 72a8 82bd a4c4 8dbe 42cd 373e 14bd d63d
000002b0: 4d32 acbe ed2f 11be 898b 203e f79c ad3e
000002c0: 5209 3ebe a3c8 4a3e 8997 833e 7e41 b03e
000002d0: 3a05 b63c 93d3 763e d269 6cbe 0ab9 16be
000002e0: 2f9d 403d c813 52bd e761 51be f1d7 63be
000002f0: 5b7e 263e eeef 2d3a 3d14 2e3e b51a 68be
00000300: 38d0 bfbe 6e77 8bbe 60ea c03e 380f 99be
00000310: 2c59 f6bd e311 043f 17fc 79be 129e d1bd
00000320: 0391 d1bd 48bc aabe a38d cf3c f603 79be
00000330: 7d91 363c f61c 833d 317e 94bd 4953 903c
00000340: e4e0 fd3d a67d 5ebe f64a 09bd f9bc 5a3d
00000350: 8a9c 99bd 831c 4e3e 8919 dabe 00c9 8abd
00000360: 3451 c0bd 8334 e1bc 36b3 273e 651f 80be
00000370: dddc ad3e 4d74 2abe ca65 bebe 8f3e 123f
00000380: c6dd e9bc 61cd 2fbd 1242 fabd 8478 09be
00000390: 1892 31be 2b7a abbe 91fa 343d 000c 2a3e
000003a0: 0bde 74be 3426 2a3d 9ef8 653d dc64 ff3d
000003b0: 61d9 8cbe 3b8f 79be 32bb b63e 7dbb eb3d
000003c0: b0bd 9d3e 092a a4be 2994 753e c49c 04be
000003d0: f51b bc3d 8cfb af3e 48b6 62bc 6f52 0ebc
000003e0: 401a 19be 6c08 873d b4a7 17be 518b d6be
000003f0: a130 d0bd dfcd 08be 3cec d2bd 94e2 42be
-0.09722621 -0.16016768 -0.16913864 -0.2322319 0.16853152 -0.37150964 -0.3121533 -0.13104935
-0.12168966 -0.023945674 0.2221518 0.0030653756 0.31037894 -0.20168924 -0.16283877 0.14506826
0.4813564 -0.1350237 0.096866846 -0.18457933 -0.06341415 -0.22689107 0.026569922 -0.14081253
-0.16029632 0.0046639224 0.6082582 -0.13684376 -0.3087298 -0.09116349 -0.28070143 0.005987705
-0.06543887 -0.13840559 -0.073043145 0.18332723 -0.15684079 0.12074318 0.4206889 -0.018965581
0.2988603 -0.3094514 -0.116235346 -0.25523576 0.13228865 0.12579113 -0.3222417 0.23408811
0.2450655 -0.2394401 -0.13417861 -0.19887438 -0.13376889 -0.06721629 -0.3393689 0.012050306
-0.21067165 -0.14209743 0.10569202 0.045327727 -0.008464961 0.30307704 -0.15797801 0.326012
-0.08176204 -0.025151582 0.27352706 -0.20500745 -0.014906786 -0.061732773 -0.06863027 -0.37014073
0.2087631 0.4928485 -0.084536836 -0.30051652 0.28066504 0.062477037 -0.3241562 0.10688627
-0.21268316 -0.12560374 -0.13089527 -0.031469952 -0.08499734 -0.16061887 -0.20731562 -0.27358055
0.0026000952 -0.051230606 0.27874678 0.52228546 0.0032531305 -0.22971259 -0.13305642 -0.086071484
0.06138309 0.04708694 -0.029914513 -0.2806542 -0.22489327 -0.04204001 -0.20922494 -0.08196396
-0.02944664 -0.05302559 0.06375394 0.07553052 0.6833282 -0.13812251 0.043898985 -0.2513888
0.22904134 0.24194193 -0.13166094 -0.20033576 -0.10602812 -0.1402421 -0.11625827 -0.090776
-0.08796021 -0.103360556 0.1990244 -0.04843469 -0.1689788 -0.06884091 -0.4031788 0.16585685
-0.4377945 -0.14239623 0.004335861 0.11698307 -0.24677613 0.07074356 -0.037927605 -0.15610808
-0.08464176 -0.3429631 -0.0869617 0.10779231 0.07189229 0.0970251 -0.033336297 -0.3259734
0.07949594 -0.044922683 0.121020444 0.24181536 -0.11178166 0.10883649 0.3026498 -0.12407866
-0.29940572 -0.26100257 -0.09251321 0.16435929 -0.13381608 0.8220241 -0.053231504 0.22424546
0.20991644 -0.3078374 -0.35917446 0.111890696 -0.08720209 -0.061997075 -0.43649966 0.22482163
-0.06379785 -0.27689087 0.17949393 0.104852825 -0.33632126 -0.14178438 0.15678228 0.33908817
-0.18558243 0.198031 0.2570155 0.34424967 0.02221929 0.24104147 -0.23087242 -0.14719024
0.047024902 -0.051288396 -0.20447503 -0.22250344 0.16259138 0.00066351786 0.16999908 -0.22666438
-0.37463546 -0.27239555 0.37678814 -0.29894423 -0.12028727 0.5158979 -0.24412571 -0.10235228
-0.10232737 -0.33346772 0.025336092 -0.24317917 0.011143086 0.06402008 -0.072506316 0.017617838
0.1239641 -0.21727619 -0.033518754 0.053402875 -0.075005606 0.20128064 -0.42597607 -0.06776619
-0.09390488 -0.02749086 0.16376957 -0.25023952 0.33957568 -0.16645928 -0.37187034 0.57126707
-0.028548133 -0.042920474 -0.12219633 -0.1342488 -0.17340887 -0.33491644 0.04418427 0.1660614
-0.23912828 0.04154034 0.056145303 0.12470409 -0.27509597 -0.24371044 0.35689694 0.1151037
0.30808783 -0.3206332 0.239823 -0.12950426 0.0918502 0.34371603 -0.013837405 -0.008686646
-0.1495142 0.06593403 -0.14810067 -0.41903165 -0.10165525 -0.13359784 -0.102989644 -0.19031745

linear2.weight f4 [3, 256]
00000000: 00c8 8cbd 0dfe 5abd 4247 9dbe 0c50 13be
00000010: 4f6b 883e 3c6d a33c 90a7 ad3b 273b 02bd
00000020: 43cc cebd abed ffbd d220 673e 7dc4 ec3c
00000030: 51cb 883e 953c 813e 8ca0 17be 40b0 003f
00000040: 6bb2 4d3e 46f7 1c3e 29d8 12bc abbd 3ebe
00000050: a6ab 7dbe 9d67 dfbe e017 c2bc 1d94 043e
00000060: 6abc c8bd 2a1f aa3d 2c19 983e 7429 53be
00000070: 80aa a7bd 8522 35be 1afc e7be 056a ef3e
00000080: df19 98be 9ae9 c4be c4ce 90bc a63f 203e
00000090: b664 09bd 0fd3 d03d 4236 013f 0c98 7d3d
000000a0: acee 383e b6b0 00be 7b6d 01bf e6c3 7fbe
000000b0: bd64 003f e171 d1be 5ec5 b2bc 5e91 b43e
000000c0: 8640 d63e d15b f9bd 6d18 76be e6a0 3dbe
000000d0: 2ddc 823e 03f6 b8be 4c7d 1fbe 4c84 873e
000000e0: 65da 073e 741b 56be 6f28 463e 18aa 7a3e
000000f0: f55b fa3e 4c33 7b3e 0886 52bc 3118 0e3f
00000100: 6b7f 803c c8bd ffbe ebee 9a3e 3249 d0be
00000110: 9054 de3d 417a 6ebe 8d28 19bd 7d74 08be
00000120: 65fd 313e 68c6 d43e 98ef 873b 5ec3 70be
00000130: 51f8 083e a159 6c3e 28c5 adbe a951 09be
00000140: 3d7c 503e 80ad b0be 13ac 55be 5ff2 22be
00000150: b4f9 68bd 1523 e1bd e21a 48be 7b7d 0abe
00000160: 4cc8 c4be 48e3 f93c 4799 e13e 4e09 943e
00000170: 43c2 b5be a1ec c0bd 84c5 17be b080 03be
00000180: f89d 123e 7618 02bf 33ee a7bc 2c2c 75bd
00000190: bfaa b2bd 6e9b bfbe 9210 033d 1a97 5d3d
000001a0: 0700 7fbd 0348 053e 2150 53be b3d3 b1be
000001b0: 6685 3b3e 28da 98bd 3427 553e d67f 0bbe
000001c0: 2820 d43d facf 953e d0e8 eb3e 3b31 4fbd
000001d0: 9882 a6bd 9b90 bcbd 97e0 c33e 01ea 29be
000001e0: 7d9d 15be bb9f a8be 4321 8f3e 8baf 4ebd
000001f0: 7f2a 72be 1388 0e3e 81a1 8e3c 7873 693e
00000200: 23c4 d73d 7bee 7cbd 9443 f1bc 5e35 d5be
00000210: 99c7 b1be c128 3f3d 45d0 ebbe 5340 4d3c
00000220: f74a b3be 64ac 22be cd82 9abe a3b4 e03d
00000230: 3a6c a83d e7e3 983d de46 273e f7ac 123c
00000240: 1f26 34be edf2 513e d063 823d 910e b13e
00000250: 2d09 9dbe 6446 4fbd 33b3 a73e d4d0 94be
00000260: 691d fdbd 7a4b a1be 4de4 b13e 66bf 673e
00000270: 8bd0 783c 0c09 713e 57e3 8b3e f0a7 dd3e
00000280: ff69 3a3d 334b 913d bcf9 c8bd 157e b3bd
00000290: 0b29 abbe c319 27bf 8369 acbe 4a27 a23d
000002a0: 4f4f 07bf 022b bebe 667f 8a3e f22f f93d
000002b0: 8409 7cbe ecd6 153e 6476 663e eea8 833e
000002c0: a596 083e e4c7 7d3e 4b18 2d3e d6c8 6f3e
000002d0: c4a7 adbd b823 293e 3b96 22ba ba33 6cbe
000002e0: eed5 e0be 717c 81be 08d2 8dbd 2636 a83e
000002f0: 2da0 3e3e ddef d9be fadd 0f3e 1f54 31be
00000300: 0952 57bc 74a4 aebd 7c6c a93e d8ca 55bd
00000310: d227 28be 3a4e bb3e 7a84 5cbe 5b41 91be
00000320: 3541 babe 38bd 8abe 1524 0b3e 36f4 29be
00000330: 21b0 ad3e d61f babe 4383 ffbe 976b 983e
00000340: f244 ae3e fea7 85bd fbc5 67bc ad92 003f
00000350: 5c36 9d3e 1656 133f 27a8 52be de21 3b3d
00000360: d903 f43d 4e62 be3e 0fcd a73d f49c b6bc
00000370: 8526 e23e 8427 17bd 625a 3ebd 5f74 2f3e
00000380: 6989 293d 1aae 2f3e 2a82 5abe fd54 a2be
00000390: 33cf 0bbc cda3 fdbd 21a7 ef3e 84b8 8f3e
000003a0: bc9f 40be c074 3fbd 03b9 413d 02eb 73be
000003b0: 3f68 bfbe 1c28 a4be 5084 8c3d 857c b03e
000003c0: 8af6 413e a4c5 6fbe e2ea 363e 0ecc d93d
000003d0: 8e2f 26bd 34a9 c53e b71d dd3c f615 c53e
000003e0: 0454 1cbc 0564 e93e 4df9 e3be 200b aebe
000003f0: 1342 95bd 8429 553e fff1 24bd d501 033e
-0.068740845 -0.053464938 -0.30718428 -0.14386004 0.2664437 0.019949548 0.005299516 -0.031794693
-0.100975536 -0.124965034 0.22571114 0.028902287 0.26717618 0.25241533 -0.14807338 0.50268936
0.20087592 0.15328702 -0.008962669 -0.1862704 -0.2477251 -0.43633738 -0.023693025 0.12947126
-0.09801562 0.08306725 0.29706705 -0.20621282 -0.08186817 -0.1768895 -0.45309526 0.46760574
-0.29707238 -0.38459474 -0.017676719 0.1564928 -0.03354331 0.10196506 0.50473416 0.06191258
0.18059796 -0.1256741 -0.5055768 -0.24977073 0.50153714 -0.40907195 -0.021822628 0.35267156
0.41846102 -0.12175716 -0.24032755 -0.18518409 0.25558606 -0.36125192 -0.1557514 0.26468122
0.13266905 -0.2090891 0.19351362 0.24478948 0.48898283 0.24531287 -0.012849338 0.55505663
0.015685758 -0.4994948 0.30260405 -0.40680844 0.10855973 -0.23288824 -0.037392188 -0.13325687
0.17381819 0.41557622 0.004148435 -0.23512027 0.13375975 0.23081066 -0.3393948 -0.13410057
0.20359893 -0.3450737 -0.20866422 -0.1591277 -0.05687876 -0.109930195 -0.19541505 -0.1352443
-0.38434064 0.030503884 0.44062254 0.2891335 -0.35499772 -0.094201334 -0.1482144 -0.12842059
0.14318073 -0.50818574 -0.020499324 -0.05985658 -0.087239735 -0.3742327 0.031998225 0.05409918
-0.062255885 0.13015752 -0.20636036 -0.34731826 0.18312606 -0.07463485 0.20815736 -0.13622984
0.10357696 0.29260236 0.4607606 -0.05058406 -0.081303775 -0.09207269 0.38257286 -0.16593172
-0.14610858 -0.32934365 0.27955064 -0.05046038 -0.23649023 0.13919096 0.017410995 0.22797954
0.10535457 -0.06175087 -0.02945117 -0.41642278 -0.34722593 0.046669725 -0.46057335 0.012527543
-0.3501813 -0.15886074 -0.30177918 0.10971954 0.082237676 0.07465344 0.16335627 0.008952371
-0.17592667 0.20502825 0.06366694 0.34581426 -0.30671063 -0.05060424 0.32753906 -0.29065573
-0.12359125 -0.31502897 0.34744492 0.22631606 0.015186439 0.23538607 0.27321884 0.4329219
0.045511242 0.07094421 -0.09813258 -0.087642826 -0.3342975 -0.65273684 -0.3367425 0.0791765
-0.5285539 -0.37142187 0.27050322 0.12167348 -0.24613005 0.14632767 0.225061 0.2571482
0.13338716 0.24783283 0.16903798 0.23416457 -0.084792644 0.16517532 -0.00062021957 -0.23066607
-0.43913215 -0.25290254 -0.06924826 0.32853812 0.1861579 -0.42565814 0.14049521 -0.17317246
-0.013142117 -0.08527461 0.3309058 -0.0521954 -0.1642144 0.3658312 -0.21534911 -0.28370175
-0.36377874 -0.27097487 0.13587983 -0.16597065 0.33923438 -0.36352414 -0.49904832 0.29769585
0.34036976 -0.065261826 -0.014146323 0.5022381 0.30705535 0.5755323 -0.20571958 0.045686595
0.119147964 0.37184376 0.08193409 -0.022291638 0.44170013 -0.03690292 -0.046472915 0.17134236
0.04139081 0.17156258 -0.21338716 -0.31705466 -0.008533287 -0.12384758 0.46807197 0.28070462
-0.18810934 -0.0467422 0.04729558 -0.23820117 -0.3738422 -0.3206185 0.06861174 0.3447
0.18941703 -0.23415238 0.17863038 0.106346235 -0.040572695 0.38605654 0.026991708 0.38493317
-0.009541515 0.4558412 -0.4452614 -0.33992863 -0.07287993 0.20816618 -0.040269848 0.12793668

linear2.bias f4 [3]
00000000: c946 463e 5abf 0a3e 0bfd 153a
0.1936294 0.13549557 0.0005721605
