ReInforcement/snake/model/model_g1094_s88.pth (torch, 17039 bytes, 4 tensors)

linear1.weight f4 [256, 11]
00000000: 427c d7be 843a 0fbf b8b4 023e 70b5 3ebd
00000010: 8df0 aabe 56fb 3fbe f470 32bc 1cba 8abe
00000020: 8e1c c73d 6e25 123e 457f 65be 3abc 1bbf
00000030: ad2b 2a3e 6b76 1dbe 4075 8bbe 6c01 ebbe
00000040: 88fe c4be d341 343f 0dc7 73bf e7d4 8dbf
00000050: 59e0 133f bec7 12bf eb18 663e f547 e63e
00000060: d08f 8d3f b58f 3dbf e83a ba3d 9ff4 033e
00000070: 902d 48bf 1635 093f 875f 56bf c86d 13be
00000080: fdb7 d63e 757d a53e cd65 66bf b211 043f
00000090: 6d6c 7a3e 760f 723e cfe9 413e 135f 72be
000000a0: af1f fb3d fde7 18bf a19b 8f3d 69fe fe3e
000000b0: ab8a 7cbf 24c8 b93f 7907 d9be 2035 643e
000000c0: 8e0c b13e cade 0cc0 3704 64bf 2454 2ebf
000000d0: f148 213f 9866 95bf efc2 42bf 899a a23d
000000e0: db4f 46bd be22 b13d 5169 65be 990f 35bc
000000f0: 2e45 a63d 1207 9ebd f162 f0bc 60e1 a6bb
00000100: 9b10 943d 63c0 86be 0a2d 5cbe 8239 c7bd
00000110: 4048 d9bc 0cba 58bd 6d23 193e 3817 2f3d
00000120: 1898 1fbd 2f0f 163e 6a0a 74be bf25 aebb
00000130: a61a 99be 9e33 4a3c c6a5 87be db5d 9d3d
00000140: dba7 e9bb 7737 fcbd b0e8 f9bd f538 d8bd
00000150: 46e0 d73d e1ea 013e c059 723b 75a5 323d
00000160: d66f bbbd 0593 47be 72c1 3f3e 9dc9 bd3e
00000170: b6e3 c7be e06a 033f 495c e2be 57fd 6fbf
00000180: 34f5 37bf a5ca 88be 6a9e 023f 29a4 f53e
00000190: 219d 893e 8dc8 1abf 7bf6 bebd 7684 c6be
000001a0: 508a 22be 6e21 d2be b5cb 443d c1b6 b7bd
000001b0: 2b17 09bd 68b4 713d 1395 e53d bdd2 67bf
000001c0: e8c0 133e 9fac c5be b886 073f 4ec5 853d
000001d0: 2a67 5abf 0126 cfbe 08e4 c1be c49b e63d
000001e0: 3e57 33bf 52f2 c9be 523c b93d 5ee5 2b3e
000001f0: 4be4 7cbe 1fe2 58bd cdac 2d3d 9f76 5abe
00000200: 3230 43bd e80e 1cbe a33d 6fbe 1ea7 56bd
00000210: a1fc 6abf 7f6e d73d c946 283e ea49 d9be
00000220: b74a babd 3148 5cbe d17a 0fbe 8eb1 e2be
00000230: bcc9 79be 1ddf 4abe 7f9f 86be 68f0 44bf
00000240: 014a ca3e ccdb 52bb 28fc 793e db29 14be
00000250: 538b 0cbf 8f34 c5be 3e55 abbe a9ad 29bf
00000260: d8a1 ae3d cd13 43bf c4f1 dbbe 14f1 f53e
00000270: b8e0 afbd 2a01 4a3e 8ec1 09bf 3ba8 dbbe
00000280: a41f 79be c1d0 86be f27a 58bf 22f4 b13e
00000290: 7a21 a03d c377 8cbe 2f06 943e f979 033e
000002a0: ede8 af3e c9bb 43bf 59a0 60bf bc9a 5a3f
000002b0: db6f 1c3d e09c c4bf 9f4e babf c638 e1be
000002c0: a912 bbbe 1546 913e 38f8 0dbf 060d 5abe
000002d0: 2804 dfbd 36c7 03bd 29fd 9cbe 3f70 f9be
000002e0: c0ea bcbe 1170 11bf 980d cdbe 1598 64be
000002f0: 7d51 8a3d 100b 143e 8c33 7dbe 0b52 283f
00000300: eaa7 233f cf9a e2be fec6 a5bf fb0b a3bf
00000310: 435e 25bf 3f42 d93e ae8d 9cbe 1548 cabe
00000320: 7089 503e 13b1 0cbf d948 7b3e 3f22 cfbe
00000330: 99f8 263f 0f9f a1bf 872d 8cbf 20fc c13e
00000340: 440f 2cbf b0c2 013f 553a 653f ccef 32bf
00000350: 0fe9 97be 1d62 36be c593 86be 7546 9d3c
00000360: 4a8e ad3e 6fa5 143c da4e a83e b855 8f3c
00000370: 0bbf 293f de77 eabe 3533 e63c 9ba5 6d3e
00000380: 1afa 373f 3cae 1ebf 8c27 673e de02 afbf
00000390: ee27 5bbf b265 203f cef7 f2bd 473b 293e
000003a0: 726b c63d da9e a2bc 586e ccbe ea73 123e
000003b0: 343c fbbe adb9 3e3d f093 c83d 8f6f 00bf
000003c0: 8bc5 393e d59e 2cbe de41 bdbe aa75 923d
000003d0: 1f25 adbe ac68 2bbe 0bdb 97be 763b 24be
000003e0: a573 7f3d 1480 61be 4aaf 153b 9438 bfbe
000003f0: 8662 a8be 9aa1 3ebf 3a4b c7bc 2451 053e
-0.4208699 -0.5594866 0.12764251 -0.04655975 -0.3338665 -0.18748221 -0.010891188 -0.27095115
0.09722243 0.14272091 -0.2241183 -0.60834086 0.16618223 -0.15377204 -0.27237892 -0.45899522
-0.38475442 0.7041294 -0.952256 -1.1080598 0.577642 -0.5733603 0.22470443 0.44976774
1.1059513 -0.74047405 0.09093267 0.12886284 -0.7819452 0.5359663 -0.83739513 -0.14397347
0.41937247 0.3232228 -0.89999086 0.515895 0.24455424 0.2363871 0.18936847 -0.2366908
0.122619025 -0.59728986 0.07012106 0.49803475 -0.9864909 1.4514203 -0.42388514 0.2228589
0.3457989 -2.201098 -0.8906893 -0.6809714 0.63001925 -1.1671934 -0.76078695 0.079396315
-0.048416 0.08649205 -0.22403456 -0.011051082 0.08118664 -0.07716192 -0.029344054 -0.0050927848
0.0722973 -0.26318654 -0.21501556 -0.097277656 -0.02652371 -0.052911803 0.1495492 0.042746753
-0.038963407 0.1465423 -0.23832098 -0.0053145583 -0.29903144 0.012341408 -0.26493663 0.07683917
-0.0071306056 -0.123152666 -0.12202585 -0.10557739 0.10540824 0.12687255 0.0036979765 0.043614823
-0.091521904 -0.19489677 0.18726137 0.3706788 -0.39040917 0.51334953 -0.44211033 -0.9374594
-0.71858525 -0.26717106 0.5102297 0.47976807 0.26877692 -0.60462266 -0.09324356 -0.38772935
-0.15873075 -0.4104113 0.048045833 -0.089704044 -0.03346936 0.05900994 0.11210074 -0.90555936
0.14429057 -0.38608262 0.5293994 0.065317735 -0.85313666 -0.40458682 -0.37869287 0.11260179
-0.70054996 -0.39442688 0.09044708 0.16786715 -0.24696462 -0.05295002 0.042401124 -0.21334313
-0.047653385 -0.15240061 -0.23363356 -0.05240547 -0.9179173 0.10519122 0.16433252 -0.42439204
-0.09096282 -0.21511914 -0.14011694 -0.44276088 -0.24393362 -0.19811673 -0.2629356 -0.7692933
0.39509585 -0.0032174466 0.24412596 -0.14469092 -0.5490009 -0.38516662 -0.33463472 -0.6628061
0.08526963 -0.7620209 -0.4295789 0.4803549 -0.085877836 0.19727007 -0.53810966 -0.42901787
-0.24328476 -0.26331142 -0.845626 0.3475657 0.07818885 -0.2743512 0.28910968 0.12839498
0.34357396 -0.7645841 -0.8774467 0.85392356 0.03819261 -1.5360374 -1.4555243 -0.43988627
-0.36537674 0.2837378 -0.55456877 -0.2129403 -0.108894646 -0.032172404 -0.30661896 -0.4871845
-0.3689785 -0.56811625 -0.40049434 -0.2232364 0.06753824 0.14457345 -0.24726695 0.6575019
0.6392809 -0.44258735 -1.2951353 -1.2738031 -0.64596957 0.42433354 -0.30576843 -0.3950812
0.20364928 -0.54957694 0.24539508 -0.40455815 0.6522308 -1.2626666 -1.0951394 0.3788767
-0.67210793 0.50687695 0.8954213 -0.6989715 -0.29669997 -0.17810865 -0.26284614 0.019198636
0.3389762 0.009072646 0.3287266 0.017496929 0.66307133 -0.45794576 0.02810059 0.23207705
0.71866 -0.6198461 0.2257368 -1.367275 -0.856078 0.62655175 -0.11863671 0.16526519
0.09688462 -0.019851137 -0.39927936 0.1430203 -0.4906937 0.046563793 0.09793842 -0.50170225
0.18141763 -0.16857465 -0.36964315 0.07151349 -0.33817384 -0.16739148 -0.29659304 -0.16038308
0.062366147 -0.22021514 0.0022840076 -0.37347853 -0.32887667 -0.74465334 -0.024327863 0.13019234

linear1.bias f4 [256]
00000000: d436 b8be 358c 62be 39c1 14bf 0aaa 22bf
00000010: 909c dd3e 8336 bebe 8fd2 9fbe 5aa0 83be
00000020: 9d0f 9ebe a645 4cbf 6410 e63e 9116 ecbe
00000030: 23c7 45bd 24d0 22be 5098 0abf 9f02 123f
00000040: a1fd dc3d bdad 26be 8f34 ddbb fe37 8bbe
00000050: 7505 e9bd fe25 62bf 88e4 2ebe dc35 b2be
00000060: 55a2 f2be 1d7e acbe faaa a63f eae5 34bf
00000070: 0cc9 06bf c42e e1be 1929 55bf 98a7 3f3e
00000080: 40b3 06bf f51b 1ebe 4173 76bf 52b3 573c
00000090: 3f23 02bf 1b97 1a3d 9f4f 8a3f 21ce 9abe
000000a0: 8490 62bd 6a70 9ebe ee75 3abe 552b 1abf
000000b0: 5abd f7bd eb26 7ebe ddfc a4be 67c3 153f
000000c0: c1c3 243d bbaa 84be 1665 46be 2263 01bf
000000d0: df5f c8be c977 a1be ccab febe 6234 83bd
000000e0: 1680 d2be 6278 26bf bacd 58be 80f4 02be
000000f0: cfa6 cc3d 8915 103e fdc4 21be 4d46 3a3f
00000100: c244 cabe 1de5 edbe c32d d93e 2076 2dbf
00000110: 8137 8bbe 45de 89be 6c11 84be a063 7bbf
00000120: ac89 103f 7e39 413f 904a dfbe eb22 50bf
00000130: bc83 8e38 cdb4 73be 2e59 92bf 60f4 a2be
00000140: 6bbd edbe b620 0ebf fb6d 64bf cb86 babe
00000150: c0fa 68bf c168 6abe 0e77 15bf 3f3b 68bf
00000160: db8e 343d 6496 c2be 6ec3 dc3e 3c85 683f
00000170: 8895 57be c92d 8bbf 35b9 00bf 95f1 05bf
00000180: 8817 3ebe b056 253e e743 17be e8b1 8fbe
00000190: 95a4 e0be c865 2ebe 103f 56be 4204 91be
000001a0: 8ac4 76be f0ba cdbe 68cb 0abe dc95 84be
000001b0: 257c a43f 59bb f5be cd71 c5be 5753 21bf
000001c0: 1c1b b83e e4c2 53bd b3c2 81be 489f fabe
000001d0: 5aac 9cbe 08f7 16bf fad9 30be 11ac c8be
000001e0: 9c57 b8be b9a9 31bf 98a4 61be f6af e0be
000001f0: 9801 f4be 5d37 30bf 746d cebe fd6b 103e
00000200: 9a26 e0be 515c 1dbf 60b0 0fbf 5e09 5bbe
00000210: 4d69 06bf 1845 8ebe 7ca7 85be f8d9 acbe
00000220: f182 73be 21fa 2ebf 16df a3be be1c 763c
00000230: f1c9 bb3d 3d9d e3be 60d3 20be fce5 a6be
00000240: 7be0 a13e 27e2 273e ce5e c3be a3b3 273f
00000250: ab3d 25be db02 d2be 676d 2a3d b7a9 57bf
00000260: 3234 06bf 0205 40bf 40b8 c3be efe7 cd3e
00000270: 9a2d 0dbf 7433 e13f f11c 4a3c d56a fc3e
00000280: 5b40 3abe dd9c 9dbe af9a 4bbf b68f 87be
00000290: 3607 a1bd ba00 77bd a51e 66bf 5366 b2bd
000002a0: be1f 11bf b08c 69bf e13f 28be 0535 73be
000002b0: 0527 2fbf ecbc d1be b504 38be daf4 b63d
000002c0: df6f 03be ca15 23be 25cf 00be 043c 2fbc
000002d0: 80fb c8be c461 ca3d 2f8c 0abf ed52 e4be
000002e0: 1bb9 04be b0a4 00bf df96 81bf 7b79 c5be
000002f0: 1e3f 21be 42c9 7ebe 401d 973e 6c61 6bbf
00000300: 38d0 bfbe 9080 cbbe 3e2f 0d3f 380f 99be
00000310: 1c8e 93be 6240 b03f 46c9 69bf eff1 fbbe
00000320: 4ee9 0bbf 5328 15bf 4206 613e 359a 32bf
00000330: 236e a93e 1fd6 8cbe d319 05be b868 b7be
00000340: d88e 0cbd 11c9 debe 1672 efbe 5f10 853e
00000350: bef6 cfbe 68e1 ab3e 8b70 6abf a393 e5be
00000360: 283e dfbe 95d6 013e f9e1 e7bb 651f 80be
00000370: ae3a 393f 72d7 fabe ca65 bebe 6e23 4f3e
00000380: e260 e8be 9e75 bebe 0aa8 e0be d280 1ebf
00000390: 649e 92bd 8bcb 48bf eb5c 8a3e 2667 b23d
000003a0: fe1f 38bf 8f49 12be b406 73bd d893 673d
000003b0: 56cd 32bf 0331 d8be 98c5 1ebe bd80 843d
000003c0: 40dd b83e e681 84bf 8efb 643e 9b4b babe
000003d0: 72fb 1cbf aa16 363f dd38 7abe e369 b1be
000003e0: 1ae4 d4be 1d56 21be 5abc 0bbf 02ff 8cbf
000003f0: 56a0 4dbf 5e2c ebbd 6b54 96be f77f 35bf
-0.3597933 -0.22123797 -0.58107334 -0.6354071 0.4328351 -0.37150964 -0.3121533 -0.25708276
-0.30871287 -0.79793775 0.4493438 -0.46110967 -0.048285615 -0.15899712 -0.5413866 0.5703525
0.107905634 -0.16277213 -0.0067506502 -0.27191156 -0.11377994 -0.8833922 -0.17079365 -0.34806716
-0.47389475 -0.33689967 1.3020928 -0.7066332 -0.52650523 -0.43980992 -0.83265835 0.18716276
-0.52617264 -0.15440352 -0.96269614 0.013165312 -0.5083503 0.03774176 1.0805548 -0.3023539
-0.055313602 -0.3094514 -0.18209049 -0.6022237 -0.12096663 -0.24819534 -0.3222417 0.58501285
0.040225748 -0.25911507 -0.19374499 -0.5054189 -0.39135644 -0.315367 -0.49740446 -0.064064756
-0.41113347 -0.6502744 -0.21172228 -0.12788582 0.09992754 0.14070715 -0.15797801 0.7276352
-0.39505583 -0.46463862 0.42417726 -0.6775837 -0.27190784 -0.2692739 -0.25794542 -0.9819889
0.5646007 0.7547835 -0.43611574 -0.8130328 6.795625e-05 -0.23799439 -1.1433465 -0.31827068
-0.46433577 -0.5551866 -0.89230317 -0.36430964 -0.91007614 -0.22891523 -0.5838479 -0.907154
0.04408155 -0.38005364 0.4311785 0.908283 -0.21053135 -1.0873348 -0.50282604 -0.5232175
-0.18563664 0.1614635 -0.14771996 -0.2806542 -0.43875566 -0.17031014 -0.20922494 -0.2832356
-0.24098411 -0.40181684 -0.13554156 -0.25895584 1.2850386 -0.47994497 -0.38563386 -0.6301779
0.35958183 -0.051699534 -0.25343856 -0.48949647 -0.30600244 -0.5897069 -0.17270651 -0.39193776
-0.3600434 -0.693996 -0.22035444 -0.43884248 -0.47657466 -0.6883448 -0.4031788 0.14103694
-0.4377945 -0.6146899 -0.561285 -0.21390292 -0.52504426 -0.2778709 -0.26104343 -0.33760047
-0.23780419 -0.68350416 -0.3200614 0.015021501 0.09169377 -0.444559 -0.15705633 -0.3259734
0.31616578 0.16394864 -0.38158268 0.6550848 -0.16136806 -0.41017804 0.04160824 -0.8424334
-0.52423394 -0.7500764 -0.3822651 0.40216014 -0.5514771 1.7593827 0.012336002 0.49300256
-0.18188612 -0.3078374 -0.79532903 -0.2647683 -0.078627035 -0.060303427 -0.8989051 -0.08710923
-0.5668906 -0.912303 -0.16430618 -0.23750694 -0.68418914 -0.40964448 -0.17970546 0.089334205
-0.12835644 -0.1592628 -0.1257902 -0.010695461 -0.3925438 0.098819286 -0.54120153 -0.44594517
-0.12961237 -0.50251293 -1.0124167 -0.38569245 -0.15746734 -0.24881461 0.29514503 -0.9194553
-0.37463546 -0.39746523 0.5515021 -0.29894423 -0.28819358 1.3769648 -0.91322744 -0.49208018
-0.5465287 -0.58264655 0.21975043 -0.6976655 0.3309184 -0.2750711 -0.12998132 -0.35822082
-0.034315914 -0.43512776 -0.46766728 0.25989053 -0.40617937 0.3357041 -0.91577977 -0.448392
-0.4360211 0.12679513 -0.0070764986 -0.25023952 0.72355163 -0.48992497 -0.37187034 0.20228359
-0.45386416 -0.3719911 -0.43878204 -0.61915314 -0.07159117 -0.7843558 0.27024016 0.0871108
-0.71923816 -0.14285873 -0.059332564 0.05653748 -0.6984457 -0.42224893 -0.15505064 0.064698674
0.361063 -1.0352142 0.22361585 -0.36385807 -0.61321175 0.7112833 -0.24435754 -0.34651098
-0.41580278 -0.15755506 -0.54584277 -1.1015322 -0.8032278 -0.11483072 -0.2936128 -0.70898384

linear2.weight f4 [3, 256]
00000000: 2906 423e 6f64 b8be cd83 003b f99e 99be
00000010: c7c9 9d3e 3c6d a33c 90a7 ad3b d19f 823b
00000020: 879e bbbe def6 263d f455 053e ee3c 173b
00000030: eb7d a6bc bf35 c7be 6425 b2bd 7696 2a3f
00000040: d5dc 293c 01e1 32bf 046b eebe 4095 723a
00000050: f491 1bbf 9fcc ddbb 7096 7639 172f 05bc
00000060: 9203 053c 3a9c d1bc df76 8e3e f11a 5dbd
00000070: f7bb 133e ae9d 33bc a3f7 2bbe 37eb 393f
00000080: 355c 94bd eeea f0bd 2b58 433f 19b4 223d
00000090: f757 be3d 3500 eebe 2b61 1d3f b74f 81bd
000000a0: a7ed 00bf b6b0 00be a1eb 41be ad89 14bc
000000b0: 852e 58bb 077a 80bf 5ec5 b2bc 78ef b93e
000000c0: 7ad3 eabb 363e 45be 08fa 3cbf c1e6 1cbc
000000d0: 4546 fabc 8d43 7abe 191b 89be 2875 cebb
000000e0: 3348 7f3b 747e da3d dffc bfbc c897 663a
000000f0: 4424 133f 4c5f 22be 0886 52bc 0022 393f
00000100: 5c10 acbc ecac e8be ece6 f93e 62f4 9abd
00000110: 2edc 0abd 3838 e7bd e5dd 1ebf 0b19 4f3e
00000120: 2521 ef3e 3520 ab3e ec9c 38bd e566 1abe
00000130: ee4f 043e aad0 50bc 044a 39bb b43e 00be
00000140: 4587 e8bc d90a abbc 3c54 5ebb d63e 53be
00000150: 042e 253f 55ac d7bc 3748 81bb f27c 193e
00000160: 3899 1fbf 43a0 98bc 1621 023f a2da f33e
00000170: 7ece 9ebd 6183 5d3e ee6a 903c 68ee a0bc
00000180: fb4e 633d 67bc b7be f627 07be 2c2c 75bd
00000190: 3d35 f2be e09c bebe 9210 033d 5d81 9a3e
000001a0: 73a0 1f3b 62c7 aabd 9fe4 84bd b5c0 d9ba
000001b0: 2dca 013e 5aa2 1b3d 8bb6 60be 5885 e4bd
000001c0: 1fd9 8fbb b6d0 993b 3efd 5f3d fe78 353d
000001d0: ff9c f039 056f 7ebe 430c 663e 90c7 2e3d
000001e0: 44b1 49be fe33 f2be 4b11 8abe 0461 91bb
000001f0: 2a32 683c 3739 583f 81a1 8e3c afb4 853d
00000200: 23c4 d73d 75b9 1ebc a2e2 aa3b b315 6cbe
00000210: f0a5 c3be 5c36 b0bd 9729 0fbf 0d43 ddbd
00000220: 91a8 e2be 5611 be3c 6f71 a5be 88e2 c13d
00000230: c17b a2bc e0c8 8fbd d821 e83a f7ac 123c
00000240: 1faf 5cbf fae2 ae3e c1eb 63bd dfdb ef3e
00000250: 4637 96be 1b02 66be d682 dcbc 8541 b43d
00000260: 208f 16bc 0954 8abe cea3 d4bc 3df6 3a3e
00000270: e660 40bd 1add 833e 1555 d83d 434c 3e3f
00000280: aa7e 0ebe 334b 913d df17 2b3d 5313 673e
00000290: 22b7 83bd 24e0 40be 5b61 a4be 335e 623b
000002a0: 62af c6be 4248 d1bd ae83 b5be 7a51 233d
000002b0: 54c1 7abd 05e9 99bb 53ed 6bbd 9d4c c3bb
000002c0: ee40 703d 2955 433c 9930 6a3c 06e7 033c
000002d0: 540d b3be 0ca0 45be 94e1 48bc a85a d93c
000002e0: 8f6f 70bd 8cb4 2bbe 512c fe3e 493a ff3a
000002f0: 5b46 38bc 2cbb 2cbf 17ad 783e 387b a33f
00000300: 0952 57bc 2e95 523b 85a5 5c3e d8ca 55bd
00000310: ad5d 20bf dbbf e43e a5d4 483d c7a1 99be
00000320: 40e6 7f3d 8783 03bc cc79 46be feff 62bd
00000330: 094c f93e d7f9 b3be 1b6c 41be 23b1 8cbd
00000340: 142a a6bd 14e7 5cba f7a6 8cbd 2852 c53e
00000350: 5846 313b 7f16 3c3f 01e7 6d3d 476c d3be
00000360: 5208 d0bc 9cea 0f3f aae6 343b f49c b6bc
00000370: 8a0b a63e 79b7 03bd 625a 3ebd cef0 69bc
00000380: 0cfe 013d 0fcb 1abb aa2e 94bb 23e3 94be
00000390: f178 6fbe 57b4 ef3a ccb1 523e 9bfc 413d
000003a0: f4f0 0a3f 7117 5dbd 600f d337 236f d7be
000003b0: 5008 74be d2c5 19be b65e e13a 8077 c73c
000003c0: f48e 473e fd33 be3c ccf1 ca3e 5fcc 1a3d
000003d0: af83 1b3c a4e3 393e 9512 053d 862b 4bbd
000003e0: ee96 293d adfe 543b 02ad d4bc 1385 c03b
000003f0: e9e0 22be 96d8 493e edd3 21bb dbc4 9b3c
0.18947662 -0.36014125 0.001960981 -0.300041 0.30818006 0.019949548 0.005299516 0.0039863368
-0.36644384 0.040762775 0.1302107 0.0023077088 -0.020323714 -0.38908193 -0.08698538 0.66635835
0.010367592 -0.6987458 -0.4656602 0.00092538074 -0.6076958 -0.0067687775 0.0002351643 -0.008128903
0.008118527 -0.02558719 0.27825066 -0.05398077 0.14427172 -0.010962887 -0.16793685 0.72624534
-0.072441496 -0.11763559 0.7630641 0.039722536 0.09294122 -0.46484533 0.6147639 -0.063140325
-0.5036263 -0.1256741 -0.18937542 -0.009066028 -0.0032986712 -1.003724 -0.021822628 0.36315513
-0.0071663233 -0.19262013 -0.7381902 -0.0095765 -0.030551085 -0.24439831 -0.26778486 -0.006300587
0.0038952946 0.1066865 -0.023436008 0.0008796421 0.5747721 -0.15856665 -0.012849338 0.72317505
-0.021003895 -0.4544443 0.48808992 -0.075661436 -0.033901386 -0.1129002 -0.62057334 0.20224397
0.46704975 0.3342301 -0.045071527 -0.15078314 0.12921116 -0.012745062 -0.0028272877 -0.1252392
-0.028384814 -0.020879196 -0.003392472 -0.20629439 0.6452334 -0.026327292 -0.0039453763 0.14989069
-0.6234317 -0.018631106 0.50831735 0.4762774 -0.07754229 0.21632148 0.017629113 -0.019644931
0.055495244 -0.35885927 -0.13198838 -0.05985658 -0.47306243 -0.3722906 0.031998225 0.3017682
0.002435711 -0.083388105 -0.064889185 -0.0016613217 0.1267478 0.037996627 -0.21944635 -0.11158246
-0.0043898965 0.0046940697 0.05468487 0.04430484 0.00045893338 -0.24847038 0.22465615 0.042670786
-0.19696528 -0.47305292 -0.26966318 -0.004436614 0.014172116 0.844623 0.017410995 0.06528603
0.10535457 -0.009687771 0.005215005 -0.23055153 -0.38212538 -0.08604118 -0.55922836 -0.108038045
-0.4426923 0.023201626 -0.32313105 0.094670355 -0.019834401 -0.07020736 0.0017710282 0.008952371
-0.86204714 0.34157544 -0.055644754 0.46847436 -0.29339045 -0.2246174 -0.026917856 0.08801559
-0.009189397 -0.2701724 -0.025957014 0.18257995 -0.04696741 0.25754625 0.10563103 0.74335116
-0.13915506 0.07094421 0.041770812 0.22565965 -0.06431414 -0.18835503 -0.32105526 0.003454101
-0.3880568 -0.1021886 -0.35452026 0.039872624 -0.06121953 -0.0046969675 -0.057599377 -0.0059600607
0.05865567 0.011922159 0.014293813 0.008050686 -0.34971106 -0.19299334 -0.012260813 0.026532486
-0.05870014 -0.16768092 0.49643186 0.0019472326 -0.011247243 -0.674731 0.24284779 1.2771978
-0.013142117 0.0032132375 0.21547516 -0.0521954 -0.6264294 0.44677624 0.04903092 -0.3000624
0.062475443 -0.008026964 -0.193824 -0.055419914 0.48690823 -0.3515155 -0.18888895 -0.06869724
-0.081134945 -0.00084267673 -0.068677835 0.38539243 0.0027049985 0.73471826 0.05808163 -0.41293547
-0.025394592 0.5621736 0.0027603307 -0.022291638 0.3243068 -0.032157395 -0.046472915 -0.014278604
0.03173642 -0.0023619568 -0.0045221644 -0.29079542 -0.23385979 0.0018287998 0.20575637 0.047360044
0.54273915 -0.053977434 2.516032e-05 -0.42076978 -0.23831296 -0.15016869 0.0017194364 0.024348974
0.19488126 0.02321815 0.396376 0.03779256 0.009491845 0.18153244 0.032488424 -0.049602054
0.041403703 0.0032500431 -0.025961403 0.0058752387 -0.15906109 0.19711527 -0.0024692968 0.019014766

linear2.bias f4 [3]
00000000: 4408 373f 4f9e dc3d ff46 0fbc
0.7149699 0.107723825 -0.008744954
