ReInforcement/snake/model/model_g2670_s95.pth (torch, 17039 bytes, 4 tensors)

linear1.weight f4 [256, 11]
00000000: 427c d7be 843a 0fbf b8b4 023e 70b5 3ebd
00000010: 8df0 aabe 56fb 3fbe f470 32bc 1cba 8abe
00000020: 8e1c c73d 6e25 123e 457f 65be c41d c4bf
00000030: 497a 023f 3739 e5be 39a2 dbbe 44bf 46bf
00000040: 244f fabe 0729 9d3f 576d abbf 8b36 b9bf
00000050: af21 663f be2e 3dbf 9d7c 13be 1aa0 6e3f
00000060: 0175 1e3f b137 5dbf 38b3 9d3d 91c0 773e
00000070: 7ad3 9bbf 8bda 1e3e 7a79 aebf 7ac7 d5bd
00000080: dcb6 e23e 289d 78bd f0ff 65bf c1c2 c13e
00000090: e562 173e d7a5 cbbd 496d 163e 2e0d c3be
000000a0: 6ef0 003d 52f0 9abe 28a8 f8bd c5f0 a83e
000000b0: 29ad 75bf 1b64 1140 9565 ca3e 936d f6be
000000c0: 2fd5 7e3e bc6b 57c0 fc02 cbbf da08 a7bf
000000d0: 1da5 ae3e 842a 0cc0 b2fe ecbf 899a a23d
000000e0: db4f 46bd be22 b13d 5169 65be 990f 35bc
000000f0: 2e45 a63d 1207 9ebd f162 f0bc 60e1 a6bb
00000100: 9b10 943d 63c0 86be 0a2d 5cbe 8239 c7bd
00000110: 4048 d9bc 0cba 58bd 6d23 193e 3817 2f3d
00000120: 1898 1fbd 2f0f 163e 6a0a 74be bf25 aebb
00000130: a61a 99be 9e33 4a3c c6a5 87be db5d 9d3d
00000140: dba7 e9bb 7737 fcbd b0e8 f9bd f538 d8bd
00000150: 46e0 d73d e1ea 013e c059 723b 75a5 323d
00000160: 31b2 123e 9117 00bf bfa2 153e 85a7 083f
00000170: b897 a5be d420 923f c231 54be bd5a dcbf
00000180: c331 4ebf aa1c fabe 415a 673f 29a4 f53e
00000190: 219d 893e 8dc8 1abf 7bf6 bebd 7684 c6be
000001a0: 508a 22be 6e21 d2be b5cb 443d c1b6 b7bd
000001b0: 2b17 09bd 68b4 713d a876 67bc 1207 77bf
000001c0: efac f53c a93d b9be f827 3a3e 3ce7 03be
000001d0: 2a67 5abf 983b d2be e090 0ebf 2ac1 9ebe
000001e0: 5cd6 41bf 52f2 c9be 523c b93d 5ee5 2b3e
000001f0: 4be4 7cbe 1fe2 58bd cdac 2d3d 9f76 5abe
00000200: 3230 43bd e80e 1cbe a33d 6fbe 1ea7 56bd
00000210: a1fc 6abf 7f6e d73d c946 283e ea49 d9be
00000220: b74a babd 3148 5cbe d17a 0fbe 8eb1 e2be
00000230: bcc9 79be 1ddf 4abe 7f9f 86be c51d 1dbf
00000240: eb09 5d3f ee70 ccbe aed7 9f3e 2758 46bf
00000250: a3ae 02bf 059e b7be 3cd1 debe 5bed 89bf
00000260: 75ea b63e ab68 3cbf 2c0e 87bd 9a27 473f
00000270: 8a16 3a3f cd1a 793f f118 e7be cca0 2cbd
00000280: 4a9e fd3d 2470 8bbf 66d7 b3bf 945f 763e
00000290: 9312 e23d 80e8 fcbe 9d53 863d 57d6 b13e
000002a0: 4cb5 723e 961c b4bf 530f adbf 068a 4b3f
000002b0: 0530 03be 6aec 19c0 ff51 c8bf 5c2c 31bf
000002c0: a912 bbbe 1546 913e 38f8 0dbf 060d 5abe
000002d0: 2804 dfbd 36c7 03bd 29fd 9cbe 3f70 f9be
000002e0: c0ea bcbe 1170 11bf 980d cdbe 0121 1fbf
000002f0: c39d 803e f745 e63e 2569 853a 7c12 d13f
00000300: 571c b73f de01 8ebe d0e6 1ac0 4dc0 efbf
00000310: 0ecb a4bf 4905 193f 157a 00be afc7 04bf
00000320: b0df 863e 2dc2 3dbf cd19 653f 7799 e0bd
00000330: aa7b ae3f d5cf edbf 2470 ecbf 3303 4d3f
00000340: 27e4 29bf 9f62 8a3e da9e 0e3f cba4 3abf
00000350: caec 87be 2df3 cfbe 5a51 23bf 0667 44be
00000360: b569 42be 682e b9bd 1703 da3c d834 e0bd
00000370: fddb 1a3f e089 203e a010 773e 6ed3 ba3e
00000380: 5b25 813f a741 85bf a43f ab3d b249 b5bf
00000390: 7387 a3bf eacc 3c3f fb37 2ebe 473b 293e
000003a0: 726b c63d da9e a2bc 586e ccbe ea73 123e
000003b0: 343c fbbe adb9 3e3d f093 c83d 8f6f 00bf
000003c0: 8bc5 393e d59e 2cbe de41 bdbe aa75 923d
000003d0: 1f25 adbe ac68 2bbe 0bdb 97be 763b 24be
000003e0: a573 7f3d 1480 61be 4aaf 153b 9438 bfbe
000003f0: 8662 a8be 9aa1 3ebf 3a4b c7bc 2451 053e
-0.4208699 -0.5594866 0.12764251 -0.04655975 -0.3338665 -0.18748221 -0.010891188 -0.27095115
0.09722243 0.14272091 -0.2241183 -1.5321584 0.5096784 -0.44770214 -0.42897204 -0.776356
-0.48888505 1.2278146 -1.3392743 -1.446977 0.8989515 -0.7389945 -0.14403005 0.93213046
0.61897284 -0.86413103 0.07700199 0.24194552 -1.2173913 0.15513055 -1.3630822 -0.10438438
0.44280136 -0.06069675 -0.89843655 0.37843898 0.14783819 -0.09943741 0.14690126 -0.38095993
0.03147929 -0.30261475 -0.12141448 0.32996193 -0.95967346 2.271735 0.39530626 -0.48130473
0.2488601 -3.3659506 -1.5860286 -1.3049576 0.34110346 -2.190095 -1.8515227 0.079396315
-0.048416 0.08649205 -0.22403456 -0.011051082 0.08118664 -0.07716192 -0.029344054 -0.0050927848
0.0722973 -0.26318654 -0.21501556 -0.097277656 -0.02652371 -0.052911803 0.1495492 0.042746753
-0.038963407 0.1465423 -0.23832098 -0.0053145583 -0.29903144 0.012341408 -0.26493663 0.07683917
-0.0071306056 -0.123152666 -0.12202585 -0.10557739 0.10540824 0.12687255 0.0036979765 0.043614823
0.14325787 -0.5003596 0.14612864 0.53380615 -0.32342315 1.1416268 -0.20722106 -1.7215191
-0.8054468 -0.48849994 0.9037209 0.47976807 0.26877692 -0.60462266 -0.09324356 -0.38772935
-0.15873075 -0.4104113 0.048045833 -0.089704044 -0.03346936 0.05900994 -0.014127411 -0.96495163
0.029989688 -0.36179855 0.1817931 -0.12881178 -0.85313666 -0.4106109 -0.5568981 -0.31006747
-0.7571771 -0.39442688 0.09044708 0.16786715 -0.24696462 -0.05295002 0.042401124 -0.21334313
-0.047653385 -0.15240061 -0.23363356 -0.05240547 -0.9179173 0.10519122 0.16433252 -0.42439204
-0.09096282 -0.21511914 -0.14011694 -0.44276088 -0.24393362 -0.19811673 -0.2629356 -0.6137355
0.8634326 -0.3992991 0.31219238 -0.7747826 -0.51047724 -0.35862747 -0.43519008 -1.077556
0.35725752 -0.7359721 -0.065945 0.777948 0.7269064 0.9730652 -0.45136216 -0.042145535
0.12383707 -1.0893598 -1.4050109 0.24059898 0.11038699 -0.49396133 0.06558917 0.3473384
0.23701972 -1.4071224 -1.3520302 0.7950748 -0.12811287 -2.4050546 -1.5650023 -0.6920831
-0.36537674 0.2837378 -0.55456877 -0.2129403 -0.108894646 -0.032172404 -0.30661896 -0.4871845
-0.3689785 -0.56811625 -0.40049434 -0.62159735 0.25120363 0.44975254 0.001017843 1.6333766
1.4305524 -0.277358 -2.4203377 -1.873056 -1.2874467 0.5977369 -0.1254657 -0.51867193
0.26342535 -0.74124414 0.89492494 -0.10966771 1.3631489 -1.857905 -1.8471723 0.80083007
-0.6636376 0.27028367 0.5571114 -0.72907704 -0.26547843 -0.40615216 -0.6379601 -0.19179925
-0.18985637 -0.090420544 0.026612801 -0.10947579 0.60491925 0.15677595 0.24127436 0.36489433
1.0089525 -1.041066 0.08361748 -1.4163115 -1.2775711 0.73750174 -0.17013542 0.16526519
0.09688462 -0.019851137 -0.39927936 0.1430203 -0.4906937 0.046563793 0.09793842 -0.50170225
0.18141763 -0.16857465 -0.36964315 0.07151349 -0.33817384 -0.16739148 -0.29659304 -0.16038308
0.062366147 -0.22021514 0.0022840076 -0.37347853 -0.32887667 -0.74465334 -0.024327863 0.13019234

linear1.bias f4 [256]
00000000: d436 b8be e2b1 07bf 9c39 9ebf 6f98 7cbf
00000010: 02a3 1b3f 8336 bebe 8fd2 9fbe 5aa0 83be
00000020: 82c6 4bbf a645 4cbf 5548 bd3d 9116 ecbe
00000030: 23c7 45bd aa8f 08bf 3543 6cbf 2ef7 713f
00000040: a1fd dc3d 6202 15bf d4df 7fbf 796a 49bf
00000050: 0d0a aebd fe25 62bf 88e4 2ebe dc35 b2be
00000060: 55a2 f2be a843 84bf 1302 a83f f3eb b9bf
00000070: 0cc9 06bf c42e e1be 666b bdbf 0a85 bb3e
00000080: 40b3 06bf 1538 29bf 33c6 b8bf 147f 56be
00000090: 3f23 02bf 5000 12bf 893d e23f 21ce 9abe
000000a0: 6347 d5be 6a70 9ebe ac8f 29be 552b 1abf
000000b0: 5abd f7bd 8a3c 2fbf ddfc a4be 6596 483f
000000c0: c1c3 243d c2a3 a5be d2ad 6abf 2263 01bf
000000d0: f760 1cbf 80fb e8bd 7f56 9bbf 17ca 90be
000000e0: 1680 d2be 6278 26bf bacd 58be 80f4 02be
000000f0: 6a60 423d 0185 3fbf fdc4 21be e3ab ae3f
00000100: c244 cabe 108b 74bf e443 583f 2076 2dbf
00000110: 0320 d2be f4bb 48be 8610 f2bf 1342 debf
00000120: a02a 553f 591d 0f3f b4ae 17bf c7eb 14bf
00000130: cbbb 1abf cdb4 73be 2e59 92bf 60f4 a2be
00000140: 6bbd edbe b620 0ebf fb6d 64bf feee 97bf
00000150: 9542 c9bf 376b a4be 0e77 15bf 3b57 69bf
00000160: a9e5 b2be 6496 c2be 0915 1a3e 99f4 c33f
00000170: 7f67 73bf cddd 8ebf 35b9 00bf c6d2 19bf
00000180: 1a95 7ebe 1be1 01bf 101c 10be e8b1 8fbe
00000190: f54d cebf ea02 cdbe 103f 56be 29cd bdbe
000001a0: 8ac4 76be fcbd e9be 3744 98be d4c1 fdbe
000001b0: 8d80 7b3f 59bb f5be bc07 dabf 5753 21bf
000001c0: b2a3 263f e4c2 53bd 0a6e d5be 489f fabe
000001d0: 5aac 9cbe 87de b4bf 66fc 1bbf 739a d8be
000001e0: 9c57 b8be 529b 87bf b4d9 dcbe f6af e0be
000001f0: 9801 f4be d96a cbbf 746d cebe ac90 b3bc
00000200: 9a26 e0be de04 7fbf 888f b3bf cad0 59bf
00000210: 7175 babf 1845 8ebe b00d e1be 3f5e 05bf
00000220: d081 dcbe cda7 cfbf 1bb4 7ebf e14d 19bf
00000230: ae7b ec3d 3d9d e3be 60d3 20be fce5 a6be
00000240: c66b c0bd 4fd6 25be ce5e c3be 128c ae3f
00000250: 2387 0dbf 4c89 90bf 676d 2a3d 2fee 80bf
00000260: 3234 06bf d1a6 c8bf 40b8 c3be f458 13bc
00000270: 9a2d 0dbf 3c4d 3040 b203 593e 5310 7c3f
00000280: 44bf 26bf dd9c 9dbe fd30 c9bf 0a41 67bf
00000290: d42a 0dbe 1bc1 d8bc 4f07 d7bf 5366 b2bd
000002a0: 62de ddbf b08c 69bf f2bf a6bf ed34 95be
000002b0: 53a2 81bf ecbc d1be 8868 65bf 88af 34bd
000002c0: 9707 03bf ca15 23be 25cf 00be 043c 2fbc
000002d0: 633c 8cbf 8334 a7be ade1 2bbf 1fdd 02bf
000002e0: 251a 3ebf 1aa1 d2bf a2d9 debf 91d9 26bf
000002f0: 1e3f 21be be74 35bf 7e89 a43e bc79 acbf
00000300: 38d0 bfbe 9080 cbbe eafa ee3d 380f 99be
00000310: 81b8 dfbe 4bd6 0c40 ab52 80bf c2aa bdbf
00000320: 4ee9 0bbf 5328 15bf de38 89be 359a 32bf
00000330: 05aa 93be 4f1c 8fbf e563 703d 72ae e7be
00000340: 32ab 49be 11c9 debe 1672 efbe 3567 343f
00000350: bef6 cfbe fcc1 453f 8b70 6abf e6ac 85bf
00000360: 283e dfbe d98a d73e f9e1 e7bb 651f 80be
00000370: 5116 9a3e 72d7 fabe ca65 bebe 6e23 4f3e
00000380: e260 e8be 9e75 bebe 0aa8 e0be 3202 8ebf
00000390: b176 4dbf 8bcb 48bf 7a79 6abe 2df0 53be
000003a0: 2ec0 e1bf 2558 21be b406 73bd 750c efbe
000003b0: 6735 05c0 1de2 c1bf 98c5 1ebe bf74 36be
000003c0: 9955 9c3f e681 84bf 7295 8c3f 9b4b babe
000003d0: 3f2e c8bf 76ed 443e dd38 7abe 2a52 72bf
000003e0: 1ae4 d4be 8fe6 44be 5abc 0bbf 02ff 8cbf
000003f0: 4567 d9bf 094a 04bf 6b54 96be f77f 35bf
-0.3597933 -0.530058 -1.2361331 -0.98670095 0.60795605 -0.37150964 -0.3121533 -0.25708276
-0.79599774 -0.79793775 0.09242312 -0.46110967 -0.048285615 -0.53344214 -0.9229005 0.9451779
0.107905634 -0.5820676 -0.9995091 -0.7867809 -0.08498011 -0.8833922 -0.17079365 -0.34806716
-0.47389475 -1.0333147 1.3125633 -1.4525131 -0.52650523 -0.43980992 -1.47984 0.36624938
-0.52617264 -0.661012 -1.4435486 -0.20946914 -0.5083503 -0.57031727 1.7675029 -0.3023539
-0.41656026 -0.3094514 -0.16558713 -0.6022237 -0.12096663 -0.6845175 -0.3222417 0.78354484
0.040225748 -0.323515 -0.9167148 -0.5054189 -0.61085457 -0.11376095 -1.2135772 -0.28279182
-0.41113347 -0.6502744 -0.21172228 -0.12788582 0.04745523 -0.7481232 -0.15797801 1.3646206
-0.39505583 -0.9552469 0.8447859 -0.6775837 -0.41040048 -0.19602948 -1.8911293 -1.7363914
0.83268166 0.55904156 -0.5925095 -0.5817227 -0.604428 -0.23799439 -1.1433465 -0.31827068
-0.46433577 -0.5551866 -0.89230317 -1.186981 -1.5723444 -0.32113048 -0.5838479 -0.9114873
-0.34940842 -0.38005364 0.15047087 1.530902 -0.950798 -1.1161438 -0.50282604 -0.6008724
-0.24861565 -0.5073411 -0.14073205 -0.2806542 -1.6117541 -0.40041286 -0.20922494 -0.37070587
-0.24098411 -0.4565276 -0.29739544 -0.49561942 0.9824303 -0.47994497 -1.703361 -0.6301779
0.6509353 -0.051699534 -0.41685516 -0.48949647 -0.30600244 -1.413041 -0.60932004 -0.42305335
-0.3600434 -1.0594275 -0.43134844 -0.43884248 -0.47657466 -1.5891982 -0.4031788 -0.02191957
-0.4377945 -0.996168 -1.4028177 -0.8508421 -1.456709 -0.2778709 -0.43955755 -0.52096933
-0.4306779 -1.6223084 -0.9949357 -0.5988446 0.115470275 -0.444559 -0.15705633 -0.3259734
-0.09395556 -0.16195033 -0.38158268 1.3636496 -0.5528433 -1.12919 0.04160824 -1.0072688
-0.52423394 -1.5675908 -0.3822651 -0.008993376 -0.5514771 2.754714 0.21192816 0.9846241
-0.651356 -0.3078374 -1.5718075 -0.90333617 -0.13785869 -0.026459267 -1.6799105 -0.08710923
-1.7333491 -0.912303 -1.3027327 -0.29141942 -1.0127662 -0.40964448 -0.8961263 -0.044112712
-0.51183456 -0.1592628 -0.1257902 -0.010695461 -1.0955929 -0.3265725 -0.6714123 -0.51118654
-0.74258643 -1.6455414 -1.7410166 -0.6517573 -0.15746734 -0.7088126 0.32136148 -1.347465
-0.37463546 -0.39746523 0.11668952 -0.29894423 -0.43695453 2.2005794 -1.0025228 -1.4817736
-0.5465287 -0.58264655 -0.268012 -0.6976655 -0.28840652 -1.1180514 0.058689017 -0.4525028
-0.19694212 -0.43512776 -0.46766728 0.7046998 -0.40617937 0.7724912 -0.91577977 -1.044339
-0.4360211 0.4209812 -0.0070764986 -0.25023952 0.3009515 -0.48992497 -0.37187034 0.20228359
-0.45386416 -0.3719911 -0.43878204 -1.109442 -0.80259234 -0.7843558 -0.22897902 -0.20697089
-1.7636774 -0.1575628 -0.059332564 -0.4668919 -2.0813844 -1.5147129 -0.15505064 -0.17817973
1.2213622 -1.0352142 1.0983107 -0.36385807 -1.5639113 0.19231209 -0.24435754 -0.9465662
-0.41580278 -0.19228576 -0.54584277 -1.1015322 -1.698464 -0.5167547 -0.2936128 -0.70898384

linear2.weight f4 [3, 256]
00000000: 2906 423e befa 0cbe 0bff 343f b3fe 013c
00000010: 9586 e83e 3c6d a33c 90a7 ad3b d19f 823b
00000020: b462 48bf def6 263d b0bf 9cbd ee3c 173b
00000030: eb7d a6bc 0f16 67be 5a46 a8be 2c6d 433f
00000040: d5dc 293c cf4f babe 3a1f cebe 2f2a 7bbb
00000050: 6304 47bf 9fcc ddbb 7096 7639 172f 05bc
00000060: 9203 053c d92c 9ebc 7fa7 c6bc 203e 1dbe
00000070: f7bb 133e ae9d 33bc 6675 02bc 84f1 053f
00000080: 355c 94bd 1418 ebbd 0626 763f d881 28be
00000090: f757 be3d b7b2 c1bd a241 1a3f b74f 81bd
000000a0: 68ed 08be b6b0 00be 177b f3be ad89 14bc
000000b0: 852e 58bb b41f 37be 5ec5 b2bc 1056 383e
000000c0: 7ad3 eabb 67ef 81be 6ba4 3fbe c1e6 1cbc
000000d0: 16ca 8bbd 2abd a5be 6b9b 30be 5074 abbc
000000e0: 3348 7f3b 747e da3d dffc bfbc c897 663a
000000f0: ce19 3b3b 79ed 21be 0886 52bc 9ca6 403f
00000100: 5c10 acbc a8dc 24bf ff78 b43e 62f4 9abd
00000110: 7b0e a9bb d6ac 0abe c8dd eabc 7cdb 3b3d
00000120: 9174 cc3d ea13 83bc f1b6 893e 70f3 bc3d
00000130: 80aa ebbd aad0 50bc 044a 39bb b43e 00be
00000140: 4587 e8bc d90a abbc 3c54 5ebb 8ee7 9fbe
00000150: ecfb 813f a606 91bd 3748 81bb 78a6 033e
00000160: 01a6 6fbe 43a0 98bc 7214 5a3c da02 203f
00000170: 7170 87be 26e9 3e3e ee6a 903c 654c a5bc
00000180: 631f f1bc 79a4 02be c100 ddbd 2c2c 75bd
00000190: 946c 8ebe b8d5 dbbe 9210 033d fe65 39be
000001a0: 73a0 1f3b 62c7 aabd abba 80be 2664 67bd
000001b0: d3b5 4c3c 5aa2 1b3d 6c51 edbe 5885 e4bd
000001c0: 5a00 b43d b6d0 993b f34c bebc fe78 353d
000001d0: ff9c f039 ec64 7bbe 0420 653e 90c7 2e3d
000001e0: 44b1 49be 85d7 c1be a073 78be 0461 91bb
000001f0: 2a32 683c 9871 9e3f 81a1 8e3c a39d 22bc
00000200: 23c4 d73d cef2 8cbd 4bc8 c6be 4bac 92be
00000210: 6357 9cbe 5c36 b0bd 9521 33bf 8bac ecbd
00000220: 5c70 91be 75cc b6be 872c 88be b86a 683c
00000230: ad71 5f3e e0c8 8fbd d821 e83a f7ac 123c
00000240: e1b6 06bf 6631 613d c1eb 63bd c109 1e3f
00000250: b9d3 d3be e135 d3bc d682 dcbc 7365 453d
00000260: 208f 16bc e258 96bc cea3 d4bc e0af 3ebe
00000270: e660 40bd 2eee a63e b623 403e e7d5 243f
00000280: 00ac efbd 334b 913d f85e 69be cac0 613c
00000290: 1f9d cfbf 25f0 25bf f5d1 b7be 335e 623b
000002a0: 3c71 283c 4248 d1bd 23f9 b3bd 7a51 233d
000002b0: 27d9 b83d 05e9 99bb f8a9 46be 7e62 1bbf
000002c0: 0d8a 5fbe 2955 433c 9930 6a3c 06e7 033c
000002d0: 9664 dcbe 659b c23b 5cfb 163e a85a d93c
000002e0: 07b4 66be 6110 38bc 51e8 a43f 9882 f4bd
000002f0: 5b46 38bc 8163 2ebf f4e9 eebd 2f37 1a3f
00000300: 0952 57bc 2e95 523b 9fde 9ebd d8ca 55bd
00000310: bcdf fcbd 5e53 2e3f fee6 dcba a983 d3be
00000320: 40e6 7f3d 8783 03bc 6ef0 cabe feff 62bd
00000330: af01 77bb 65c3 f0bd f0bb d6be 8196 aa3d
00000340: 906e 4cbc 14e7 5cba f7a6 8cbd 7ac3 d13e
00000350: 5846 313b 11a6 203f 01e7 6d3d 4d5e 13be
00000360: 5208 d0bc 98ac 043f aae6 343b f49c b6bc
00000370: 47af 05be 79b7 03bd 625a 3ebd cef0 69bc
00000380: 0cfe 013d 0fcb 1abb aa2e 94bb ed89 67be
00000390: 340c ffbd 57b4 ef3a 6ba5 fabc 846e f13d
000003a0: 4da0 bb3f 0f88 0abc 600f d337 8847 b3be
000003b0: 1410 79bb fb47 42be b65e e13a 5563 b53c
000003c0: 09aa 1b3f fd33 be3c 9b07 1a3f 5fcc 1a3d
000003d0: ed4e 61be 5118 4fbd 9512 053d c12a a53d
000003e0: ee96 293d 8ec5 ac3c 02ad d4bc 1385 c03b
000003f0: 8528 8fbe 2fb1 bb3d edd3 21bb dbc4 9b3c
0.18947662 -0.13767526 0.70701665 0.00793426 0.45415178 0.019949548 0.005299516 0.0039863368
-0.7827561 0.040762775 -0.07653749 0.0023077088 -0.020323714 -0.22567008 -0.32866174 0.7633846
0.010367592 -0.36389014 -0.402582 -0.0038324704 -0.7774107 -0.0067687775 0.0002351643 -0.008128903
0.008118527 -0.019308494 -0.02424979 -0.1535573 0.14427172 -0.010962887 -0.00796256 0.5232165
-0.072441496 -0.11479202 0.9615177 -0.16455781 0.09294122 -0.09457915 0.602564 -0.063140325
-0.13371813 -0.1256741 -0.47554848 -0.009066028 -0.0032986712 -0.17883188 -0.021822628 0.1800158
-0.0071663233 -0.25377962 -0.18715064 -0.0095765 -0.06825654 -0.32370883 -0.17246787 -0.020929486
0.0038952946 0.1066865 -0.023436008 0.0008796421 0.0028549316 -0.15813245 -0.012849338 0.75254226
-0.021003895 -0.64399195 0.35248563 -0.075661436 -0.005159197 -0.13542494 -0.028670207 0.045863613
0.09983171 -0.016000707 0.26897386 0.092261195 -0.1150713 -0.012745062 -0.0028272877 -0.1252392
-0.028384814 -0.020879196 -0.003392472 -0.3123135 1.0155005 -0.07081346 -0.0039453763 0.12856472
-0.23403169 -0.018631106 0.013310539 0.6250435 -0.26452973 0.18643627 0.017629113 -0.02017803
-0.029433912 -0.12758054 -0.107911594 -0.05985658 -0.27817214 -0.42936492 0.031998225 -0.18105313
0.002435711 -0.083388105 -0.25142416 -0.056491993 0.012494522 0.037996627 -0.46351182 -0.11158246
0.087891296 0.0046940697 -0.023230052 0.04430484 0.00045893338 -0.24550217 0.22375494 0.042670786
-0.19696528 -0.3785974 -0.24262857 -0.004436614 0.014172116 1.2378416 0.017410995 -0.009925279
0.10535457 -0.06882249 -0.38824686 -0.28647074 -0.3053542 -0.08604118 -0.6997312 -0.115563475
-0.28406036 -0.35702863 -0.26596472 0.0141856 0.21820708 -0.07020736 0.0017710282 0.008952371
-0.526228 0.05497875 -0.055644754 0.61733633 -0.4137247 -0.025782527 -0.026917856 0.048192453
-0.009189397 -0.01835293 -0.025957014 -0.18621778 -0.04696741 0.32603592 0.18763623 0.6438889
-0.11702728 0.07094421 -0.22790134 0.013778875 -1.6219825 -0.64819556 -0.35902372 0.003454101
0.010280903 -0.1021886 -0.087877534 0.039872624 0.090257935 -0.0046969675 -0.19400775 -0.6069716
-0.21830006 0.011922159 0.014293813 0.008050686 -0.4304549 0.0059389346 0.14744323 0.026532486
-0.22529612 -0.011234374 1.2883397 -0.11938971 -0.011247243 -0.6812058 -0.11665717 0.60240453
-0.013142117 0.0032132375 -0.07757305 -0.0521954 -0.123473614 0.6809596 -0.0016853509 -0.41311386
0.062475443 -0.008026964 -0.39636558 -0.055419914 -0.0037690212 -0.117560185 -0.4194026 0.083294876
-0.012477532 -0.00084267673 -0.068677835 0.4096945 0.0027049985 0.627534 0.05808163 -0.14391442
-0.025394592 0.5182586 0.0027603307 -0.022291638 -0.13055144 -0.032157395 -0.046472915 -0.014278604
0.03173642 -0.0023619568 -0.0045221644 -0.22611208 -0.124534994 0.0018287998 -0.030596456 0.11788657
1.4658295 -0.00845529 2.516032e-05 -0.35015512 -0.0038003968 -0.18972771 0.0017194364 0.022142092
0.6080633 0.02321815 0.60167855 0.03779256 -0.22002764 -0.0505603 0.032488424 0.08064795
0.041403703 0.021090295 -0.025961403 0.0058752387 -0.279606 0.091646545 -0.0024692968 0.019014766

linear2.bias f4 [3]
00000000: 39a2 813f c028 883d e14e 15be
1.0127631 0.066483974 -0.14580871
