ReInforcement/snake/model/model.pth (torch, 16787 bytes, 4 tensors)

linear1.weight f4 [256, 11]
00000000: fd6c 95be 4ef4 57bd 7538 14be 7a81 ffbd
00000010: 7fd2 2ebe 944b 323e 00dd a1bc f723 a0bd
00000020: 943a 993d d9cb 7ebd 0a65 9e3c 05f6 503f
00000030: bbe6 753d 2a0a f9bd 00ac 843e 0591 433e
00000040: e744 afbe 4e34 373e 510b 04bf e51e fabe
00000050: 1c8c 1e3e b7c7 82be 1013 42be 0585 08bf
00000060: dc10 af3e 0783 8fbe fdc8 3dbe c545 76be
00000070: 2464 783e bb06 82bd 44eb 4c3e 52e7 f1be
00000080: e736 97be 3400 ea3e fe80 d8be 1a01 4d3f
00000090: a254 5a3d 3de2 54bf b8b8 313e 8ec8 a3be
000000a0: 3391 d9be f202 6a3e 71ea 8d3e c7c1 c73d
000000b0: 1ce1 8d3c 8939 df3b 4885 113d bf3b 77be
000000c0: feee 263d 21ad 4c3d 605e 62be 7681 f8ba
000000d0: 760b 62be 1699 b03d 47f8 1abe c4e0 4e3e
000000e0: 9c63 85be a986 c5be 288e 7cbe 0ee5 4fbd
000000f0: 93f3 ffbd 7126 87bc 26eb c4be 505e a0be
00000100: 1597 54be bfb6 9ebe 43ee 12bf 2b08 123f
00000110: efef 0abf 92f8 6dbd 16dd e8be 2494 6fbe
00000120: 2eab 39be ec59 e6be 5b6b bbbe 45b2 73be
00000130: 5094 65be 0f90 a43e 1d00 a23e 15bd 63bf
00000140: 35f1 333e f26b 94bd 1ceb a4be aa59 df3e
00000150: eb92 f3be 4b83 eebd 66bb 5d3e 27d7 a1be
00000160: 27e4 193e a27d 38be 4237 dfbe 3b6e 993c
00000170: c55d ae3a a1e3 80be a00d 12be 7f17 c0bd
00000180: f208 2ebe b377 20bc 040b acbc 209f 313d
00000190: bba7 e23c e660 d2be b798 04bf d1d3 a8be
000001a0: c1c2 00bf d6ac 683e 6135 a3be ae1f d1be
000001b0: daf3 283e ec6d 2dbf 3e59 373f 61eb b4be
000001c0: 4032 c1be 453a 97be 5444 27be f997 ff3d
000001d0: 33b7 d93e b360 993d 1614 ca3c fd40 11bf
000001e0: a3d3 0fbf e2ab 743d 5612 ebbe 47b1 583e
000001f0: 3f1e ecbe 9c9b 38be c616 86be 17e7 133f
00000200: 8c92 0cbf 9cf6 b63d b889 8f3e 6cd7 2dbf
00000210: 0bb1 adbe 87dd bcbe e9d2 263e 93b9 b6bc
00000220: 839f 3dbe 27e3 81bc 8bc3 1ebf 0b0b 18bf
00000230: fb36 61be 6444 b6be efac 61bf dccb de3d
00000240: a008 3bbf 0ffa ffbe fdf8 353f 4de5 76bf
00000250: 8cc7 183d 6487 75be 20b9 bf3e 5554 97bf
00000260: a0c7 3bbf 70ba 89bf de44 02bf 6a3d 343f
00000270: 5551 4b3d 4557 983e 8436 d3be b757 8e3e
00000280: a6d5 163d 7cb9 64be e629 20bf 932c c9bc
00000290: d725 0a3e cb3d 2abe af69 b83e c4e5 ebbd
000002a0: a8ab b7bd 7297 b7be dd08 223c 8957 0dbf
000002b0: 6341 2bbe 6ad8 4a3e 6204 2abf 37f4 1fbf
000002c0: cc82 603d 1d5c a5bf 66fe c33e 08ce ab3e
000002d0: bfd7 d0be 7b4a 053f e23f c6bd 9aeb 8ebe
000002e0: 8368 0a3f 8117 e0be 6207 6e3e ecd3 773e
000002f0: db28 00be b8d5 d43d 166b acbe c512 3fbe
00000300: fdf6 b1be 5861 ccbd 9d22 22be bf0f 1d3d
00000310: 50ac 843d 67f8 3e3d 4be5 42be b43f 073e
00000320: 895a 333e 0e28 6fbd a086 42be 6f74 253d
00000330: f1d1 59be e892 1bbe ef59 5e3d 3339 283c
00000340: daa2 d73d 04d8 043f 0a4c dabc 7656 7c3c
00000350: 1574 eebe 6aa4 d9bd c6b4 503f eb97 be3e
00000360: 8293 1b3f 4499 7f3e 60ef 2ebf 591b 84be
00000370: bcf6 9dbe 4d5f 9d3e 45aa 363e 769d 53bf
00000380: 70e2 a03e a4b7 e43e 7bf8 17bf 1565 8ebf
00000390: 3a96 8ebf eac5 0a3f 255d 2bbf 47c9 3b3e
000003a0: c1af c53e 8a1e 303e d51a bc3e 7389 ddbe
000003b0: 026b 0a3e 430b febe f095 8fbe d3ae 503f
000003c0: 4557 903d ca2d 2e3f 920f 97be 2e31 e1bd
000003d0: 5bd1 16be 8ab7 90be 9393 28be 9d4f 8bbe
000003e0: 9010 3b3e 0ceb 37be c697 5cbe 2695 9bbd
000003f0: 902f 2b3a f9c3 7c3d fe79 a3bd 7e0a 80be
-0.29184714 -0.05272322 -0.14474662 -0.124758676 -0.17072485 0.17411643 -0.019758701 -0.0781936
0.07481876 -0.062206123 0.019335289 0.81625396 0.060034495 -0.12160142 0.25912476 0.1909829
-0.34232256 0.17891046 -0.5157977 -0.48851696 0.15483135 -0.25542995 -0.18952584 -0.5332797
0.3419255 -0.28029653 -0.18533702 -0.24050052 0.2425695 -0.0634894 0.20011622 -0.47246796
-0.29534075 0.4570328 -0.42285913 0.80079806 0.05330337 -0.8315771 0.17355621 -0.3198895
-0.4249359 0.22852686 0.27717927 0.09753757 0.017319255 0.0068122786 0.035527498 -0.24143885
0.040755264 0.049969796 -0.22106314 -0.0018959481 -0.22074685 0.08622949 -0.15133773 0.20202929
-0.26052558 -0.385793 -0.24663603 -0.050755553 -0.1249763 -0.016497822 -0.38460654 -0.31321955
-0.20760758 -0.309988 -0.5739481 0.57043713 -0.5427236 -0.058098383 -0.45481175 -0.23396355
-0.18131706 -0.4499048 -0.36605343 -0.23798473 -0.22419858 0.32141158 0.3164071 -0.8896039
0.17572482 -0.072471514 -0.32210624 0.43623096 -0.47573027 -0.11646136 0.21653518 -0.3160946
0.1502844 -0.18016675 -0.43596846 0.01872932 0.0013303092 -0.25173667 -0.1426301 -0.093794815
-0.169956 -0.0097941635 -0.021001346 0.043364644 0.02766787 -0.41089553 -0.51795524 -0.32974103
-0.5029717 0.22722182 -0.31876662 -0.40844482 0.16499272 -0.6774585 0.7162055 -0.3533583
-0.3773365 -0.29536644 -0.16334659 0.12480158 0.42522582 0.07489147 0.02466778 -0.5673979
-0.56182307 0.059734233 -0.45912427 0.21161376 -0.46116826 -0.1802811 -0.2618925 0.5777449
-0.5491111 0.08933756 0.2803476 -0.6790683 -0.33924136 -0.36887762 0.16291393 -0.022305286
-0.1851788 -0.015855385 -0.62017125 -0.5939185 -0.2199363 -0.35599053 -0.881545 0.10878727
-0.73060036 -0.49995467 0.7108305 -0.96443635 0.037299678 -0.23977429 0.37445927 -1.1822611
-0.7335148 -1.0760021 -0.50886333 0.7040621 0.04963811 0.2975408 -0.4125253 0.27801296
0.036824845 -0.22336382 -0.6256393 -0.024557387 0.13490997 -0.16625135 0.3601813 -0.11518434
-0.08968288 -0.3585773 0.0098898085 -0.55211693 -0.16724162 0.19809118 -0.6641294 -0.6248202
0.054812238 -1.2918736 0.38280028 0.33555627 -0.407896 0.52066773 -0.096801534 -0.27914125
0.5406572 -0.43767932 0.23245004 0.24201936 -0.12515585 0.10392326 -0.3367545 -0.18659504
-0.3475875 -0.09979504 -0.15833516 0.038345095 0.064781785 0.046623614 -0.19032781 0.13207895
0.17515005 -0.05838781 -0.18996668 0.040394243 -0.21271493 -0.15192759 0.054284986 0.010267544
0.10529108 0.51892114 -0.026647586 0.015401473 -0.4657294 -0.106270626 0.8152584 0.3722528
0.60771954 0.2496081 -0.6833401 -0.25802115 -0.30852306 0.3073677 0.1783839 -0.8266214
0.31422758 0.44671357 -0.59363526 -1.1124598 -1.1139596 0.5420824 -0.66939 0.183385
0.38610652 0.1719915 0.3673922 -0.43268928 0.13517383 -0.49617967 -0.2804408 0.8151676
0.07047895 0.6803862 -0.29504067 -0.109957084 -0.147283 -0.2826503 -0.16462545 -0.27209178
0.18268037 -0.17960757 -0.21542272 -0.07596807 0.00065302197 0.06171033 -0.079822525 -0.25008005

linear1.bias f4 [256]
00000000: e54b 92be 2b34 923d ebb2 45bd 569c 47be
00000010: 64b2 a7be eee7 903c 1ce0 adbe eac1 32be
00000020: e4d8 23be 83cb 263e 3c9d cfbe fa97 4fbe
00000030: 28d5 113e a92b 973e e31d 9f3e d9b7 f0bd
00000040: 5ef8 d6be 0866 05bf 0f42 1fbf 22d7 1cbe
00000050: 8e15 afbd a684 c4be a280 64be 531c 85bd
00000060: 26f6 83be 7389 18bf fad5 b93d a4f7 bf3d
00000070: 64c7 c1be c973 f6be fb1f 00be e90d cebe
00000080: 0c4e 60bf f712 1cbf b99c c3be 98f7 ca3d
00000090: 7df5 44be 1272 03be abc3 373d c7c0 0dbf
000000a0: 8480 6b3e 80e1 8cbd 634a 91bb e9c2 e2bd
000000b0: a483 b03e 06cf a63e 7ec7 13bf 3bfc 8c3e
000000c0: cdc8 f7be 299b c1be 49da 053e 3c75 b2bd
000000d0: 3e57 f1be 8683 933e 03b4 b8bd 4f46 bebe
000000e0: fb5f a1be abfe 6bbe fca7 bfbe 57bc c63d
000000f0: c8b7 9c3d 2931 81be 5057 20be 5e8d a0bd
00000100: c536 e83d 0b25 0fbe af6b 02bf 23f0 8f3c
00000110: a712 7ebe 5d0a 813e 6b22 aebe 40e2 9dbd
00000120: 87f3 8ebe 8494 02bf d610 76be 7c9e 17be
00000130: 60ca e9be 55ec bdbe 9ea0 f4be 4a2d 8fbe
00000140: 04d7 e6be a5e2 333e 645e 8abe 3d8e 773e
00000150: 80aa 17bb b85c d5be 11b9 89be 827e 43bb
00000160: 8f3e c43f 6604 73be 80ff 90bd 06e7 9bbe
00000170: 68c0 f4be 1459 24bf 906e f3be f587 033e
00000180: fc62 9bbe aba7 15bd fb2b 463f eefb a53f
00000190: b56b 1b3e f2ff e23d adf8 d3be f3d2 eabe
000001a0: be8d 4fbe e2bb 383e bc21 82be d767 bebe
000001b0: a13d 13bf 4cd6 19bf 6f60 5abe c093 5dbe
000001c0: 16a1 bfbd 7aa5 81be f59c 80be abb9 afbe
000001d0: 34f4 95be dbe8 9f3e 5773 513d 980c 60be
000001e0: 59e9 8a3d cd86 2b3f d14e cdbe efd0 1bbf
000001f0: 1611 b7be 7875 c6be 207f e0be f3bb e1be
00000200: 14ff 00bf b4c7 cdbd c831 8cbe abfd 6b3e
00000210: 555d a7be 1e95 1bbf 3e0d cebe f056 85be
00000220: acc7 f3be a23c ae3e 68f9 27be b81e 0dbf
00000230: 9eca 8ebe 2bc3 03bf c7c8 fdbe 5508 363e
00000240: e417 16be 3b07 fb3d e923 b2be e08c d2bc
00000250: 84ca e3be e83b a9be 9abc 16bf 2e14 7b3e
00000260: 5b7b 4d3e e876 87be 0bdb f3be 6675 003d
00000270: 7c3f dcbd 4d2d 8fbe cb8c 2dbf 9aed bdbe
00000280: 04ad 91be 2551 94be 4961 be3c caf4 bfbe
00000290: 67c1 01bf d7a6 0a3f b349 51be b315 dbbe
000002a0: 61de 4cbe 5b16 11bd 4158 e9bd 0ab9 8bbd
000002b0: f25f 1fbf 76ac 34bf 6853 6cbe 0caf 01be
000002c0: e126 0cbf 4e09 b93d f8c8 bfbd c01f fcbe
000002d0: ccdf 553f 48a5 5abe 0e48 d7be 0980 18be
000002e0: 808e 67bc 850f 09be b216 03bf d08a 8fbe
000002f0: 4e59 21bf d354 78be c80d e43d 13e5 bbbe
00000300: ec1c e2bd f6df 94be 1742 edbd b6da d7be
00000310: 4a16 d2be 0fba b8bd b014 a13f b410 46be
00000320: 061d 093c f898 fbbe b4a9 b33d 46a1 a73e
00000330: 7c18 1dbe 1048 b6be 353c 6bbe 5bd5 2dbe
00000340: e494 b6be e743 1c3e bcef bcbe 77c9 8e3e
00000350: 0f8b 1fbe a6ae e4be eda7 7abe 11e7 87be
00000360: 031c ca3e 792c 6cbe e145 1cbe ab49 5bbd
00000370: 7941 81be b236 4ebc 8ea6 5abc 7745 4f3e
00000380: 49c0 06be 57bf 3abe 2887 adbe 8030 09bf
00000390: 2d6b 97bd a259 1d3e acae 7cbe 27d4 bebc
000003a0: 8539 263e d9d4 90be f461 743d 54c2 0fbf
000003b0: efa0 3c3c 4442 b1be 279a b7be f407 14bf
000003c0: aec2 ac3e 0476 ffbe 88ab 17bf a678 863f
000003d0: 7e48 30bc 524a 34bf 0ff6 503e 3c1c e93e
000003e0: 1e37 e9be b1d6 01bc f118 42be 7576 12be
000003f0: b6a6 20be fca1 4abd a731 813d 098d 573e
-0.28573528 0.071388565 -0.048266333 -0.19493231 -0.3275329 0.017688718 -0.33960044 -0.17456785
-0.16000706 0.16288571 -0.40549648 -0.20272818 0.14241469 0.29525498 0.3107749 -0.11753816
-0.41986364 -0.5210881 -0.6221017 -0.15316442 -0.08549033 -0.38382453 -0.22314695 -0.06499543
-0.25773734 -0.5958473 0.09074016 0.093734056 -0.37847435 -0.48135212 -0.125122 -0.40244988
-0.8761909 -0.6096644 -0.38205507 0.09910506 -0.19234271 -0.12836483 0.044864338 -0.5537228
0.22998244 -0.06878948 -0.0044339164 -0.110723324 0.34475434 0.3257982 -0.57726276 0.27536187
-0.48395386 -0.3781369 0.1307155 -0.08713767 -0.47136873 0.28811282 -0.090187095 -0.37163016
-0.3151854 -0.23046367 -0.3743285 0.09703892 0.07652241 -0.2523282 -0.15658307 -0.07839464
0.113385715 -0.13978975 -0.5094556 0.01757056 -0.24811803 0.2520322 -0.34010634 -0.077091694
-0.27920172 -0.51007867 -0.2402986 -0.1480655 -0.45662212 -0.3709437 -0.4777879 -0.2796424
-0.4508592 0.17566927 -0.2702514 0.24175353 -0.0023142397 -0.416723 -0.26899007 -0.0029830043
1.5331591 -0.23732147 -0.07079983 -0.30449694 -0.47803044 -0.6419842 -0.4754529 0.12844832
-0.30348957 -0.036536854 0.7741086 1.2967508 0.15177806 0.11083974 -0.41400662 -0.45864066
-0.20268914 0.18040422 -0.25416362 -0.371886 -0.57515913 -0.60092616 -0.21325849 -0.21638393
-0.093568966 -0.2532156 -0.2511975 -0.3432134 -0.29287875 0.31232342 0.051135387 -0.21879804
0.06782789 0.67002565 -0.40099195 -0.6086568 -0.35755223 -0.38761497 -0.4384699 -0.44088706
-0.5038922 -0.10047856 -0.2738173 0.23045985 -0.32688394 -0.6077441 -0.40244478 -0.2604289
-0.47613275 0.34030634 -0.16403735 -0.55125 -0.2788896 -0.5146968 -0.49567243 0.17776616
-0.14657551 0.122572385 -0.34793022 -0.02570194 -0.44490445 -0.33053517 -0.58881533 0.24519417
0.20066588 -0.26457906 -0.47628054 0.03136196 -0.10754296 -0.2796425 -0.6779296 -0.37095338
-0.28452313 -0.28968158 0.023239749 -0.37491447 -0.50685734 0.5416083 -0.2043827 -0.42789993
-0.20006706 -0.03542171 -0.11393786 -0.06822403 -0.62255776 -0.70575655 -0.23078692 -0.12664431
-0.54746825 0.09034978 -0.093645036 -0.49242973 0.8354461 -0.21352112 -0.4204716 -0.14892592
-0.014133096 -0.13384826 -0.51206505 -0.28035593 -0.63026893 -0.24251108 0.11135441 -0.36698207
-0.11040673 -0.2907712 -0.11584871 -0.4215905 -0.4103263 -0.09019863 1.2584438 -0.19342309
0.008368736 -0.49140143 0.08772603 0.3274023 -0.15341371 -0.35601854 -0.22972186 -0.1697592
-0.3566047 0.15260278 -0.36901653 0.2788808 -0.1558039 -0.44664496 -0.24478121 -0.26543477
0.39474496 -0.2306384 -0.15261032 -0.053537052 -0.25245264 -0.012586283 -0.013345374 0.20241342
-0.13159288 -0.18237053 -0.3389218 -0.5358963 -0.07393489 0.15366223 -0.24676007 -0.023294521
0.1623288 -0.2828739 0.059663728 -0.56155896 0.011512979 -0.3462087 -0.35859796 -0.57824636
0.3374228 -0.49894726 -0.5924611 1.0505569 -0.010759471 -0.70425904 0.20406364 0.45529354
-0.45549864 -0.007924722 -0.18954827 -0.14303 -0.15688595 -0.049470887 0.063082986 0.21049894

linear2.weight f4 [3, 256]
00000000: be52 c1bc 9b0e ecbe 5ab3 28bd 5b10 b53d
00000010: 6f86 4a3c 593f bb3b 5877 a8bc 78fd 71be
00000020: 44dd d13b 7c30 04bf c254 39bf 6e83 d8be
00000030: d0d2 7cbb ecc6 063f e44b 743e 4a3c 82bd
00000040: f260 2ebe 255f 34bc 97ed 88bc b4c5 3cbf
00000050: 995b e03e 8750 a2be 432b cebc 9f08 71bf
00000060: 82e2 e8bc 897c 16bd 4cf1 f03d aae7 bf3e
00000070: 9604 dcbd d55f 70bc d281 4d3c 42b0 d1bc
00000080: c337 2ebe 8285 e3bb 6cbc b23b 502c 003d
00000090: cf0e 39bd 1441 17bd d0c8 a63e 2a07 bb3e
000000a0: 2b0d f83e bf77 99be 0b90 0bbf eeb3 9e3d
000000b0: eda4 0b3f debc a13e 4e65 bb3d af1a 683e
000000c0: 612c 1cbd 700f 823c 3e29 733d cb79 1ebe
000000d0: c29f 01be 3b6b 083f 369a 09bf 4afb 10bd
000000e0: 865c d2bd 20f9 dbbb 2a1e 98bc a62b 5a3e
000000f0: 1282 973d 4c56 95bc 6dde eabc 4568 883c
00000100: 4dce a9be c345 263e f93a 50bd 155b 79bd
00000110: a6ad 04be bc46 df3e 480a 093d 35b2 c6be
00000120: a256 54bd 13bf 2abe a425 5e3b a205 e43e
00000130: 5932 babd 43c8 b13d 51f9 153d 9e0b 883d
00000140: 75f9 8ebb 961d 39bf 6844 433c 7856 0e3f
00000150: 5206 c2be 034b 35bc b8db d3bd c33c fb3d
00000160: 823a a13e 3c4f 2dbf c047 313e 647e 4bbe
00000170: 7465 03bd b5fc ea3b 9ef0 eebd b9d2 953e
00000180: 653d 22be 061b 9e3b bf38 2e3e eaa5 9b3e
00000190: 17ce 6b3e 94ed 96be 248e 84be 155a 503c
000001a0: 8c5d 1e3d f813 a43e 2c08 89be b8a4 e9be
000001b0: 43c0 dd3b 8170 69be af32 79be 72d1 423d
000001c0: 58fe cd3c 0394 e73b 62ab 0abd 4538 13bd
000001d0: 4de6 053b 70e4 7d3e 33e6 a6bc 3434 89bd
000001e0: fd47 223f 4a67 fe3e 02e5 68be fed0 e6bc
000001f0: 0fe3 25bd 9203 0abe 3d9d b2b4 c96e 7cbc
00000200: 50a8 ae3d f560 06bf 4cd1 a0be f0d8 9f3e
00000210: 89ad afbe f230 c9bb ffeb 403d 4046 29bf
00000220: d452 ac3d 753c 1d3d 8387 48bd cef8 1ebe
00000230: bfdf 67be 00de 11be 56b5 a5bc 61e7 153f
00000240: 3b66 66be 792e 033e 5e5a a5bc ec6d 19bf
00000250: a6bc 4ebc 58de 0cbd 44dd b7bb 8151 e33d
00000260: 31f6 873d d072 8d3d 9df0 873b 58ff 2438
00000270: 58fd 4fbb 6f1c 0a3e 54d2 1abb 8e14 98be
00000280: 73d5 6cbf 8d23 f7be c5fe e23d 1578 343c
00000290: c5d1 1abe 2ee1 033f 8bae 1f3c ad11 0dbd
000002a0: f4dd 64be af34 743e b3cb ccbe 538b 7e3e
000002b0: 77d8 5abc 1e59 06bd e28f 40bc 3a29 03be
000002c0: 4955 30bd 0b54 e33e 6f13 be3a 41ee 1fbe
000002d0: b911 bb3e 0bc9 e03b 4797 33bd 375b 92bb
000002e0: 864d 763d ff63 99bc 815e 13bd 40ae df3b
000002f0: ae12 5ebd 15c1 bebc de45 683d e714 923c
00000300: 9da3 81be f483 b53a 5cee 34be b2b5 0dbe
00000310: 753c 68bb 7c89 fd39 1e4f 023f 762d 3dbc
00000320: 023a 353e cfa2 97bd ce87 733d 727f c33e
00000330: 559f 38bd d7d8 4c3c 6d25 9fbd f263 cbbe
00000340: 51ca 07be 0c64 9c3e b381 19be 91b0 62be
00000350: 1aa1 d8be 1388 273d 0a5f da3c 8bb9 083c
00000360: 9cb0 c03e 8355 fcbd bb43 cfbe 0d33 5f3e
00000370: 66c0 81be 6631 e53e 2cf1 233e 9128 cf3d
00000380: 8194 15bf f89c 46bc 9d3c 68bd 011a 17bc
00000390: 8fe6 1dbe 9629 063f c5f7 9fbc a1ca 6e3d
000003a0: 466a 1cbe 2d66 bf39 5423 5fbe efa8 b4bc
000003b0: 9d68 913e 0f22 5b3a b20a 023e 6fe8 a1bb
000003c0: 6e5a 6c3d 5bae 14be 0e01 74bc cac7 ff3e
000003d0: 26bd 3e3d 4917 29be 9d42 193f 174b c73e
000003e0: a89d 853b f5e0 4bbf 3156 b13c 1f47 443e
000003f0: 3046 fabc f3a5 55bf 388f a4be 6953 fd3d
-0.023599025 -0.46104893 -0.041186668 0.0884101 0.012361153 0.0057143387 -0.02056472 -0.23631847
0.0064045507 -0.5163648 -0.72394955 -0.42287773 -0.0038577802 0.5264728 0.23857075 -0.063591555
-0.17029169 -0.011009012 -0.016714854 -0.7373917 0.43819883 -0.31702062 -0.025167113 -0.9415378
-0.02842832 -0.03673986 0.11764774 0.37481433 -0.10743062 -0.014671286 0.012543159 -0.025596742
-0.17013459 -0.0069434056 0.0054545905 0.03129226 -0.04518014 -0.036927298 0.32575083 0.36528903
0.48447546 -0.29974172 -0.5451667 0.077491626 0.5454853 0.31589407 0.09150182 0.22666429
-0.03812826 0.015876502 0.059365503 -0.15476148 -0.12658599 0.5328862 -0.5375093 -0.035395898
-0.10271554 -0.0067130476 -0.01856907 0.21305713 0.07397856 -0.018229626 -0.028670514 0.016651282
-0.33165208 0.1623755 -0.05083749 -0.06087788 -0.12956867 0.43608654 0.03345707 -0.38807836
-0.051840432 -0.16674452 0.0033896947 0.44535547 -0.09091634 0.08680775 0.03661472 0.06642841
-0.0043632337 -0.7231077 0.011918165 0.5560069 -0.37895447 -0.0110652475 -0.103446424 0.12267449
0.3148995 -0.6769903 0.17312527 -0.19872433 -0.032079175 0.0071712383 -0.11666988 0.2926233
-0.15843733 0.004824999 0.17013834 0.3040002 0.23027836 -0.29478133 -0.25889695 0.01271679
0.038663432 0.32046485 -0.26764047 -0.45633483 0.006767304 -0.22796823 -0.2433574 0.047563024
0.025145695 0.007067205 -0.03385485 -0.035942335 0.002043146 0.24794173 -0.02037344 -0.0669941
0.63391095 0.49688178 -0.2274361 -0.028175827 -0.040499743 -0.13477924 -3.326949e-07 -0.015407273
0.08528197 -0.52491695 -0.3140968 0.31220198 -0.34312084 -0.006139868 0.047100063 -0.6612282
0.08414236 0.038387734 -0.04895736 -0.15524599 -0.22643946 -0.14244843 -0.02022807 0.5855618
-0.22499935 0.12810697 -0.020184692 -0.5993335 -0.0126182195 -0.03439173 -0.0056110937 0.1109953
0.06638754 0.06906664 0.0041485564 3.9338454e-05 -0.0031736698 0.13487409 -0.00236239 -0.29703182
-0.925132 -0.4826931 0.1108375 0.011014958 -0.15119083 0.5151547 0.009746204 -0.034440685
-0.22350293 0.23848222 -0.3999916 0.24857835 -0.013357273 -0.032799833 -0.011753054 -0.12808695
-0.043050084 0.44400057 0.0014501641 -0.1561823 0.3653696 0.0068599037 -0.04384544 -0.00446644
0.060132526 -0.01872444 -0.035978798 0.006826192 -0.054217033 -0.023285428 0.056707256 0.017832233
-0.2532014 0.0013848529 -0.17669052 -0.13838843 -0.0035436426 0.00048358354 0.50901973 -0.011546483
0.1769791 -0.074041 0.059455685 0.3818317 -0.045073826 0.0125028705 -0.0777081 -0.3972469
-0.13260771 0.3054508 -0.14990883 -0.22137667 -0.4231041 0.040901255 0.026656646 0.008345018
0.37634742 -0.123209976 -0.40481362 0.21796818 -0.253421 0.4476425 0.16009969 0.10115159
-0.58429724 -0.012122385 -0.05669843 -0.009222508 -0.15419982 0.52407205 -0.019527325 0.05829871
-0.15274915 0.00036506486 -0.2179082 -0.02205321 0.28400126 0.0008359262 0.12699392 -0.0049410383
0.057703428 -0.14519636 -0.01489283 0.49957114 0.046567105 -0.16512789 0.5986727 0.38924477
0.004077632 -0.7964013 0.021647545 0.19167756 -0.030551046 -0.83456343 -0.32140517 0.12369425

linear2.bias f4 [3]
00000000: 1905 fa3e fa49 e03d 718d ed3d
0.48832014 0.1095161 0.115992434
