ReInforcement/snake/model/model.pth (torch, 16787 bytes, 4 tensors)

linear1.weight f4 [256, 11]
000000 fd 6c 95 be 4e f4 57 bd 75 38 14 be 7a 81 ff bd
       -0.29184714 -0.05272322 -0.14474662 -0.124758676
000010 7f d2 2e be 94 4b 32 3e 00 dd a1 bc f7 23 a0 bd
       -0.17072485 0.17411643 -0.019758701 -0.0781936
000020 94 3a 99 3d d9 cb 7e bd 0a 65 9e 3c cd 50 49 3f
       0.07481876 -0.062206123 0.019335289 0.7863892
000030 8e 2d b7 bc 42 89 ea 3d f8 f9 a0 bd 9f 72 ab 3e
       -0.02236059 0.11451961 -0.07860178 0.33485886
000040 83 ca 0b bf bf 56 72 3e e2 24 5d bf 4c e4 e6 be
       -0.54605883 0.23665904 -0.86384404 -0.45096052
000050 5f 59 a0 3e b2 7e ea be fc f8 7b be bb 34 e9 be
       0.31318185 -0.45799786 -0.24606699 -0.45548043
000060 7f b5 d4 3e 17 a2 97 be 06 30 88 bd a1 a0 96 be
       0.4154472 -0.29615852 -0.06649785 -0.29419425
000070 cb d8 96 3e 74 47 79 be f2 37 8b 3e 3f 31 22 bf
       0.29462275 -0.24343663 0.2719112 -0.63356394
000080 d5 e2 49 be d6 1f 0b 3f 86 4c 1f bf 0a 82 92 3f
       -0.19715436 0.5434545 -0.6222614 1.1445935
000090 73 94 58 bd 81 18 51 bf 95 d8 4a 3d 69 d9 df be
       -0.052875947 -0.81678015 0.049522955 -0.43720558
0000a0 bf 08 08 bf 30 d6 25 3e df 41 f7 bc a8 d0 c7 3d
       -0.53138345 0.16194987 -0.030182777 0.09756595
0000b0 1c e1 8d 3c 89 39 df 3b 48 85 11 3d bf 3b 77 be
       0.017319255 0.0068122786 0.035527498 -0.24143885
0000c0 fe ee 26 3d 21 ad 4c 3d 60 5e 62 be 76 81 f8 ba
       0.040755264 0.049969796 -0.22106314 -0.0018959481
0000d0 76 0b 62 be 16 99 b0 3d 47 f8 1a be c4 e0 4e 3e
       -0.22074685 0.08622949 -0.15133773 0.20202929
0000e0 9c 63 85 be a9 86 c5 be 28 8e 7c be 0e e5 4f bd
       -0.26052558 -0.385793 -0.24663603 -0.050755553
0000f0 93 f3 ff bd 71 26 87 bc 26 eb c4 be 50 5e a0 be
       -0.1249763 -0.016497822 -0.38460654 -0.31321955
000100 15 97 54 be bf b6 9e be 43 ee 12 bf 2b 08 12 3f
       -0.20760758 -0.309988 -0.5739481 0.57043713
000110 ef ef 0a bf 92 f8 6d bd 16 dd e8 be 24 94 6f be
       -0.5427236 -0.058098383 -0.45481175 -0.23396355
000120 2e ab 39 be ec 59 e6 be 5b 6b bb be 45 b2 73 be
       -0.18131706 -0.4499048 -0.36605343 -0.23798473
000130 50 94 65 be 7b ca a6 3e f2 cf b9 3e 85 7d 85 bf
       -0.22419858 0.32576355 0.36291462 -1.042893
000140 42 7e 11 3e 0f a5 6e bd 18 95 ad be 93 17 0b 3f
       0.1420832 -0.05826288 -0.33902812 0.54332846
000150 fc eb 0f bf 40 d1 88 bd ae 56 6b 3e 48 7b 21 bf
       -0.5621946 -0.06680536 0.22982284 -0.6307874
000160 27 e4 19 3e a2 7d 38 be 42 37 df be 3b 6e 99 3c
       0.1502844 -0.18016675 -0.43596846 0.01872932
000170 c5 5d ae 3a a1 e3 80 be a0 0d 12 be 7f 17 c0 bd
       0.0013303092 -0.25173667 -0.1426301 -0.093794815
000180 f2 08 2e be b3 77 20 bc 04 0b ac bc 0a d3 82 be
       -0.169956 -0.0097941635 -0.021001346 -0.25551635
000190 31 a9 b3 3b 0c ea 31 bf df 6a 08 bf 15 b9 0d bf
       0.0054828157 -0.6949775 -0.5328807 -0.5536054
0001a0 52 57 12 bf 5d aa 5d 3e 26 ff 47 bf d9 bc 5c bf
       -0.5716449 0.2164702 -0.781237 -0.8622566
0001b0 97 11 80 3e 40 36 3c bf 51 a1 ef 3e e1 68 b7 be
       0.2501342 -0.7352028 0.46802762 -0.35822204
0001c0 70 f5 b0 be 08 21 9d be bb a8 37 be 08 93 d8 3c
       -0.34562254 -0.30689263 -0.1793546 0.026437297
0001d0 e1 27 55 3e 5f 3f 88 bd c5 0f 06 be 88 50 28 bf
       0.20815994 -0.06652712 -0.13091953 -0.6574788
0001e0 75 3b 0c bf 03 24 07 bd fd 34 79 bf 43 02 4a 3e
       -0.54778224 -0.032993328 -0.9734648 0.19727425
0001f0 d9 5a 9d be fe 25 2a bc 17 2c a4 be 1f a0 11 3f
       -0.30733374 -0.010385035 -0.32064888 0.5688495
000200 96 50 16 bf 79 47 99 bd 65 ee b7 3e b3 11 12 bf
       -0.58716714 -0.074843355 0.35924068 -0.57058257
000210 0b b1 ad be 87 dd bc be 51 47 20 3e 11 91 b6 bd
       -0.33924136 -0.36887762 0.15652205 -0.08914388
000220 f2 70 57 be ee 7a 3c bd 8b c3 1e bf 0b 0b 18 bf
       -0.21039179 -0.046015672 -0.62017125 -0.5939185
000230 8f 33 5b be 47 1a b6 be ef ac 61 bf 17 a3 79 3d
       -0.21406387 -0.35566923 -0.881545 0.06094655
000240 29 95 0d bf ff 29 57 bf ec e5 6f 3f 75 04 95 bf
       -0.55305725 -0.84048456 0.9371021 -1.1641985
000250 81 8b 36 3c 0c b0 c9 be fd cb 0b 3f 7a d0 bd bf
       0.011141659 -0.39392126 0.54608136 -1.4829247
000260 11 89 67 bf 2e d0 9b bf 7d d5 07 bf 9c 6b 56 3e
       -0.9044352 -1.2172906 -0.5306013 0.20939487
000270 03 89 a9 bd 6d 24 d4 3c ae 9b ea be c8 2a f1 bd
       -0.08278086 0.025896275 -0.458219 -0.11775738
000280 dd a1 dc be fd 59 05 bf cc 76 13 bf e6 ef 83 be
       -0.43092242 -0.52090436 -0.57603145 -0.25768965
000290 c4 fe 56 be a8 2e fd bd a0 fb 5d 3e 86 c7 0a be
       -0.20995623 -0.123624146 0.21678019 -0.13552675
0002a0 79 60 d7 3e 9e 85 d3 be ab c2 50 be 39 7a 02 bf
       0.4206579 -0.4131288 -0.2038676 -0.50967747
0002b0 33 56 4f be bd 22 f6 3e b9 99 7d bf 9e d9 4c bf
       -0.20247726 0.48073378 -0.9906269 -0.8001956
0002c0 08 2b 1e 3e fa d4 ab bf 12 e3 0a 3f ee 6d ff 3e
       0.15446103 -1.342437 0.5425273 0.49888557
0002d0 e3 7c 27 bf 6f 1d 10 3f 43 9e 8b 3d 13 f7 98 bb
       -0.65424937 0.5629491 0.068172954 -0.0046681254
0002e0 92 a2 0b 3f b5 82 4b bf 11 c0 fb 3d ec d3 77 3e
       0.5454494 -0.7949632 0.12292493 0.24201936
0002f0 db 28 00 be b8 d5 d4 3d 16 6b ac be c5 12 3f be
       -0.12515585 0.10392326 -0.3367545 -0.18659504
000300 fd f6 b1 be 58 61 cc bd 9d 22 22 be bf 0f 1d 3d
       -0.3475875 -0.09979504 -0.15833516 0.038345095
000310 50 ac 84 3d 67 f8 3e 3d 4b e5 42 be b4 3f 07 3e
       0.064781785 0.046623614 -0.19032781 0.13207895
000320 89 5a 33 3e 0e 28 6f bd a0 86 42 be 6f 74 25 3d
       0.17515005 -0.05838781 -0.18996668 0.040394243
000330 f1 d1 59 be e8 92 1b be ef 59 5e 3d 33 39 28 3c
       -0.21271493 -0.15192759 0.054284986 0.010267544
000340 da a2 d7 3d f8 89 3d 3f b7 ea aa 3d e6 fe cd 3d
       0.10529108 0.7403865 0.083455496 0.10058384
000350 a7 b4 07 bf 79 e4 90 bd 9e f6 7f 3f ca 94 03 3f
       -0.5301003 -0.07074828 0.9998568 0.5139891
000360 ce 68 41 3f a9 8e 59 3e a1 a3 79 bf 7c 68 8f be
       0.75550544 0.21245827 -0.975153 -0.28009403
000370 64 a1 9f be bc 5a 1a 3e 19 a8 37 3e 09 d1 88 bf
       -0.3117782 0.15073675 0.17935218 -1.0688792
000380 c7 b0 ee 3e 47 e3 e1 3e b7 4d 61 bf 3e 1b a0 bf
       0.46619245 0.4411871 -0.8800921 -1.2508314
000390 ea d5 bd bf 02 c4 2b 3f 9e 40 50 bf 09 9c 74 3e
       -1.4830906 0.6709596 -0.813486 0.23887648
0003a0 3e 25 16 3f b4 a0 ac 3e 81 b5 d3 3e 27 26 0f bf
       0.5865058 0.33716357 0.41349414 -0.5591759
0003b0 50 12 e3 3d da 45 2c bf dc c0 9a be a8 35 64 3f
       0.11087477 -0.67294085 -0.30225265 0.8914437
0003c0 10 27 15 3e 0f 81 69 3f 92 0f 97 be 2e 31 e1 bd
       0.14565682 0.9121255 -0.29504067 -0.109957084
0003d0 5b d1 16 be 8a b7 90 be 93 93 28 be 9d 4f 8b be
       -0.147283 -0.2826503 -0.16462545 -0.27209178
0003e0 90 10 3b 3e 0c eb 37 be c6 97 5c be 26 95 9b bd
       0.18268037 -0.17960757 -0.21542272 -0.07596807
0003f0 90 2f 2b 3a 00 a6 df 3d 1a 09 2d bd 05 6a 04 be
       0.00065302197 0.10920334 -0.042245008 -0.12931068

linear1.bias f4 [256]
000000 e5 4b 92 be f8 1e 29 3d 4d 6f c1 be 6d 03 69 be
       -0.28573528 0.0412893 -0.37780228 -0.22755213
000010 64 b2 a7 be ee e7 90 3c 1c e0 ad be 14 1a a8 be
       -0.3275329 0.017688718 -0.33960044 -0.32832396
000020 e4 d8 23 be c5 6f 36 3d 55 7c 24 bf 5d 79 a4 be
       -0.16000706 0.044540185 -0.64252216 -0.32123843
000030 69 b4 a0 3d d8 cc 00 3f 89 2b dd bc 46 4c 6c be
       0.078469105 0.50312567 -0.026998298 -0.23075971
000040 49 0e fd be 08 66 05 bf 0f 42 1f bf b8 b5 84 be
       -0.4942496 -0.5210881 -0.6221017 -0.2591989
000050 9a 06 e2 3c 5f 31 32 bf a2 80 64 be 07 d3 09 be
       0.027591038 -0.69606584 -0.22314695 -0.13459407
000060 50 be ba be 73 89 18 bf 29 e5 bb 3d e0 93 3b 3e
       -0.36473322 -0.5958473 0.09174568 0.18318129
000070 64 c7 c1 be c9 73 f6 be fb 1f 00 be 85 56 01 bf
       -0.37847435 -0.48135212 -0.125122 -0.50522643
000080 1d d2 8a bf a3 28 31 bf b9 9c c3 be f9 92 f0 bd
       -1.0845371 -0.6920263 -0.38205507 -0.11746783
000090 7d f5 44 be aa e7 85 bd 6d ce f4 bd f5 25 5d bf
       -0.19234271 -0.06538327 -0.11953435 -0.8638604
0000a0 1c 4b bd 3e a9 f5 ae bd 6e 8b 27 3d 23 8e 00 be
       0.36971366 -0.0854295 0.040904455 -0.12554221
0000b0 a7 80 d3 3e 74 cb b1 3e 7e c7 13 bf b4 27 a8 3d
       0.4130909 0.34725535 -0.57726276 0.08210698
0000c0 cd c8 f7 be 29 9b c1 be 2d 0f 3c be 3b 58 8b bd
       -0.48395386 -0.3781369 -0.18365164 -0.06803938
0000d0 60 7e 34 bf 1f 58 63 3e 27 44 e6 bd 4f 46 be be
       -0.7050533 0.22201584 -0.11243468 -0.37163016
0000e0 9d 6e 05 bf ab fe 6b be fc a7 bf be de 17 88 3d
       -0.5212191 -0.23046367 -0.3743285 0.06645177
0000f0 c6 6f 13 3e 29 31 81 be 55 1f 64 be 4f 72 14 be
       0.14398107 -0.2523282 -0.22277577 -0.1449673
000100 20 0f bd 3d 8e d4 18 be ce f9 39 bf 04 2d 6c be
       0.092314005 -0.14924833 -0.72646797 -0.23064047
000110 1e 80 80 be 9c b9 e5 3e 6b 22 ae be 33 46 d5 bd
       -0.25097746 0.4486817 -0.34010634 -0.1041378
000120 d3 a9 18 bf 84 94 02 bf d6 10 76 be e1 dc 91 bd
       -0.5963413 -0.51007867 -0.2402986 -0.071222074
000130 f4 6f 16 bf 55 ec bd be 60 3b 48 bf 4a 2d 8f be
       -0.58764577 -0.3709437 -0.782156 -0.2796424
000140 44 65 e9 be 18 2a e3 3d 56 5b af be 0a 08 87 3e
       -0.45585072 0.11092013 -0.3424937 0.2637332
000150 0a 9a a7 bd b8 5c d5 be 40 53 b7 be 50 6e 8a bd
       -0.081836775 -0.416723 -0.35805702 -0.06759322
000160 81 4c 0d 40 61 84 41 be 64 6e e5 bd 0b de 01 bf
       2.2077944 -0.18898155 -0.11202696 -0.50729436
000170 68 c0 f4 be 99 67 32 bf e0 28 32 bf 29 9b 64 3d
       -0.47803044 -0.6968933 -0.6959362 0.055812035
000180 97 c9 c5 be ab a7 15 bd 6a 24 4b 3f 8a a3 e5 3f
       -0.38630363 -0.036536854 0.7935244 1.7940533
000190 06 c5 96 3e dc cc 2a 3d 3f 23 11 bf f3 d2 ea be
       0.29447192 0.041699275 -0.56694406 -0.45864066
0001a0 be 8d 4f be f0 13 7a 3e a4 8c c1 be 64 33 10 bf
       -0.20268914 0.24421668 -0.37802613 -0.56328416
0001b0 a1 3d 13 bf 33 d5 02 bf bd 5c b1 be c0 93 5d be
       -0.57515913 -0.51106566 -0.34641066 -0.21638393
0001c0 16 a1 bf bd 7a a5 81 be f5 9c 80 be ab b9 af be
       -0.093568966 -0.2532156 -0.2511975 -0.3432134
0001d0 34 f4 95 be ee 90 84 3e 2e 2e 55 bd 8b 5a 80 be
       -0.29287875 0.25891823 -0.052045994 -0.2506908
0001e0 e0 a5 d2 3d 46 55 5a 3f 0f ef 77 be 88 59 72 bf
       0.102855444 0.85286367 -0.24212287 -0.94667864
0001f0 16 11 b7 be 37 92 c3 be 20 7f e0 be a6 5c 0a bf
       -0.35755223 -0.3819749 -0.4384699 -0.5404762
000200 7f 22 12 bf 22 d6 ba bd 87 7e 97 be 95 72 5b 3e
       -0.57083887 -0.09122874 -0.2958872 0.21430428
000210 72 6e cf be 24 8c 30 bf 20 dd f8 be e3 b4 99 be
       -0.4051395 -0.6896384 -0.48606205 -0.30020818
000220 ac c7 f3 be 8c 23 9b 3e 68 f9 27 be cd 45 6d bf
       -0.47613275 0.30300558 -0.16403735 -0.9268463
000230 ba 77 5d be 78 1b 32 bf c7 c8 fd be f9 5e 47 3e
       -0.21627703 -0.69573164 -0.49567243 0.19469823
000240 1e 67 b0 be c5 8a 53 be f5 fa 3a bf a5 35 bf bb
       -0.34453672 -0.20658405 -0.7303918 -0.0058352523
000250 84 ca e3 be e8 3b a9 be 9a bc 16 bf b0 d5 e2 bd
       -0.44490445 -0.33053517 -0.58881533 -0.11075914
000260 80 ba d3 bd 43 d8 d9 be 0b db f3 be 66 75 00 3d
       -0.103383064 -0.42547807 -0.47628054 0.03136196
000270 7c 3f dc bd b3 0a 65 be cb 8c 2d bf 89 d3 84 bf
       -0.10754296 -0.22367363 -0.6779296 -1.0377055
000280 b6 75 cd be 59 5d d5 be cb b3 3f be ca f4 bf be
       -0.4012887 -0.4167278 -0.1872093 -0.37491447
000290 41 d7 84 bf d4 a7 3e 3f b3 49 51 be 6f f7 ee be
       -1.037819 0.74474835 -0.2043827 -0.46673152
0002a0 23 32 ab be af 6b 92 bd 63 c7 1a be 54 44 39 bd
       -0.3343669 -0.07149445 -0.15115122 -0.04523118
0002b0 39 01 34 bf 76 ac 34 bf 68 53 6c be 2d fe a2 be
       -0.70314366 -0.70575655 -0.23078692 -0.31834546
0002c0 cc d7 13 bf 2f da 09 3e f8 c8 bf bd c0 1f fc be
       -0.57751155 0.13462137 -0.093645036 -0.49242973
0002d0 35 ee 83 3f 48 a5 5a be 0e 48 d7 be 09 80 18 be
       1.030707 -0.21352112 -0.4204716 -0.14892592
0002e0 80 8e 67 bc 85 0f 09 be b2 16 03 bf d0 8a 8f be
       -0.014133096 -0.13384826 -0.51206505 -0.28035593
0002f0 b0 94 72 bf da 1f b4 be 83 38 6b bd 48 f5 21 bf
       -0.9475813 -0.3518055 -0.05742694 -0.63264894
000300 f3 82 ef bc f6 df 94 be 31 ff ea bd 55 84 03 bf
       -0.029237246 -0.2907712 -0.11474455 -0.513738
000310 4a 16 d2 be 0f ba b8 bd 69 5c d2 3f b4 10 46 be
       -0.4103263 -0.09019863 1.6434451 -0.19342309
000320 61 db ee be f8 98 fb be 01 0a 9e be 47 2d 38 3e
       -0.46651748 -0.49140143 -0.30867007 0.17986022
000330 7c 18 1d be 10 48 b6 be 35 3c 6b be 75 a0 74 be
       -0.15341371 -0.35601854 -0.22972186 -0.23889334
000340 53 15 f3 be b3 08 02 3e 8e 3d 06 bf 1d ce 7f 3e
       -0.47477207 0.12698631 -0.52437675 0.2498097
000350 17 e9 6d be 1f 36 fe be 29 7a 70 be 11 e7 87 be
       -0.23233448 -0.49650666 -0.234841 -0.26543477
000360 36 95 21 3f 02 15 21 be eb 00 9d be 6e d5 6e bd
       0.631183 -0.1573067 -0.30664763 -0.05830901
000370 79 5c a6 be 92 35 50 3e fc bd bb bc e0 2e 4e be
       -0.32492426 0.20332935 -0.02291774 -0.20135069
000380 d9 b5 a1 be 1b eb 58 be 43 d1 d3 be 80 30 09 bf
       -0.3158405 -0.21183436 -0.41370592 -0.5358963
000390 84 6b 52 bc bc 3f 8e 3e ac ae 7c be c0 8d f4 bd
       -0.012843017 0.27783 -0.24676007 -0.11941099
0003a0 54 ef 83 3e d9 d4 90 be fe 87 35 3d c8 41 5b bf
       0.2576853 -0.2828739 0.044319145 -0.8564725
0003b0 16 1b 27 3e 44 42 b1 be 27 9a b7 be f4 07 14 bf
       0.16318926 -0.3462087 -0.35859796 -0.57824636
0003c0 98 db 44 3d d7 de 2c bf 88 ab 17 bf 4d ca a3 3f
       0.048060983 -0.67527527 -0.5924611 1.2796112
0003d0 4e d2 b0 be 4b 74 77 bf da 29 92 3e a7 1b f0 3e
       -0.3453545 -0.96661824 0.28547555 0.46896097
0003e0 7a 8f fd be c8 87 95 bd ae f2 6a be f5 25 f4 bd
       -0.49523526 -0.07301289 -0.22944137 -0.11921302
0003f0 7e 04 7c be 4c 9e 5f be 52 47 4c be 7a 4e 1b 3e
       -0.24611089 -0.21837729 -0.19949082 0.15166655

linear2.weight f4 [3, 256]
000000 be 52 c1 bc 8f 57 75 be 32 00 74 bd 8c 08 10 3e
       -0.023599025 -0.23959182 -0.0595705 0.1406576
000010 6f 86 4a 3c 59 3f bb 3b 58 77 a8 bc f3 85 6e be
       0.012361153 0.0057143387 -0.02056472 -0.23293285
000020 44 dd d1 3b 22 44 13 be 7b dd 49 bf 74 25 d1 bd
       0.0064045507 -0.1438146 -0.7885358 -0.10212222
000030 f3 e2 66 bc c3 cb e2 3e 78 7f ee bc 1a ab 03 be
       -0.014092195 0.44296083 -0.029113516 -0.12858239
000040 33 e4 69 be 25 5f 34 bc 97 ed 88 bc 93 f4 41 bf
       -0.22840957 -0.011009012 -0.016714854 -0.75763816
000050 13 f9 d4 3e 06 b5 a5 be 43 2b ce bc b6 a2 51 bf
       0.4159628 -0.32364672 -0.025167113 -0.818889
000060 1b d3 6a bd 89 7c 16 bd 46 04 d1 3d 1c 64 72 3e
       -0.057330232 -0.03673986 0.10205893 0.23671001
000070 96 04 dc bd d5 5f 70 bc d2 81 4d 3c ac 8c 82 be
       -0.10743062 -0.014671286 0.012543159 -0.2549795
000080 f9 ac f8 bd c5 e8 14 bd 6c bc b2 3b 79 d2 94 bd
       -0.12142367 -0.0363548 0.0054545905 -0.07266707
000090 cf 0e 39 bd e5 d9 1a be 0c 16 87 3d 5f 9f 6d 3f
       -0.04518014 -0.15122183 0.06596002 0.92821306
0000a0 d3 9d d3 3e 38 22 87 bd 9e 58 9c be 14 b1 c8 3d
       0.41331348 -0.065983236 -0.3053636 0.097994
0000b0 20 4c cb 3e 90 b9 82 3e 4e 65 bb 3d 8f ab 1f bc
       0.39706516 0.25532198 0.09150182 -0.009745493
0000c0 61 2c 1c bd 70 0f 82 3c 22 ae 0e bc e1 37 b5 be
       -0.03812826 0.015876502 -0.008708509 -0.35394195
0000d0 15 07 1b be 5b 3e c2 3e e2 99 ce be 4a fb 10 bd
       -0.1513942 0.37938198 -0.40351778 -0.035395898
0000e0 96 50 48 bc 20 f9 db bb 2a 1e 98 bc a6 c0 39 3d
       -0.012226244 -0.0067130476 -0.01856907 0.04534974
0000f0 0f 31 c0 3d 4c 56 95 bc 77 4e 21 be 2a 4b ea 3d
       0.09384357 -0.018229626 -0.15752588 0.11440118
000100 93 5f 0a bf cf c4 b3 3d cb be 36 3e 32 04 e7 bd
       -0.54052085 0.08777773 0.17846219 -0.11280097
000110 74 4a 7a be 2d 5e 07 3f 48 0a 09 3d ea c7 5f be
       -0.24442464 0.52878076 0.03345707 -0.21853605
000120 06 6e d3 3c 13 bf 2a be a4 25 5e 3b 42 ea ca 3e
       0.0258093 -0.16674452 0.0033896947 0.3963185
000130 7c 9d af bd 43 c8 b1 3d c6 82 b9 3e 9e 0b 88 3d
       -0.0857496 0.08680775 0.36232585 0.06642841
000140 c1 ab 29 3a 47 5f 46 bf 47 7b 34 bf b7 d5 0f 3f
       0.00064724317 -0.7748913 -0.70500606 0.5618548
000150 f3 20 d7 be 03 4b 35 bc 2c bd 81 3d 96 66 e4 3d
       -0.42017326 -0.0110652475 0.0633491 0.11152379
000160 60 89 c7 3e 2e d5 82 be c6 05 02 3e 7a a4 c8 bd
       0.38971996 -0.25553268 0.12697515 -0.097969964
000170 74 65 03 bd 19 da 79 3c 8f 84 3a 3c 2d 9f 75 3e
       -0.032079175 0.015249752 0.0113841435 0.23986502
000180 0e 1d 1a be 06 1b 9e 3b d1 fa d8 3d a3 92 ab 3e
       -0.15050146 0.004824999 0.105947144 0.33510312
000190 25 0e 69 3e bd 2b 2c be be 56 39 bd 15 5a 50 3c
       0.22759302 -0.1681356 -0.04524874 0.01271679
0001a0 8c 5d 1e 3d 63 2b 8b 3e e2 07 c2 be 21 21 69 be
       0.038663432 0.2718154 -0.3789664 -0.22766544
0001b0 43 c0 dd 3b 5d e4 83 bb b9 da d9 bc 72 d1 42 3d
       0.006767304 -0.0040250258 -0.026593553 0.047563024
0001c0 58 fe cd 3c 03 94 e7 3b 62 ab 0a bd 45 38 13 bd
       0.025145695 0.007067205 -0.03385485 -0.035942335
0001d0 4d e6 05 3b ba 58 00 3d d3 4e d3 bd 75 40 23 bd
       0.002043146 0.031334616 -0.10317769 -0.039856393
0001e0 e1 16 f2 3e 4a 7c af 3e aa 09 4a be 1a 18 08 3e
       0.4728308 0.34274513 -0.19730249 0.13290444
0001f0 0f e3 25 bd b6 d2 2b be 3d 9d b2 b4 11 f2 6c be
       -0.040499743 -0.16779599 -3.326949e-07 -0.23139216
000200 03 75 0c 3d 54 29 ad be 25 7c 93 be 7f 83 d6 3d
       0.03429128 -0.33820593 -0.28805652 0.104743
000210 51 bd d8 bd db dd 5f bd 18 a9 a8 3c ef ab 2c bf
       -0.10582984 -0.054654937 0.020588443 -0.6744985
000220 d4 52 ac 3d 57 96 2b be 83 87 48 bd f4 96 46 bc
       0.08414236 -0.16756569 -0.04895736 -0.012120951
000230 e6 14 ab be 6f a8 c4 bd 56 b5 a5 bc b3 f5 24 3f
       -0.33414382 -0.09602439 -0.02022807 0.6443741
000240 f9 7c 5c bd a6 93 2e bc a2 a0 86 bd 51 dc 36 bf
       -0.05383012 -0.010655319 -0.06573607 -0.71429926
000250 a6 bc 4e bc 58 de 0c bd 44 dd b7 bb 7e 20 02 bd
       -0.0126182195 -0.03439173 -0.0056110937 -0.03176927
000260 b8 ff 1f 3d 85 3b 14 be 9d f0 87 3b 58 ff 24 38
       0.03906223 -0.1447583 0.0041485564 3.9338454e-05
000270 58 fd 4f bb 85 41 28 bf 54 d2 1a bb da ff 11 bc
       -0.0031736698 -0.65724975 -0.00236239 -0.008911097
000280 28 e3 81 bf c7 eb 87 be ff 2e 87 3d 15 78 34 3c
       -1.0147448 -0.2654707 0.06600761 0.011014958
000290 38 5a 0c bd b9 f8 03 3f 8b ae 1f 3c 37 07 e9 bc
       -0.034265727 0.51551396 0.009746204 -0.028445823
0002a0 ec eb c6 be b8 63 30 3e 8d da e5 be ec ee 22 3e
       -0.3885187 0.1722554 -0.44893304 0.15911454
0002b0 bc 64 14 3c 1e 59 06 bd e2 8f 40 bc 71 cb 4f bf
       0.00905722 -0.032799833 -0.011753054 -0.811698
0002c0 49 55 30 bd c6 39 d5 3e 6f 13 be 3a 41 ee 1f be
       -0.043050084 0.4164564 0.0014501641 -0.1561823
0002d0 7c f3 91 3e 0b c9 e0 3b 47 97 33 bd 37 5b 92 bb
       0.28506076 0.0068599037 -0.04384544 -0.00446644
0002e0 86 4d 76 3d ff 63 99 bc 81 5e 13 bd 40 ae df 3b
       0.060132526 -0.01872444 -0.035978798 0.006826192
0002f0 28 9a ee 3c da 32 c7 be a1 14 ee 3b 30 11 d4 3e
       0.029126242 -0.38905984 0.0072656428 0.41419363
000300 f5 00 06 bf f4 83 b5 3a d6 cc 9f be 9b 21 29 3d
       -0.5234521 0.0013848529 -0.31210965 0.041291814
000310 75 3c 68 bb 7c 89 fd 39 ba 40 0f 3f 76 2d 3d bc
       -0.0035436426 0.00048358354 0.5595814 -0.011546483
000320 74 be 54 ba cf a2 97 bd 94 11 22 bd 15 30 26 3d
       -0.0008115538 -0.074041 -0.039567545 0.0405732
000330 55 9f 38 bd d7 d8 4c 3c 6d 25 9f bd a3 0a 4c be
       -0.045073826 0.0125028705 -0.0777081 -0.19925933
000340 1a f0 22 bf 9f 8f 36 3e 13 9e 50 be d3 98 6a be
       -0.63647616 0.17828225 -0.203728 -0.2290986
000350 b5 44 77 be 25 8c 42 3c a3 a0 1c be 8b b9 08 3c
       -0.24147303 0.011874233 -0.15295653 0.008345018
000360 67 ea c8 3e 4e 8c 11 be a4 52 e5 bc f8 d6 5f 3e
       0.39241335 -0.14213678 -0.027993508 0.21859348
000370 14 3e 49 bf 6c 2c e8 3e 76 d1 c9 3d 5e 8d c9 bc
       -0.7861035 0.4534639 0.09854405 -0.024603542
000380 ef 08 70 be 6a bd 95 3c 2a a5 18 3d 01 1a 17 bc
       -0.23440908 0.018278796 0.037266888 -0.009222508
000390 63 ad c8 be a8 4c b2 3e c5 f7 9f bc 5f ea 13 bf
       -0.39194784 0.3482411 -0.019527325 -0.57779497
0003a0 d6 93 0b be 2d 66 bf 39 ff 53 98 be 24 ac 34 bc
       -0.13630614 0.00036506486 -0.29751584 -0.01102737
0003b0 08 2d 53 3e 0f 22 5b 3a b2 0a 02 3e 6f e8 a1 bb
       0.20622647 0.0008359262 0.12699392 -0.0049410383
0003c0 cf a8 2a bd cd 51 00 be 0e 01 74 bc 03 cf ed 3e
       -0.041664895 -0.12531205 -0.01489283 0.46447
0003d0 96 15 93 be 1a 1e 87 bd c9 86 fa 3e 0c 36 6e 3e
       -0.28727406 -0.06597538 0.48930958 0.23262805
0003e0 76 e1 38 3c 88 f7 6a bf 7a b4 8c bd 34 40 40 3e
       0.011284223 -0.9178395 -0.06870361 0.18774492
0003f0 5e 7c c0 bc 53 47 4d bf 30 50 dc be 35 ce db bc
       -0.023496803 -0.8018696 -0.43029928 -0.026831726

linear2.bias f4 [3]
000000 91 78 2c 3f 1e 4f bf 3d 06 e9 a2 3d
       0.6737147 0.09341262 0.07954602
