ReInforcement/snake/model/model.pth (torch, 16787 bytes, 4 tensors)

linear1.weight f4 [256, 11]
000000 fd 6c 95 be 4e f4 57 bd 75 38 14 be 7a 81 ff bd
       -0.29184714 -0.05272322 -0.14474662 -0.124758676
000010 7f d2 2e be 94 4b 32 3e 00 dd a1 bc f7 23 a0 bd
       -0.17072485 0.17411643 -0.019758701 -0.0781936
000020 94 3a 99 3d d9 cb 7e bd 0a 65 9e 3c 4b 73 f2 3e
       0.07481876 -0.062206123 0.019335289 0.47353587
000030 f3 df 6c 3d fd 6d fb 3c 5b 19 1c 3e ac df fd 3d
       0.057830762 0.030692095 0.15244047 0.12396178
000040 64 4f 5e be 59 1b a7 bd 0e be a8 be a8 52 97 be
       -0.21709973 -0.08159513 -0.329575 -0.2955525
000050 8f 04 2a 3d a7 eb d4 bd f9 1d 03 be 79 ed 38 be
       0.041508254 -0.103965096 -0.12804402 -0.18059339
000060 04 e2 d8 3e bb 25 3d 3d d9 47 9b 3e 78 ac 5a be
       0.42359936 0.04617856 0.30328253 -0.21354854
000070 45 2b 49 3e d6 3b 4b 3e 0a ee 09 3e 4d db a5 be
       0.19645412 0.19847044 0.13469711 -0.32393876
000080 de 6d d0 3c 5b fa 09 3f d1 8e b7 be db f3 1b 3f
       0.025443014 0.5389764 -0.35851148 0.6091897
000090 15 79 c2 3d 6b 01 90 be a3 8f 1c 3e 30 34 3f be
       0.09495751 -0.28126082 0.15289168 -0.18672252
0000a0 42 d4 83 bd 09 b0 84 3e e0 d0 96 3e 9e f0 30 3e
       -0.06436969 0.25915554 0.29456234 0.17279288
0000b0 1c e1 8d 3c 89 39 df 3b 48 85 11 3d bf 3b 77 be
       0.017319255 0.0068122786 0.035527498 -0.24143885
0000c0 fe ee 26 3d 21 ad 4c 3d 60 5e 62 be 76 81 f8 ba
       0.040755264 0.049969796 -0.22106314 -0.0018959481
0000d0 76 0b 62 be 16 99 b0 3d 47 f8 1a be 35 df 06 3f
       -0.22074685 0.08622949 -0.15133773 0.52684337
0000e0 49 90 19 be df 9e 55 be 86 7f 19 be f8 41 b7 3d
       -0.14996447 -0.20861386 -0.14990053 0.089481294
0000f0 35 f1 97 3d d9 1f a6 bd 09 d5 fc bd 76 f3 60 be
       0.074190535 -0.08111543 -0.12345321 -0.21967873
000100 53 aa e2 3d ef 63 6a be 3a 52 f8 be b7 7e 34 3f
       0.11067643 -0.22889684 -0.48500234 0.7050585
000110 2d 71 5d be e2 31 41 3e 42 eb e4 be 95 0a 35 3e
       -0.21625204 0.18866685 -0.44710737 0.17679818
000120 99 74 14 3e ff c3 80 bc 3a 73 70 be 69 ac a2 3c
       0.14497603 -0.015718458 -0.23481455 0.019857602
000130 37 6d 46 3e 09 eb af 3d e7 e6 69 3e 9f d5 0d bf
       0.193776 0.08589751 0.22841989 -0.55404085
000140 00 ed 6c 3e 6a 66 9e bc f3 22 07 bf 6f c7 9a 3e
       0.23137283 -0.019335944 -0.52787703 0.3023028
000150 60 ea a2 be 3c b3 cc 3d 44 5b d9 3e f7 32 98 bc
       -0.3181944 0.09995124 0.42452443 -0.01857899
000160 03 c4 52 3e 7b a7 c9 bd c8 14 c0 be 81 55 47 3d
       0.20582585 -0.098463975 -0.37515855 0.048665527
000170 0d be c4 3d e5 e9 61 be e2 ef 85 bc 0d 02 12 be
       0.09606562 -0.2206188 -0.016349737 -0.14258595
000180 75 2b d9 3c 4e 82 8b 3d 22 94 57 3d e2 47 3f 3d
       0.02650998 0.06811963 0.052631505 0.046699412
000190 46 e4 c9 3e 1c b6 f2 be 89 6c c8 be a4 d7 2f 3c
       0.3943197 -0.47404563 -0.39145306 0.010732565
0001a0 50 c5 80 bd 02 f7 4a 3e 0c 2e 4e 3d ce 5a 14 be
       -0.062876344 0.19820789 0.050336882 -0.14487764
0001b0 ac 46 ea 3d b8 4b 82 be f4 47 37 3f c6 02 71 be
       0.11439261 -0.25448394 0.71594167 -0.23536214
0001c0 6a cf 4c be d4 ff d0 bd 9a 63 a2 bd f0 e6 4a 3e
       -0.20000997 -0.10205045 -0.07929154 0.19814658
0001d0 39 4a c3 3e ae e7 65 3e a7 43 62 3e df 4d 13 be
       0.38142565 0.2245166 0.2209612 -0.14385174
0001e0 62 cd 94 be 12 11 3b 3e 01 b3 d4 be 0a c1 35 bd
       -0.29062945 0.1826823 -0.4154282 -0.04437355
0001f0 a5 47 d1 be ce 7f 63 be ec 76 19 be 5f 06 cf 3e
       -0.40874973 -0.22216722 -0.14986771 0.40434548
000200 3d 90 79 be 58 a8 54 3e 8e 4e 7f 3e c4 8d 90 be
       -0.24371429 0.20767343 0.2493231 -0.2823316
000210 f8 58 e5 be 07 8e 5b 3d e0 0b cf 3e d0 32 d3 3d
       -0.4479444 0.053602245 0.40438747 0.10312426
000220 bc 4f 79 3e 6a 0a c6 3c d2 10 87 be f2 3f 9a bd
       0.24346823 0.024174888 -0.2638002 -0.07531728
000230 a3 99 23 3e ec ef 32 bd 74 b1 cc be 0a b0 16 be
       0.15976577 -0.04368584 -0.39979136 -0.14715591
000240 36 50 55 be 1a 39 88 3d 92 11 ca 3e 57 22 1f bf
       -0.2083138 0.06651516 0.3946653 -0.62161773
000250 ed 79 97 3d 8f d3 6c bc cf f3 ad 3e 5f 42 1e bf
       0.07396302 -0.014454736 0.33975074 -0.61820024
000260 05 a2 39 bf 34 8d 26 bf 25 79 00 bf 3d 3b cf 3e
       -0.7251285 -0.6505921 -0.5018485 0.40474883
000270 bd 9b d3 3d 10 07 98 3e 48 d0 0a bf a3 eb 0c 3e
       0.10332439 0.29692888 -0.5422406 0.13761763
000280 17 76 88 3e e9 13 5a be 68 cd 14 bf 69 34 e9 3d
       0.26652595 -0.21296658 -0.58125925 0.113869496
000290 04 a6 49 3e 92 3d d5 bd e5 a9 aa 3e 51 dd a0 be
       0.19692236 -0.10412134 0.33332744 -0.3141885
0002a0 08 ae 25 3e cb 74 82 bd 29 1a 05 3e d1 63 be be
       0.16179669 -0.06369933 0.1299826 -0.3718553
0002b0 a1 a4 54 3e 42 8f 8c 3e a7 cd 91 be 9b 25 ba bd
       0.20765926 0.27453047 -0.28477213 -0.09089204
0002c0 9b 8a aa bd 3f be db be e4 47 75 3e c1 09 9b 3e
       -0.08327218 -0.42918584 0.23953205 0.3028088
0002d0 5b 93 f1 be 9f cf c4 3e 5e 2e 89 bd 71 21 a4 bd
       -0.47182736 0.38439652 -0.06698297 -0.08014191
0002e0 0e 8a 04 3f 99 f2 fd bd 8e 75 b0 3e 96 c8 16 3f
       0.51773155 -0.123997875 0.34464687 0.5889982
0002f0 2b 56 80 3d 1b cb 90 3e 27 6e a3 bd c2 80 95 bd
       0.06266435 0.28279957 -0.07979994 -0.07299949
000300 96 04 36 bd 00 cd ed bc a1 a0 1d 3e c7 42 6e 3e
       -0.044437967 -0.029028416 0.15393306 0.23267661
000310 32 43 b1 3e 12 cb 3c 3e 9c cd 24 be 8c 4c 8e 3e
       0.34621578 0.1843684 -0.16094059 0.27792776
000320 de f1 d4 3e 50 5a c7 3d 0a 70 94 bd 76 60 49 3e
       0.4159078 0.097340226 -0.07247932 0.19665703
000330 a6 91 ee 3c db bd 4d 3e cf 39 6c 3e 38 d6 8f 3e
       0.029122185 0.20091955 0.23068927 0.28093123
000340 3d ce ac 3e 61 91 bc 3e 1c 47 cb bb df d1 12 be
       0.33751097 0.36829665 -0.0062035453 -0.14337872
000350 3b 6e d6 be 4e bd 90 be fd 62 d8 3e 90 81 6f 3e
       -0.41880974 -0.28269428 0.42263022 0.23389268
000360 c9 ff d3 3e ba 2e 90 3e ab ec d2 be 60 3c 4d be
       0.41406086 0.2816065 -0.41196188 -0.20042562
000370 d5 9d 41 be fb 08 e5 3e 1f d6 2c be 9c 7a a5 be
       -0.18907864 0.44733414 -0.16878556 -0.32320106
000380 65 6d 7f 3e e8 b0 87 3e 1e 54 7d be 86 1e b7 be
       0.24944074 0.26502156 -0.2473912 -0.35765475
000390 67 ab 06 bf 84 11 d3 3e a6 f0 27 be 3e 78 31 3e
       -0.5260529 0.412243 -0.16400394 0.17331025
0003a0 e4 2c c2 3e 80 87 d4 bd 54 c2 3f bd 9b 0c b6 be
       0.37924874 -0.10377407 -0.046816185 -0.35556492
0003b0 f5 7f a1 3e 9e 1d 3a be b2 37 a8 bd 24 36 0d 3f
       0.31542936 -0.1817536 -0.08213748 0.5516074
0003c0 40 c7 e0 bd 12 fc c1 3e 92 0f 97 be 2e 31 e1 bd
       -0.10975504 0.37887627 -0.29504067 -0.109957084
0003d0 5b d1 16 be 8a b7 90 be 93 93 28 be 9d 4f 8b be
       -0.147283 -0.2826503 -0.16462545 -0.27209178
0003e0 90 10 3b 3e 0c eb 37 be c6 97 5c be 26 95 9b bd
       0.18268037 -0.17960757 -0.21542272 -0.07596807
0003f0 90 2f 2b 3a cb d4 1e 3e af 57 3c 3c 82 7f e5 be
       0.00065302197 0.15510862 0.011495515 -0.44823843

linear1.bias f4 [256]
000000 e5 4b 92 be 9d 43 06 3e 35 4b f1 3d 62 25 e4 bc
       -0.28573528 0.1311173 0.11781923 -0.027849857
000010 64 b2 a7 be 4c 14 88 3e 34 cc dd 3d ed a6 37 bc
       -0.3275329 0.26577985 0.10829964 -0.011209232
000020 c6 05 00 bd fb e3 7c 3e 48 cc c4 bd 7e 03 9e bd
       -0.031255506 0.24696343 -0.09609276 -0.0771551
000030 eb c3 c0 3e 95 e9 7a 3e 28 9d 76 3e c3 8a bd 3d
       0.37649474 0.24503167 0.24083388 0.09254982
000040 7a db 87 be 52 6a 07 be 73 0e 44 be ab aa 81 bc
       -0.26534635 -0.13224152 -0.19146137 -0.015828451
000050 43 ce 3a be 00 c3 33 be a2 80 64 be db 84 f1 bd
       -0.18242745 -0.17554855 -0.22314695 -0.11792918
000060 a3 00 29 be aa e7 70 be aa df 11 3e 6a 65 e5 3c
       -0.16504149 -0.23525873 0.14245477 0.02800246
000070 6e 4f 82 be 21 1a f7 bd fb 1f 00 be 6a 34 09 be
       -0.25451225 -0.120655306 -0.125122 -0.133989
000080 6a cf 0d bf d0 b6 09 be 77 b5 a3 bc c1 92 96 3e
       -0.55394614 -0.13448644 -0.01998399 0.2940884
000090 72 a1 a3 3e 0e 97 27 be dc 05 81 bd 92 3f e9 bd
       0.3195911 -0.16366217 -0.06299946 -0.11389078
0000a0 1d c2 44 3e fe 58 fa 3d 88 78 f9 3d bf d2 24 be
       0.19214673 0.12224005 0.12181193 -0.16096018
0000b0 02 ea 91 3e ac 4b b1 3e 38 e7 25 be 1f 03 16 3e
       0.28498846 0.34628046 -0.16201484 0.14649628
0000c0 0a 10 fa bd ef 00 b7 be d6 8f 66 3e 07 43 0c be
       -0.122100905 -0.357429 0.22515807 -0.13697444
0000d0 5d 9a e7 bd b0 e9 86 3e bc cf 26 bc 00 7f d7 bb
       -0.11308739 0.26350164 -0.010181364 -0.006576419
0000e0 08 17 01 be ab fe 6b be 2e 57 95 3d ad b4 36 3c
       -0.12606442 -0.23046367 0.07292019 0.011151475
0000f0 52 61 a5 3d 1f d0 c4 bd c0 b9 10 be df 1f b2 bd
       0.08075203 -0.096100084 -0.14133358 -0.08697485
000100 d3 10 0b 3e 41 ee 9e bd 7d e8 db bd 8a 81 27 3c
       0.13580637 -0.07760287 -0.10737703 0.010223756
000110 eb 36 24 be 45 a7 87 3d 80 ab fc bd 68 c1 54 3d
       -0.16036575 0.06623701 -0.123373985 0.05194226
000120 39 c0 97 bd 8a 42 09 be aa 4c 12 3e b2 8f 4b be
       -0.074097104 -0.13404289 0.14287058 -0.19879034
000130 65 1b 47 be 74 3b 80 be 8c 76 13 be b3 40 fb 3c
       -0.19444044 -0.2504536 -0.14400691 0.0306705
000140 bd b7 e7 bc 0a b9 fa 3d 15 6b 50 be 91 78 c9 3d
       -0.028285855 0.12242325 -0.20353349 0.09837449
000150 36 2d ca bc c4 97 1f be 35 74 13 be 3e 37 b7 bc
       -0.024679761 -0.15585238 -0.14399798 -0.022365209
000160 52 8a 20 3f e1 be 78 bd f4 9f 30 be 4f 86 bc bd
       0.6271106 -0.06072891 -0.17248517 -0.09205305
000170 94 34 b6 bc 81 fc 25 be c9 63 7f be a4 df 1a bd
       -0.022241868 -0.16209604 -0.24940409 -0.037810937
000180 1f 37 14 be ab a7 15 bd 49 86 11 3f 33 27 2e 3f
       -0.14474152 -0.036536854 0.5684553 0.68028563
000190 99 0a bf 3c df 77 b3 3d 60 46 99 be f3 d2 ea be
       0.023320483 0.08763098 -0.29936504 -0.45864066
0001a0 0a 5d ca 3d 8b 25 ca bd e7 04 82 be 4e 91 1c be
       0.09881027 -0.09870442 -0.25394365 -0.15289804
0001b0 7f 89 37 be 44 e9 79 be 6a fd 9d bd 75 04 3d bd
       -0.17923544 -0.2440539 -0.077143505 -0.04614683
0001c0 57 13 09 3d 7a a5 81 be 8d 79 2f 3d 0c 7e d0 bc
       0.03346571 -0.2532156 0.04284053 -0.025450729
0001d0 f9 10 89 3c 88 69 9b 3e cb 6e 14 3e a5 d3 b1 3d
       0.016731726 0.3035395 0.14495389 0.08682946
0001e0 13 6a 62 3d a1 e1 b1 3e 7b 33 f6 bd cb 1f a5 be
       0.05527694 0.34742454 -0.12021538 -0.3225082
0001f0 16 11 b7 be cc 05 96 be ca d4 8a be 30 2f 81 be
       -0.35755223 -0.29301298 -0.2711547 -0.25231314
000200 2f d1 9c bd b0 f0 10 be 79 6c 82 be e7 90 36 3e
       -0.07657086 -0.14154315 -0.25473383 0.17828713
000210 13 bc 59 be 3b 0f cd bd 81 00 b5 bd e1 dd 06 be
       -0.21263151 -0.100126706 -0.08837987 -0.13170578
000220 9e cd db bd 1f 65 c6 3e cc 0c 8a 3e 30 a1 84 be
       -0.10732578 0.38749024 0.26962888 -0.25904226
000230 5b 70 a4 bd 2d 5a 5e be 54 bf 02 be 6c f5 6a 3c
       -0.080292426 -0.21714087 -0.12768298 0.01434074
000240 4f 3c 3b bd b7 34 57 3e 38 a1 14 3d 82 1d 0a 3d
       -0.04571181 0.21016203 0.036286563 0.033719547
000250 4c 44 92 bc 86 e2 ae bd 4f 52 e9 bd d2 ee a3 3e
       -0.017854832 -0.085393 -0.11392652 0.32018143
000260 f8 2c 70 3e c0 81 c8 bd d3 98 5d bd 4b d8 ac 3e
       0.23454654 -0.09790373 -0.054100823 0.33758768
000270 7c 3f dc bd 5c 87 ea 3c df 17 74 be 71 01 6f be
       -0.10754296 0.028628998 -0.23837231 -0.23340394
000280 bb 7c 1e be 5d dd 22 be c3 2c 8f 3d 98 18 11 3d
       -0.15477268 -0.15904756 0.069909595 0.035423845
000290 ce 4f 8c be 6d 08 cb 3e b3 49 51 be 40 0f 55 be
       -0.27404636 0.39654866 -0.2043827 -0.20806599
0002a0 64 ce b7 3d 56 a0 0c be 71 b7 7b bd 68 7b 1c bd
       0.08974913 -0.13733038 -0.06145424 -0.038203627
0002b0 1e fa 2b be 7b 8e a9 be e4 9d 9a 3d e5 ce 52 bd
       -0.16794631 -0.33116516 0.075496465 -0.05146684
0002c0 32 ec 22 be 3e 33 40 bc dc 70 20 3e 5d 2a 21 be
       -0.15910414 -0.011730967 0.15668052 -0.15738817
0002d0 41 f2 90 3e 2e 2f 19 be 33 d6 88 3c 45 26 13 3e
       0.28309825 -0.14959404 0.0167037 0.14370067
0002e0 80 8e 67 bc 85 0f 09 be 86 0a c4 be d0 8a 8f be
       -0.014133096 -0.13384826 -0.3828928 -0.28035593
0002f0 74 ba 87 be dc 49 17 be 52 ac c5 3e 22 ef 19 3a
       -0.2650944 -0.14774269 0.38608032 0.00058721204
000300 73 c6 4b 3d 8a 47 15 bd 54 48 b9 bc d3 41 fa bc
       0.049749803 -0.036445178 -0.022617497 -0.030548966
000310 a1 50 b8 be 14 50 0f 3d 9e 0f 2c 3f 6a 3d 70 3b
       -0.35999015 0.034988478 0.6721133 0.00366577
000320 17 2d 06 3c 04 47 69 be 91 18 cf 3d b1 02 ac 3e
       0.008189461 -0.22780997 0.101121075 0.33595803
000330 7c 18 1d be e8 7c 4c 3d be 11 78 3b 96 b2 27 be
       -0.15341371 0.049923807 0.0037852372 -0.16376719
000340 b0 b3 56 be 8a f4 97 3d 3d aa a2 be 2b 2e 70 3e
       -0.20966983 0.07419689 -0.31770507 0.23455112
000350 74 5a 8d bc 62 ad 70 be d4 65 33 be 90 fe d8 bd
       -0.017255045 -0.2350364 -0.17519313 -0.10595429
000360 20 2c af 3e 7c f3 83 bd 40 50 ea bd 42 9b e7 bc
       0.34213352 -0.06442925 -0.11441088 -0.028272275
000370 b9 b5 e6 bd dd 59 c2 bd ad b1 1a bd 23 96 50 3e
       -0.112651296 -0.09489796 -0.0377671 0.20369773
000380 d4 63 b9 bd 7d 19 4a 3e da 2e 80 be 50 55 a4 be
       -0.09052244 0.19736286 -0.25035745 -0.32096338
000390 f9 d5 1c bc ac 69 bb 3b 35 90 04 bd e4 43 f0 3d
       -0.009572499 0.005719384 -0.03236409 0.11731699
0003a0 68 0c 10 3e 0a 30 30 be 44 93 4f 3e eb fb 9f be
       0.14067233 -0.17205825 0.20271021 -0.31246886
0003b0 88 f2 c5 bc f2 03 cc bd d7 cd 49 bd c0 a9 42 be
       -0.0241635 -0.0996169 -0.04926857 -0.19010067
0003c0 86 c9 ab 3e 29 3d 5f be b3 99 38 bc 14 78 07 3f
       0.33552188 -0.21800674 -0.0112671135 0.529176
0003d0 d0 47 92 3e 7a b8 bc be ed 35 2e 3e 9b e1 72 3e
       0.28570414 -0.36859494 0.17012759 0.23718874
0003e0 a6 bc 4b bd 84 ae 8c 3d 7b 5a c7 bd 8a 8d dc bd
       -0.049740456 0.06869224 -0.09734055 -0.10769184
0003f0 85 c2 83 bb 8d fc 52 3d a2 60 60 3d ea fb 9b 3e
       -0.0040209913 0.051510382 0.054779656 0.30465633

linear2.weight f4 [3, 256]
000000 be 52 c1 bc 25 78 41 be 50 06 83 3e f3 8d 59 be
       -0.023599025 -0.18893488 0.25590754 -0.21245556
000010 6f 86 4a 3c f4 4b 82 39 45 53 82 3e c4 59 41 be
       0.012361153 0.00024852122 0.25454155 -0.18881899
000020 93 61 df 3b 58 fe 35 3d 98 61 c7 be c7 e0 8c be
       0.0068170517 0.044432014 -0.38941646 -0.27515242
000030 44 fb 91 3e 04 e6 04 3f 82 4e a9 3e 17 20 a9 3d
       0.28512013 0.51913476 0.3306771 0.08258074
000040 c6 7d 02 bf c5 5a 01 be 0a b4 e2 bc d7 2c 10 bf
       -0.50973165 -0.12632282 -0.02767374 -0.5631842
000050 10 a7 81 3e 6c eb ce be 43 2b ce bc b1 63 f6 be
       0.2532277 -0.40413988 -0.025167113 -0.48122934
000060 0e 24 6e be 36 5f 5c be 72 33 26 3e 96 a1 bb 3e
       -0.23255941 -0.21520695 0.16230562 0.36646718
000070 f4 9d 2e be 8b fc f8 bd d2 81 4d 3c 11 c1 ca be
       -0.17052442 -0.12157544 0.012543159 -0.39600423
000080 90 31 68 be ba b2 66 be f4 79 10 bc de dc 3f 3e
       -0.22675157 -0.22529116 -0.008818138 0.18736598
000090 0b 9b 8a 3c 39 f7 02 be aa 4d 7f 3e 03 b8 1b bd
       0.016919633 -0.1278962 0.2493197 -0.038017284
0000a0 f1 cf e0 3e 67 47 c3 bd 8f c7 8c be a8 49 ea 3d
       0.43908647 -0.09535103 -0.27496 0.1143983
0000b0 0f 63 0d 3f 28 af e3 3e 85 80 08 be 4b b8 4d 3e
       0.55229276 0.4446957 -0.13330276 0.20089833
0000c0 2c a2 f0 bd 44 b3 c9 b8 97 06 5e 3e c0 e3 c0 be
       -0.11749682 -9.617818e-05 0.21682201 -0.3767376
0000d0 09 1f 3c be c0 2e 04 3f 8f 1b d3 be 12 d2 1f be
       -0.18371214 0.51633835 -0.41231963 -0.15607479
0000e0 bd 12 4c be 20 f9 db bb 27 3a 35 3e 90 59 96 3e
       -0.19929023 -0.0067130476 0.17697965 0.29365206
0000f0 1f e1 00 3e 2f a8 1f bd aa ba 50 3d 75 8c 26 3e
       0.12585877 -0.03897875 0.050959267 0.16264518
000100 30 63 42 be 83 41 b4 3e 66 22 09 bf 6e 76 9b 3d
       -0.1898315 0.3520623 -0.5356811 0.07590948
000110 4a 35 65 be 68 40 a8 3e 4b 32 08 be d6 8b e5 be
       -0.2238361 0.32861638 -0.13300435 -0.4483325
000120 36 72 c9 bd e6 b1 27 be 24 91 10 3e 42 a5 89 3e
       -0.09836237 -0.16376457 0.14117867 0.26883894
000130 3a 64 a4 bd d0 b5 06 3e 94 45 7c 3c a3 bd 57 bd
       -0.08026929 0.13155293 0.015397448 -0.052671086
000140 44 f6 8d bc 8b 8e ac be c6 47 94 be 5a 6e c7 3e
       -0.017329343 -0.33702502 -0.2896101 0.3895138
000150 63 bc 74 be 6d a8 ed bd 8e bd b3 be 6d 99 81 3e
       -0.23899989 -0.1160439 -0.35105556 0.25312367
000160 86 b0 3c 3e 67 14 bf be b7 c8 84 3e c9 a6 05 bf
       0.18426713 -0.37320253 0.25934383 -0.5220762
000170 65 77 6e bc 72 18 bc be e9 ea 28 be 69 8c 67 3e
       -0.014554833 -0.367374 -0.16495861 0.22612156
000180 9e 37 f0 be 06 1b 9e 3b e0 aa 51 3e 69 53 7b 3e
       -0.46917433 0.004824999 0.2047534 0.24543537
000190 16 c8 89 3e 26 36 f8 be 67 97 d1 bd 15 5a 50 3c
       0.26910466 -0.48478812 -0.10233956 0.01271679
0001a0 8b 8c 6d 3e ef 91 31 3e bd de 02 be 56 c9 08 bf
       0.23198144 0.17340825 -0.1278028 -0.53432214
0001b0 70 d1 cb bd e0 35 9c 3c 03 2b ce bc cf 6d 9e bd
       -0.099520564 0.019068658 -0.025166994 -0.07735788
0001c0 cf 54 c2 3c 03 94 e7 3b d4 ab 00 bb 0f 0e 69 be
       0.02372208 0.007067205 -0.0019633668 -0.22759269
0001d0 c4 e7 95 bd ff 2a 85 3e a5 29 26 3e ec a6 28 3e
       -0.073195964 0.26009366 0.16226824 0.16469926
0001e0 8d 54 19 3f bc de 0c 3f 49 03 13 be 25 db b0 bd
       0.5989464 0.55027366 -0.14356722 -0.086355485
0001f0 0f e3 25 bd 19 c1 9c be 3c cd 2f 3e ad 47 55 be
       -0.040499743 -0.30616072 0.17168134 -0.20828123
000200 85 98 06 be ec 35 cb be de 81 d8 be 08 aa a5 3e
       -0.13144119 -0.39689577 -0.4228658 0.32356286
000210 0a 18 9d bd 0f 86 26 be 48 7d a8 bd 52 f0 e7 be
       -0.07670601 -0.16262077 -0.082270205 -0.45300537
000220 47 53 f2 bd 43 75 c7 3e 4a b8 d1 3d ee d5 86 be
       -0.1183229 0.3895665 0.102402285 -0.2633509
000230 13 ff 79 be 7a 02 68 be b2 fe 19 be ab 5f d2 3e
       -0.2441371 -0.22657195 -0.15038565 0.41088614
000240 a8 ea ca bc c4 e9 02 3e e8 94 8e be 79 30 c1 be
       -0.024770096 0.12784487 -0.2784798 -0.37732294
000250 3b b3 96 bc 3a 6a 1f be 4a 00 52 be f4 5b 87 3d
       -0.01839601 -0.15567866 -0.20507923 0.066093355
000260 bd 41 1e 3e 1c f2 6d 3e a1 9c 9c 3b d5 0c 7e 3e
       0.15454765 0.23236889 0.004779414 0.24809583
000270 58 fd 4f bb e7 b3 55 bd 85 8f 83 be e5 27 e5 be
       -0.0031736698 -0.05217352 -0.25695434 -0.44757
000280 37 fa 5f bf f7 51 17 bf c7 e4 17 3e 92 17 01 3d
       -0.8749117 -0.59109443 0.14833365 0.03151662
000290 7c a6 97 be c8 87 c6 3e 8b ae 1f 3c ac d7 17 3d
       -0.29619205 0.38775468 0.009746204 0.037070915
0002a0 c2 12 04 bd 18 0d 17 3e 88 80 02 bf ea 16 8a 3e
       -0.03224445 0.14751089 -0.50977373 0.26970607
0002b0 81 65 33 be 25 3b 1c be d2 76 e0 3d e4 63 62 be
       -0.1751919 -0.15256937 0.10960163 -0.22108418
0002c0 53 f6 81 be ee e8 df 3e 7b a8 ab 3c 9d ef 4a be
       -0.25383243 0.437324 0.020954361 -0.19817968
0002d0 89 08 cf 3e 0b c9 e0 3b d4 c8 89 bd 96 66 44 3d
       0.404362 0.0068599037 -0.06727758 0.047949396
0002e0 86 4d 76 3d ff 63 99 bc 16 69 b6 bd 40 ae df 3b
       0.060132526 -0.01872444 -0.08906762 0.006826192
0002f0 3a cd 82 be aa bb 50 bd 55 91 8b 3d 99 38 60 3c
       -0.255472 -0.05096022 0.06814829 0.013685369
000300 6f 59 cd be 74 ae 2b 3a db 74 3a be a5 7b f9 bd
       -0.40107295 0.0006549128 -0.1820864 -0.121817864
000310 2f c6 a1 3c 05 33 bb 3d e8 fe d4 3e b1 27 ee bd
       0.019747822 0.091405906 0.41600728 -0.11628664
000320 65 cc 97 3e 7b 6d fe bd 07 68 44 3e bf e2 d5 3e
       0.29648128 -0.124232255 0.19180308 0.41774556
000330 55 9f 38 bd b5 d0 58 3e 15 c2 4f be 8e ff 06 bf
       -0.045073826 0.21173365 -0.2028888 -0.52733696
000340 56 83 e7 be 2a 1d be 3e b0 4f b2 be 73 d5 87 bd
       -0.4521739 0.37131625 -0.34826422 -0.06632509
000350 1a 2e ef be 63 bc 5c 3e 82 27 2f bb 22 81 4c 3e
       -0.4671486 0.21556239 -0.002672643 0.19971135
000360 42 11 80 3e 7e f4 64 be 18 40 cd be ee 8f 88 3e
       0.25013167 -0.22358891 -0.40087962 0.2667231
000370 f8 18 ad bd 4a 5a ce 3e 03 07 94 3e eb e0 62 3e
       -0.08452028 0.4030326 0.289116 0.22156112
000380 83 81 0d bf 31 8f 04 3e 80 3b 98 be 97 5d d0 bd
       -0.55275744 0.12945248 -0.29732895 -0.10174101
000390 85 c9 6a be 7a 62 e3 3e 6a 41 e4 3d 6c 9b 50 3e
       -0.22928436 0.4441107 0.11145289 0.20371789
0003a0 7e e1 19 be 32 ec b5 3d ec 63 6f 3d c6 b5 c6 be
       -0.15027425 0.08882941 0.058444902 -0.38810557
0003b0 84 3e 1b 3e a0 40 d5 bd b2 aa 60 bd 5a 3a b9 3d
       0.15160567 -0.10412717 -0.054850288 0.09044333
0003c0 72 db 86 3e ae 66 1e be 8d 70 fd 3a 43 aa df 3e
       0.26339298 -0.15468857 0.0019335911 0.43684587
0003d0 92 0c 08 3e 97 b3 51 be 7f f0 0d 3f 20 d7 c0 3e
       0.13286045 -0.20478664 0.5544509 0.37664127
0003e0 3f 33 52 be c6 87 24 bf ae 22 65 be d3 b6 59 3e
       -0.20527361 -0.64269674 -0.2237651 0.21261148
0003f0 2b 89 ba 3d 30 18 0e bf 31 2d b0 bd ce ce aa 3e
       0.09108194 -0.5550566 -0.086023696 0.33360904

linear2.bias f4 [3]
000000 ef e0 39 3e 64 de 71 3d fb 2d 9c 3d
       0.18152212 0.05904998 0.076259576
